{"format": "graph-model", "generatedBy": "2.18.0", "convertedBy": "TensorFlow.js Converter v4.22.0", "signature": {"inputs": {"keras_tensor_13": {"name": "keras_tensor_13:0", "dtype": "DT_FLOAT", "tensorShape": {"dim": [{"size": "-1"}, {"size": "50"}, {"size": "3"}]}}}, "outputs": {"output_0": {"name": "Identity:0", "dtype": "DT_FLOAT", "tensorShape": {"dim": [{"size": "-1"}, {"size": "50"}, {"size": "3"}]}}}}, "modelTopology": {"node": [{"name": "StatefulPartitionedCall/functional_2_1/time_distributed_1_1/strided_slice_1/stack", "op": "Const", "attr": {"value": {"tensor": {"dtype": "DT_INT32", "tensorShape": {"dim": [{"size": "1"}]}}}, "dtype": {"type": "DT_INT32"}}}, {"name": "StatefulPartitionedCall/functional_2_1/time_distributed_1_1/strided_slice_1/stack_1", "op": "Const", "attr": {"value": {"tensor": {"dtype": "DT_INT32", "tensorShape": {"dim": [{"size": "1"}]}}}, "dtype": {"type": "DT_INT32"}}}, {"name": "StatefulPartitionedCall/functional_2_1/time_distributed_1_1/strided_slice_1/stack_2", "op": "Const", "attr": {"value": {"tensor": {"dtype": "DT_INT32", "tensorShape": {"dim": [{"size": "1"}]}}}, "dtype": {"type": "DT_INT32"}}}, {"name": "StatefulPartitionedCall/functional_2_1/time_distributed_1_1/Cast/ReadVariableOp", "op": "Const", "attr": {"value": {"tensor": {"dtype": "DT_FLOAT", "tensorShape": {"dim": [{"size": "128"}, {"size": "3"}]}}}, "dtype": {"type": "DT_FLOAT"}}}, {"name": "StatefulPartitionedCall/functional_2_1/time_distributed_1_1/BiasAdd/ReadVariableOp", "op": "Const", "attr": {"value": {"tensor": {"dtype": "DT_FLOAT", "tensorShape": {"dim": [{"size": "3"}]}}}, "dtype": {"type": "DT_FLOAT"}}}, {"name": "StatefulPartitionedCall/functional_2_1/time_distributed_1_1/strided_slice_2/stack", "op": "Const", "attr": {"value": {"tensor": {"dtype": "DT_INT32", "tensorShape": {"dim": [{"size": "1"}]}}}, "dtype": {"type": "DT_INT32"}}}, {"name": "StatefulPartitionedCall/functional_2_1/time_distributed_1_1/strided_slice_2/stack_1", "op": "Const", "attr": {"value": {"tensor": {"dtype": "DT_INT32", "tensorShape": {"dim": [{"size": "1"}]}}}, "dtype": {"type": "DT_INT32"}}}, {"name": "StatefulPartitionedCall/functional_2_1/time_distributed_1_1/strided_slice_2/stack_2", "op": "Const", "attr": {"value": {"tensor": {"dtype": "DT_INT32", "tensorShape": {"dim": [{"size": "1"}]}}}, "dtype": {"type": "DT_INT32"}}}, {"name": "StatefulPartitionedCall/functional_2_1/time_distributed_1_1/Cast_1/ReadVariableOp", "op": "Const", "attr": {"value": {"tensor": {"dtype": "DT_FLOAT", "tensorShape": {"dim": [{"size": "128"}, {"size": "3"}]}}}, "dtype": {"type": "DT_FLOAT"}}}, {"name": "StatefulPartitionedCall/functional_2_1/time_distributed_1_1/BiasAdd_1/ReadVariableOp", "op": "Const", "attr": {"value": {"tensor": {"dtype": "DT_FLOAT", "tensorShape": {"dim": [{"size": "3"}]}}}, "dtype": {"type": "DT_FLOAT"}}}, {"name": "StatefulPartitionedCall/functional_2_1/time_distributed_1_1/strided_slice_3/stack", "op": "Const", "attr": {"value": {"tensor": {"dtype": "DT_INT32", "tensorShape": {"dim": [{"size": "1"}]}}}, "dtype": {"type": "DT_INT32"}}}, {"name": "StatefulPartitionedCall/functional_2_1/time_distributed_1_1/strided_slice_3/stack_1", "op": "Const", "attr": {"value": {"tensor": {"dtype": "DT_INT32", "tensorShape": {"dim": [{"size": "1"}]}}}, "dtype": {"type": "DT_INT32"}}}, {"name": "StatefulPartitionedCall/functional_2_1/time_distributed_1_1/strided_slice_3/stack_2", "op": "Const", "attr": {"value": {"tensor": {"dtype": "DT_INT32", "tensorShape": {"dim": [{"size": "1"}]}}}, "dtype": {"type": "DT_INT32"}}}, {"name": "StatefulPartitionedCall/functional_2_1/time_distributed_1_1/Cast_2/ReadVariableOp", "op": "Const", "attr": {"value": {"tensor": {"dtype": "DT_FLOAT", "tensorShape": {"dim": [{"size": "128"}, {"size": "3"}]}}}, "dtype": {"type": "DT_FLOAT"}}}, {"name": "StatefulPartitionedCall/functional_2_1/time_distributed_1_1/BiasAdd_2/ReadVariableOp", "op": "Const", "attr": {"value": {"tensor": {"dtype": "DT_FLOAT", "tensorShape": {"dim": [{"size": "3"}]}}}, "dtype": {"type": "DT_FLOAT"}}}, {"name": "StatefulPartitionedCall/functional_2_1/time_distributed_1_1/strided_slice_4/stack", "op": "Const", "attr": {"value": {"tensor": {"dtype": "DT_INT32", "tensorShape": {"dim": [{"size": "1"}]}}}, "dtype": {"type": "DT_INT32"}}}, {"name": "StatefulPartitionedCall/functional_2_1/time_distributed_1_1/strided_slice_4/stack_1", "op": "Const", "attr": {"value": {"tensor": {"dtype": "DT_INT32", "tensorShape": {"dim": [{"size": "1"}]}}}, "dtype": {"type": "DT_INT32"}}}, {"name": "StatefulPartitionedCall/functional_2_1/time_distributed_1_1/strided_slice_4/stack_2", "op": "Const", "attr": {"value": {"tensor": {"dtype": "DT_INT32", "tensorShape": {"dim": [{"size": "1"}]}}}, "dtype": {"type": "DT_INT32"}}}, {"name": "StatefulPartitionedCall/functional_2_1/time_distributed_1_1/Cast_3/ReadVariableOp", "op": "Const", "attr": {"value": {"tensor": {"dtype": "DT_FLOAT", "tensorShape": {"dim": [{"size": "128"}, {"size": "3"}]}}}, "dtype": {"type": "DT_FLOAT"}}}, {"name": "StatefulPartitionedCall/functional_2_1/time_distributed_1_1/BiasAdd_3/ReadVariableOp", "op": "Const", "attr": {"value": {"tensor": {"dtype": "DT_FLOAT", "tensorShape": {"dim": [{"size": "3"}]}}}, "dtype": {"type": "DT_FLOAT"}}}, {"name": "StatefulPartitionedCall/functional_2_1/time_distributed_1_1/strided_slice_5/stack", "op": "Const", "attr": {"value": {"tensor": {"dtype": "DT_INT32", "tensorShape": {"dim": [{"size": "1"}]}}}, "dtype": {"type": "DT_INT32"}}}, {"name": "StatefulPartitionedCall/functional_2_1/time_distributed_1_1/strided_slice_5/stack_1", "op": "Const", "attr": {"value": {"tensor": {"dtype": "DT_INT32", "tensorShape": {"dim": [{"size": "1"}]}}}, "dtype": {"type": "DT_INT32"}}}, {"name": "StatefulPartitionedCall/functional_2_1/time_distributed_1_1/strided_slice_5/stack_2", "op": "Const", "attr": {"value": {"tensor": {"dtype": "DT_INT32", "tensorShape": {"dim": [{"size": "1"}]}}}, "dtype": {"type": "DT_INT32"}}}, {"name": "StatefulPartitionedCall/functional_2_1/time_distributed_1_1/Cast_4/ReadVariableOp", "op": "Const", "attr": {"value": {"tensor": {"dtype": "DT_FLOAT", "tensorShape": {"dim": [{"size": "128"}, {"size": "3"}]}}}, "dtype": {"type": "DT_FLOAT"}}}, {"name": "StatefulPartitionedCall/functional_2_1/time_distributed_1_1/BiasAdd_4/ReadVariableOp", "op": "Const", "attr": {"value": {"tensor": {"dtype": "DT_FLOAT", "tensorShape": {"dim": [{"size": "3"}]}}}, "dtype": {"type": "DT_FLOAT"}}}, {"name": "StatefulPartitionedCall/functional_2_1/time_distributed_1_1/strided_slice_6/stack", "op": "Const", "attr": {"value": {"tensor": {"dtype": "DT_INT32", "tensorShape": {"dim": [{"size": "1"}]}}}, "dtype": {"type": "DT_INT32"}}}, {"name": "StatefulPartitionedCall/functional_2_1/time_distributed_1_1/strided_slice_6/stack_1", "op": "Const", "attr": {"value": {"tensor": {"dtype": "DT_INT32", "tensorShape": {"dim": [{"size": "1"}]}}}, "dtype": {"type": "DT_INT32"}}}, {"name": "StatefulPartitionedCall/functional_2_1/time_distributed_1_1/strided_slice_6/stack_2", "op": "Const", "attr": {"value": {"tensor": {"dtype": "DT_INT32", "tensorShape": {"dim": [{"size": "1"}]}}}, "dtype": {"type": "DT_INT32"}}}, {"name": "StatefulPartitionedCall/functional_2_1/time_distributed_1_1/Cast_5/ReadVariableOp", "op": "Const", "attr": {"value": {"tensor": {"dtype": "DT_FLOAT", "tensorShape": {"dim": [{"size": "128"}, {"size": "3"}]}}}, "dtype": {"type": "DT_FLOAT"}}}, {"name": "StatefulPartitionedCall/functional_2_1/time_distributed_1_1/BiasAdd_5/ReadVariableOp", "op": "Const", "attr": {"value": {"tensor": {"dtype": "DT_FLOAT", "tensorShape": {"dim": [{"size": "3"}]}}}, "dtype": {"type": "DT_FLOAT"}}}, {"name": "StatefulPartitionedCall/functional_2_1/time_distributed_1_1/strided_slice_7/stack", "op": "Const", "attr": {"value": {"tensor": {"dtype": "DT_INT32", "tensorShape": {"dim": [{"size": "1"}]}}}, "dtype": {"type": "DT_INT32"}}}, {"name": "StatefulPartitionedCall/functional_2_1/time_distributed_1_1/strided_slice_7/stack_1", "op": "Const", "attr": {"value": {"tensor": {"dtype": "DT_INT32", "tensorShape": {"dim": [{"size": "1"}]}}}, "dtype": {"type": "DT_INT32"}}}, {"name": "StatefulPartitionedCall/functional_2_1/time_distributed_1_1/strided_slice_7/stack_2", "op": "Const", "attr": {"value": {"tensor": {"dtype": "DT_INT32", "tensorShape": {"dim": [{"size": "1"}]}}}, "dtype": {"type": "DT_INT32"}}}, {"name": "StatefulPartitionedCall/functional_2_1/time_distributed_1_1/Cast_6/ReadVariableOp", "op": "Const", "attr": {"value": {"tensor": {"dtype": "DT_FLOAT", "tensorShape": {"dim": [{"size": "128"}, {"size": "3"}]}}}, "dtype": {"type": "DT_FLOAT"}}}, {"name": "StatefulPartitionedCall/functional_2_1/time_distributed_1_1/BiasAdd_6/ReadVariableOp", "op": "Const", "attr": {"value": {"tensor": {"dtype": "DT_FLOAT", "tensorShape": {"dim": [{"size": "3"}]}}}, "dtype": {"type": "DT_FLOAT"}}}, {"name": "StatefulPartitionedCall/functional_2_1/time_distributed_1_1/strided_slice_8/stack", "op": "Const", "attr": {"value": {"tensor": {"dtype": "DT_INT32", "tensorShape": {"dim": [{"size": "1"}]}}}, "dtype": {"type": "DT_INT32"}}}, {"name": "StatefulPartitionedCall/functional_2_1/time_distributed_1_1/strided_slice_8/stack_1", "op": "Const", "attr": {"value": {"tensor": {"dtype": "DT_INT32", "tensorShape": {"dim": [{"size": "1"}]}}}, "dtype": {"type": "DT_INT32"}}}, {"name": "StatefulPartitionedCall/functional_2_1/time_distributed_1_1/strided_slice_8/stack_2", "op": "Const", "attr": {"value": {"tensor": {"dtype": "DT_INT32", "tensorShape": {"dim": [{"size": "1"}]}}}, "dtype": {"type": "DT_INT32"}}}, {"name": "StatefulPartitionedCall/functional_2_1/time_distributed_1_1/Cast_7/ReadVariableOp", "op": "Const", "attr": {"value": {"tensor": {"dtype": "DT_FLOAT", "tensorShape": {"dim": [{"size": "128"}, {"size": "3"}]}}}, "dtype": {"type": "DT_FLOAT"}}}, {"name": "StatefulPartitionedCall/functional_2_1/time_distributed_1_1/BiasAdd_7/ReadVariableOp", "op": "Const", "attr": {"value": {"tensor": {"dtype": "DT_FLOAT", "tensorShape": {"dim": [{"size": "3"}]}}}, "dtype": {"type": "DT_FLOAT"}}}, {"name": "StatefulPartitionedCall/functional_2_1/time_distributed_1_1/strided_slice_9/stack", "op": "Const", "attr": {"value": {"tensor": {"dtype": "DT_INT32", "tensorShape": {"dim": [{"size": "1"}]}}}, "dtype": {"type": "DT_INT32"}}}, {"name": "StatefulPartitionedCall/functional_2_1/time_distributed_1_1/strided_slice_9/stack_1", "op": "Const", "attr": {"value": {"tensor": {"dtype": "DT_INT32", "tensorShape": {"dim": [{"size": "1"}]}}}, "dtype": {"type": "DT_INT32"}}}, {"name": "StatefulPartitionedCall/functional_2_1/time_distributed_1_1/strided_slice_9/stack_2", "op": "Const", "attr": {"value": {"tensor": {"dtype": "DT_INT32", "tensorShape": {"dim": [{"size": "1"}]}}}, "dtype": {"type": "DT_INT32"}}}, {"name": "StatefulPartitionedCall/functional_2_1/time_distributed_1_1/Cast_8/ReadVariableOp", "op": "Const", "attr": {"value": {"tensor": {"dtype": "DT_FLOAT", "tensorShape": {"dim": [{"size": "128"}, {"size": "3"}]}}}, "dtype": {"type": "DT_FLOAT"}}}, {"name": "StatefulPartitionedCall/functional_2_1/time_distributed_1_1/BiasAdd_8/ReadVariableOp", "op": "Const", "attr": {"value": {"tensor": {"dtype": "DT_FLOAT", "tensorShape": {"dim": [{"size": "3"}]}}}, "dtype": {"type": "DT_FLOAT"}}}, {"name": "StatefulPartitionedCall/functional_2_1/time_distributed_1_1/strided_slice_10/stack", "op": "Const", "attr": {"value": {"tensor": {"dtype": "DT_INT32", "tensorShape": {"dim": [{"size": "1"}]}}}, "dtype": {"type": "DT_INT32"}}}, {"name": "StatefulPartitionedCall/functional_2_1/time_distributed_1_1/strided_slice_10/stack_1", "op": "Const", "attr": {"value": {"tensor": {"dtype": "DT_INT32", "tensorShape": {"dim": [{"size": "1"}]}}}, "dtype": {"type": "DT_INT32"}}}, {"name": "StatefulPartitionedCall/functional_2_1/time_distributed_1_1/strided_slice_10/stack_2", "op": "Const", "attr": {"value": {"tensor": {"dtype": "DT_INT32", "tensorShape": {"dim": [{"size": "1"}]}}}, "dtype": {"type": "DT_INT32"}}}, {"name": "StatefulPartitionedCall/functional_2_1/time_distributed_1_1/Cast_9/ReadVariableOp", "op": "Const", "attr": {"value": {"tensor": {"dtype": "DT_FLOAT", "tensorShape": {"dim": [{"size": "128"}, {"size": "3"}]}}}, "dtype": {"type": "DT_FLOAT"}}}, {"name": "StatefulPartitionedCall/functional_2_1/time_distributed_1_1/BiasAdd_9/ReadVariableOp", "op": "Const", "attr": {"value": {"tensor": {"dtype": "DT_FLOAT", "tensorShape": {"dim": [{"size": "3"}]}}}, "dtype": {"type": "DT_FLOAT"}}}, {"name": "StatefulPartitionedCall/functional_2_1/time_distributed_1_1/strided_slice_11/stack", "op": "Const", "attr": {"value": {"tensor": {"dtype": "DT_INT32", "tensorShape": {"dim": [{"size": "1"}]}}}, "dtype": {"type": "DT_INT32"}}}, {"name": "StatefulPartitionedCall/functional_2_1/time_distributed_1_1/strided_slice_11/stack_1", "op": "Const", "attr": {"value": {"tensor": {"dtype": "DT_INT32", "tensorShape": {"dim": [{"size": "1"}]}}}, "dtype": {"type": "DT_INT32"}}}, {"name": "StatefulPartitionedCall/functional_2_1/time_distributed_1_1/strided_slice_11/stack_2", "op": "Const", "attr": {"value": {"tensor": {"dtype": "DT_INT32", "tensorShape": {"dim": [{"size": "1"}]}}}, "dtype": {"type": "DT_INT32"}}}, {"name": "StatefulPartitionedCall/functional_2_1/time_distributed_1_1/Cast_10/ReadVariableOp", "op": "Const", "attr": {"value": {"tensor": {"dtype": "DT_FLOAT", "tensorShape": {"dim": [{"size": "128"}, {"size": "3"}]}}}, "dtype": {"type": "DT_FLOAT"}}}, {"name": "StatefulPartitionedCall/functional_2_1/time_distributed_1_1/BiasAdd_10/ReadVariableOp", "op": "Const", "attr": {"value": {"tensor": {"dtype": "DT_FLOAT", "tensorShape": {"dim": [{"size": "3"}]}}}, "dtype": {"type": "DT_FLOAT"}}}, {"name": "StatefulPartitionedCall/functional_2_1/time_distributed_1_1/strided_slice_12/stack", "op": "Const", "attr": {"value": {"tensor": {"dtype": "DT_INT32", "tensorShape": {"dim": [{"size": "1"}]}}}, "dtype": {"type": "DT_INT32"}}}, {"name": "StatefulPartitionedCall/functional_2_1/time_distributed_1_1/strided_slice_12/stack_1", "op": "Const", "attr": {"value": {"tensor": {"dtype": "DT_INT32", "tensorShape": {"dim": [{"size": "1"}]}}}, "dtype": {"type": "DT_INT32"}}}, {"name": "StatefulPartitionedCall/functional_2_1/time_distributed_1_1/strided_slice_12/stack_2", "op": "Const", "attr": {"value": {"tensor": {"dtype": "DT_INT32", "tensorShape": {"dim": [{"size": "1"}]}}}, "dtype": {"type": "DT_INT32"}}}, {"name": "StatefulPartitionedCall/functional_2_1/time_distributed_1_1/Cast_11/ReadVariableOp", "op": "Const", "attr": {"value": {"tensor": {"dtype": "DT_FLOAT", "tensorShape": {"dim": [{"size": "128"}, {"size": "3"}]}}}, "dtype": {"type": "DT_FLOAT"}}}, {"name": "StatefulPartitionedCall/functional_2_1/time_distributed_1_1/BiasAdd_11/ReadVariableOp", "op": "Const", "attr": {"value": {"tensor": {"dtype": "DT_FLOAT", "tensorShape": {"dim": [{"size": "3"}]}}}, "dtype": {"type": "DT_FLOAT"}}}, {"name": "StatefulPartitionedCall/functional_2_1/time_distributed_1_1/strided_slice_13/stack", "op": "Const", "attr": {"value": {"tensor": {"dtype": "DT_INT32", "tensorShape": {"dim": [{"size": "1"}]}}}, "dtype": {"type": "DT_INT32"}}}, {"name": "StatefulPartitionedCall/functional_2_1/time_distributed_1_1/strided_slice_13/stack_1", "op": "Const", "attr": {"value": {"tensor": {"dtype": "DT_INT32", "tensorShape": {"dim": [{"size": "1"}]}}}, "dtype": {"type": "DT_INT32"}}}, {"name": "StatefulPartitionedCall/functional_2_1/time_distributed_1_1/strided_slice_13/stack_2", "op": "Const", "attr": {"value": {"tensor": {"dtype": "DT_INT32", "tensorShape": {"dim": [{"size": "1"}]}}}, "dtype": {"type": "DT_INT32"}}}, {"name": "StatefulPartitionedCall/functional_2_1/time_distributed_1_1/Cast_12/ReadVariableOp", "op": "Const", "attr": {"value": {"tensor": {"dtype": "DT_FLOAT", "tensorShape": {"dim": [{"size": "128"}, {"size": "3"}]}}}, "dtype": {"type": "DT_FLOAT"}}}, {"name": "StatefulPartitionedCall/functional_2_1/time_distributed_1_1/BiasAdd_12/ReadVariableOp", "op": "Const", "attr": {"value": {"tensor": {"dtype": "DT_FLOAT", "tensorShape": {"dim": [{"size": "3"}]}}}, "dtype": {"type": "DT_FLOAT"}}}, {"name": "StatefulPartitionedCall/functional_2_1/time_distributed_1_1/strided_slice_14/stack", "op": "Const", "attr": {"value": {"tensor": {"dtype": "DT_INT32", "tensorShape": {"dim": [{"size": "1"}]}}}, "dtype": {"type": "DT_INT32"}}}, {"name": "StatefulPartitionedCall/functional_2_1/time_distributed_1_1/strided_slice_14/stack_1", "op": "Const", "attr": {"value": {"tensor": {"dtype": "DT_INT32", "tensorShape": {"dim": [{"size": "1"}]}}}, "dtype": {"type": "DT_INT32"}}}, {"name": "StatefulPartitionedCall/functional_2_1/time_distributed_1_1/strided_slice_14/stack_2", "op": "Const", "attr": {"value": {"tensor": {"dtype": "DT_INT32", "tensorShape": {"dim": [{"size": "1"}]}}}, "dtype": {"type": "DT_INT32"}}}, {"name": "StatefulPartitionedCall/functional_2_1/time_distributed_1_1/Cast_13/ReadVariableOp", "op": "Const", "attr": {"value": {"tensor": {"dtype": "DT_FLOAT", "tensorShape": {"dim": [{"size": "128"}, {"size": "3"}]}}}, "dtype": {"type": "DT_FLOAT"}}}, {"name": "StatefulPartitionedCall/functional_2_1/time_distributed_1_1/BiasAdd_13/ReadVariableOp", "op": "Const", "attr": {"value": {"tensor": {"dtype": "DT_FLOAT", "tensorShape": {"dim": [{"size": "3"}]}}}, "dtype": {"type": "DT_FLOAT"}}}, {"name": "StatefulPartitionedCall/functional_2_1/time_distributed_1_1/strided_slice_15/stack", "op": "Const", "attr": {"value": {"tensor": {"dtype": "DT_INT32", "tensorShape": {"dim": [{"size": "1"}]}}}, "dtype": {"type": "DT_INT32"}}}, {"name": "StatefulPartitionedCall/functional_2_1/time_distributed_1_1/strided_slice_15/stack_1", "op": "Const", "attr": {"value": {"tensor": {"dtype": "DT_INT32", "tensorShape": {"dim": [{"size": "1"}]}}}, "dtype": {"type": "DT_INT32"}}}, {"name": "StatefulPartitionedCall/functional_2_1/time_distributed_1_1/strided_slice_15/stack_2", "op": "Const", "attr": {"value": {"tensor": {"dtype": "DT_INT32", "tensorShape": {"dim": [{"size": "1"}]}}}, "dtype": {"type": "DT_INT32"}}}, {"name": "StatefulPartitionedCall/functional_2_1/time_distributed_1_1/Cast_14/ReadVariableOp", "op": "Const", "attr": {"value": {"tensor": {"dtype": "DT_FLOAT", "tensorShape": {"dim": [{"size": "128"}, {"size": "3"}]}}}, "dtype": {"type": "DT_FLOAT"}}}, {"name": "StatefulPartitionedCall/functional_2_1/time_distributed_1_1/BiasAdd_14/ReadVariableOp", "op": "Const", "attr": {"value": {"tensor": {"dtype": "DT_FLOAT", "tensorShape": {"dim": [{"size": "3"}]}}}, "dtype": {"type": "DT_FLOAT"}}}, {"name": "StatefulPartitionedCall/functional_2_1/time_distributed_1_1/strided_slice_16/stack", "op": "Const", "attr": {"value": {"tensor": {"dtype": "DT_INT32", "tensorShape": {"dim": [{"size": "1"}]}}}, "dtype": {"type": "DT_INT32"}}}, {"name": "StatefulPartitionedCall/functional_2_1/time_distributed_1_1/strided_slice_16/stack_1", "op": "Const", "attr": {"value": {"tensor": {"dtype": "DT_INT32", "tensorShape": {"dim": [{"size": "1"}]}}}, "dtype": {"type": "DT_INT32"}}}, {"name": "StatefulPartitionedCall/functional_2_1/time_distributed_1_1/strided_slice_16/stack_2", "op": "Const", "attr": {"value": {"tensor": {"dtype": "DT_INT32", "tensorShape": {"dim": [{"size": "1"}]}}}, "dtype": {"type": "DT_INT32"}}}, {"name": "StatefulPartitionedCall/functional_2_1/time_distributed_1_1/Cast_15/ReadVariableOp", "op": "Const", "attr": {"value": {"tensor": {"dtype": "DT_FLOAT", "tensorShape": {"dim": [{"size": "128"}, {"size": "3"}]}}}, "dtype": {"type": "DT_FLOAT"}}}, {"name": "StatefulPartitionedCall/functional_2_1/time_distributed_1_1/BiasAdd_15/ReadVariableOp", "op": "Const", "attr": {"value": {"tensor": {"dtype": "DT_FLOAT", "tensorShape": {"dim": [{"size": "3"}]}}}, "dtype": {"type": "DT_FLOAT"}}}, {"name": "StatefulPartitionedCall/functional_2_1/time_distributed_1_1/strided_slice_17/stack", "op": "Const", "attr": {"value": {"tensor": {"dtype": "DT_INT32", "tensorShape": {"dim": [{"size": "1"}]}}}, "dtype": {"type": "DT_INT32"}}}, {"name": "StatefulPartitionedCall/functional_2_1/time_distributed_1_1/strided_slice_17/stack_1", "op": "Const", "attr": {"value": {"tensor": {"dtype": "DT_INT32", "tensorShape": {"dim": [{"size": "1"}]}}}, "dtype": {"type": "DT_INT32"}}}, {"name": "StatefulPartitionedCall/functional_2_1/time_distributed_1_1/strided_slice_17/stack_2", "op": "Const", "attr": {"value": {"tensor": {"dtype": "DT_INT32", "tensorShape": {"dim": [{"size": "1"}]}}}, "dtype": {"type": "DT_INT32"}}}, {"name": "StatefulPartitionedCall/functional_2_1/time_distributed_1_1/Cast_16/ReadVariableOp", "op": "Const", "attr": {"value": {"tensor": {"dtype": "DT_FLOAT", "tensorShape": {"dim": [{"size": "128"}, {"size": "3"}]}}}, "dtype": {"type": "DT_FLOAT"}}}, {"name": "StatefulPartitionedCall/functional_2_1/time_distributed_1_1/BiasAdd_16/ReadVariableOp", "op": "Const", "attr": {"value": {"tensor": {"dtype": "DT_FLOAT", "tensorShape": {"dim": [{"size": "3"}]}}}, "dtype": {"type": "DT_FLOAT"}}}, {"name": "StatefulPartitionedCall/functional_2_1/time_distributed_1_1/strided_slice_18/stack", "op": "Const", "attr": {"value": {"tensor": {"dtype": "DT_INT32", "tensorShape": {"dim": [{"size": "1"}]}}}, "dtype": {"type": "DT_INT32"}}}, {"name": "StatefulPartitionedCall/functional_2_1/time_distributed_1_1/strided_slice_18/stack_1", "op": "Const", "attr": {"value": {"tensor": {"dtype": "DT_INT32", "tensorShape": {"dim": [{"size": "1"}]}}}, "dtype": {"type": "DT_INT32"}}}, {"name": "StatefulPartitionedCall/functional_2_1/time_distributed_1_1/strided_slice_18/stack_2", "op": "Const", "attr": {"value": {"tensor": {"dtype": "DT_INT32", "tensorShape": {"dim": [{"size": "1"}]}}}, "dtype": {"type": "DT_INT32"}}}, {"name": "StatefulPartitionedCall/functional_2_1/time_distributed_1_1/Cast_17/ReadVariableOp", "op": "Const", "attr": {"value": {"tensor": {"dtype": "DT_FLOAT", "tensorShape": {"dim": [{"size": "128"}, {"size": "3"}]}}}, "dtype": {"type": "DT_FLOAT"}}}, {"name": "StatefulPartitionedCall/functional_2_1/time_distributed_1_1/BiasAdd_17/ReadVariableOp", "op": "Const", "attr": {"value": {"tensor": {"dtype": "DT_FLOAT", "tensorShape": {"dim": [{"size": "3"}]}}}, "dtype": {"type": "DT_FLOAT"}}}, {"name": "StatefulPartitionedCall/functional_2_1/time_distributed_1_1/strided_slice_19/stack", "op": "Const", "attr": {"value": {"tensor": {"dtype": "DT_INT32", "tensorShape": {"dim": [{"size": "1"}]}}}, "dtype": {"type": "DT_INT32"}}}, {"name": "StatefulPartitionedCall/functional_2_1/time_distributed_1_1/strided_slice_19/stack_1", "op": "Const", "attr": {"value": {"tensor": {"dtype": "DT_INT32", "tensorShape": {"dim": [{"size": "1"}]}}}, "dtype": {"type": "DT_INT32"}}}, {"name": "StatefulPartitionedCall/functional_2_1/time_distributed_1_1/strided_slice_19/stack_2", "op": "Const", "attr": {"value": {"tensor": {"dtype": "DT_INT32", "tensorShape": {"dim": [{"size": "1"}]}}}, "dtype": {"type": "DT_INT32"}}}, {"name": "StatefulPartitionedCall/functional_2_1/time_distributed_1_1/Cast_18/ReadVariableOp", "op": "Const", "attr": {"value": {"tensor": {"dtype": "DT_FLOAT", "tensorShape": {"dim": [{"size": "128"}, {"size": "3"}]}}}, "dtype": {"type": "DT_FLOAT"}}}, {"name": "StatefulPartitionedCall/functional_2_1/time_distributed_1_1/BiasAdd_18/ReadVariableOp", "op": "Const", "attr": {"value": {"tensor": {"dtype": "DT_FLOAT", "tensorShape": {"dim": [{"size": "3"}]}}}, "dtype": {"type": "DT_FLOAT"}}}, {"name": "StatefulPartitionedCall/functional_2_1/time_distributed_1_1/strided_slice_20/stack", "op": "Const", "attr": {"value": {"tensor": {"dtype": "DT_INT32", "tensorShape": {"dim": [{"size": "1"}]}}}, "dtype": {"type": "DT_INT32"}}}, {"name": "StatefulPartitionedCall/functional_2_1/time_distributed_1_1/strided_slice_20/stack_1", "op": "Const", "attr": {"value": {"tensor": {"dtype": "DT_INT32", "tensorShape": {"dim": [{"size": "1"}]}}}, "dtype": {"type": "DT_INT32"}}}, {"name": "StatefulPartitionedCall/functional_2_1/time_distributed_1_1/strided_slice_20/stack_2", "op": "Const", "attr": {"value": {"tensor": {"dtype": "DT_INT32", "tensorShape": {"dim": [{"size": "1"}]}}}, "dtype": {"type": "DT_INT32"}}}, {"name": "StatefulPartitionedCall/functional_2_1/time_distributed_1_1/Cast_19/ReadVariableOp", "op": "Const", "attr": {"value": {"tensor": {"dtype": "DT_FLOAT", "tensorShape": {"dim": [{"size": "128"}, {"size": "3"}]}}}, "dtype": {"type": "DT_FLOAT"}}}, {"name": "StatefulPartitionedCall/functional_2_1/time_distributed_1_1/BiasAdd_19/ReadVariableOp", "op": "Const", "attr": {"value": {"tensor": {"dtype": "DT_FLOAT", "tensorShape": {"dim": [{"size": "3"}]}}}, "dtype": {"type": "DT_FLOAT"}}}, {"name": "StatefulPartitionedCall/functional_2_1/time_distributed_1_1/strided_slice_21/stack", "op": "Const", "attr": {"value": {"tensor": {"dtype": "DT_INT32", "tensorShape": {"dim": [{"size": "1"}]}}}, "dtype": {"type": "DT_INT32"}}}, {"name": "StatefulPartitionedCall/functional_2_1/time_distributed_1_1/strided_slice_21/stack_1", "op": "Const", "attr": {"value": {"tensor": {"dtype": "DT_INT32", "tensorShape": {"dim": [{"size": "1"}]}}}, "dtype": {"type": "DT_INT32"}}}, {"name": "StatefulPartitionedCall/functional_2_1/time_distributed_1_1/strided_slice_21/stack_2", "op": "Const", "attr": {"value": {"tensor": {"dtype": "DT_INT32", "tensorShape": {"dim": [{"size": "1"}]}}}, "dtype": {"type": "DT_INT32"}}}, {"name": "StatefulPartitionedCall/functional_2_1/time_distributed_1_1/Cast_20/ReadVariableOp", "op": "Const", "attr": {"value": {"tensor": {"dtype": "DT_FLOAT", "tensorShape": {"dim": [{"size": "128"}, {"size": "3"}]}}}, "dtype": {"type": "DT_FLOAT"}}}, {"name": "StatefulPartitionedCall/functional_2_1/time_distributed_1_1/BiasAdd_20/ReadVariableOp", "op": "Const", "attr": {"value": {"tensor": {"dtype": "DT_FLOAT", "tensorShape": {"dim": [{"size": "3"}]}}}, "dtype": {"type": "DT_FLOAT"}}}, {"name": "StatefulPartitionedCall/functional_2_1/time_distributed_1_1/strided_slice_22/stack", "op": "Const", "attr": {"value": {"tensor": {"dtype": "DT_INT32", "tensorShape": {"dim": [{"size": "1"}]}}}, "dtype": {"type": "DT_INT32"}}}, {"name": "StatefulPartitionedCall/functional_2_1/time_distributed_1_1/strided_slice_22/stack_1", "op": "Const", "attr": {"value": {"tensor": {"dtype": "DT_INT32", "tensorShape": {"dim": [{"size": "1"}]}}}, "dtype": {"type": "DT_INT32"}}}, {"name": "StatefulPartitionedCall/functional_2_1/time_distributed_1_1/strided_slice_22/stack_2", "op": "Const", "attr": {"value": {"tensor": {"dtype": "DT_INT32", "tensorShape": {"dim": [{"size": "1"}]}}}, "dtype": {"type": "DT_INT32"}}}, {"name": "StatefulPartitionedCall/functional_2_1/time_distributed_1_1/Cast_21/ReadVariableOp", "op": "Const", "attr": {"value": {"tensor": {"dtype": "DT_FLOAT", "tensorShape": {"dim": [{"size": "128"}, {"size": "3"}]}}}, "dtype": {"type": "DT_FLOAT"}}}, {"name": "StatefulPartitionedCall/functional_2_1/time_distributed_1_1/BiasAdd_21/ReadVariableOp", "op": "Const", "attr": {"value": {"tensor": {"dtype": "DT_FLOAT", "tensorShape": {"dim": [{"size": "3"}]}}}, "dtype": {"type": "DT_FLOAT"}}}, {"name": "StatefulPartitionedCall/functional_2_1/time_distributed_1_1/strided_slice_23/stack", "op": "Const", "attr": {"value": {"tensor": {"dtype": "DT_INT32", "tensorShape": {"dim": [{"size": "1"}]}}}, "dtype": {"type": "DT_INT32"}}}, {"name": "StatefulPartitionedCall/functional_2_1/time_distributed_1_1/strided_slice_23/stack_1", "op": "Const", "attr": {"value": {"tensor": {"dtype": "DT_INT32", "tensorShape": {"dim": [{"size": "1"}]}}}, "dtype": {"type": "DT_INT32"}}}, {"name": "StatefulPartitionedCall/functional_2_1/time_distributed_1_1/strided_slice_23/stack_2", "op": "Const", "attr": {"value": {"tensor": {"dtype": "DT_INT32", "tensorShape": {"dim": [{"size": "1"}]}}}, "dtype": {"type": "DT_INT32"}}}, {"name": "StatefulPartitionedCall/functional_2_1/time_distributed_1_1/Cast_22/ReadVariableOp", "op": "Const", "attr": {"value": {"tensor": {"dtype": "DT_FLOAT", "tensorShape": {"dim": [{"size": "128"}, {"size": "3"}]}}}, "dtype": {"type": "DT_FLOAT"}}}, {"name": "StatefulPartitionedCall/functional_2_1/time_distributed_1_1/BiasAdd_22/ReadVariableOp", "op": "Const", "attr": {"value": {"tensor": {"dtype": "DT_FLOAT", "tensorShape": {"dim": [{"size": "3"}]}}}, "dtype": {"type": "DT_FLOAT"}}}, {"name": "StatefulPartitionedCall/functional_2_1/time_distributed_1_1/strided_slice_24/stack", "op": "Const", "attr": {"value": {"tensor": {"dtype": "DT_INT32", "tensorShape": {"dim": [{"size": "1"}]}}}, "dtype": {"type": "DT_INT32"}}}, {"name": "StatefulPartitionedCall/functional_2_1/time_distributed_1_1/strided_slice_24/stack_1", "op": "Const", "attr": {"value": {"tensor": {"dtype": "DT_INT32", "tensorShape": {"dim": [{"size": "1"}]}}}, "dtype": {"type": "DT_INT32"}}}, {"name": "StatefulPartitionedCall/functional_2_1/time_distributed_1_1/strided_slice_24/stack_2", "op": "Const", "attr": {"value": {"tensor": {"dtype": "DT_INT32", "tensorShape": {"dim": [{"size": "1"}]}}}, "dtype": {"type": "DT_INT32"}}}, {"name": "StatefulPartitionedCall/functional_2_1/time_distributed_1_1/Cast_23/ReadVariableOp", "op": "Const", "attr": {"value": {"tensor": {"dtype": "DT_FLOAT", "tensorShape": {"dim": [{"size": "128"}, {"size": "3"}]}}}, "dtype": {"type": "DT_FLOAT"}}}, {"name": "StatefulPartitionedCall/functional_2_1/time_distributed_1_1/BiasAdd_23/ReadVariableOp", "op": "Const", "attr": {"value": {"tensor": {"dtype": "DT_FLOAT", "tensorShape": {"dim": [{"size": "3"}]}}}, "dtype": {"type": "DT_FLOAT"}}}, {"name": "StatefulPartitionedCall/functional_2_1/time_distributed_1_1/strided_slice_25/stack", "op": "Const", "attr": {"value": {"tensor": {"dtype": "DT_INT32", "tensorShape": {"dim": [{"size": "1"}]}}}, "dtype": {"type": "DT_INT32"}}}, {"name": "StatefulPartitionedCall/functional_2_1/time_distributed_1_1/strided_slice_25/stack_1", "op": "Const", "attr": {"value": {"tensor": {"dtype": "DT_INT32", "tensorShape": {"dim": [{"size": "1"}]}}}, "dtype": {"type": "DT_INT32"}}}, {"name": "StatefulPartitionedCall/functional_2_1/time_distributed_1_1/strided_slice_25/stack_2", "op": "Const", "attr": {"value": {"tensor": {"dtype": "DT_INT32", "tensorShape": {"dim": [{"size": "1"}]}}}, "dtype": {"type": "DT_INT32"}}}, {"name": "StatefulPartitionedCall/functional_2_1/time_distributed_1_1/Cast_24/ReadVariableOp", "op": "Const", "attr": {"value": {"tensor": {"dtype": "DT_FLOAT", "tensorShape": {"dim": [{"size": "128"}, {"size": "3"}]}}}, "dtype": {"type": "DT_FLOAT"}}}, {"name": "StatefulPartitionedCall/functional_2_1/time_distributed_1_1/BiasAdd_24/ReadVariableOp", "op": "Const", "attr": {"value": {"tensor": {"dtype": "DT_FLOAT", "tensorShape": {"dim": [{"size": "3"}]}}}, "dtype": {"type": "DT_FLOAT"}}}, {"name": "StatefulPartitionedCall/functional_2_1/time_distributed_1_1/strided_slice_26/stack", "op": "Const", "attr": {"value": {"tensor": {"dtype": "DT_INT32", "tensorShape": {"dim": [{"size": "1"}]}}}, "dtype": {"type": "DT_INT32"}}}, {"name": "StatefulPartitionedCall/functional_2_1/time_distributed_1_1/strided_slice_26/stack_1", "op": "Const", "attr": {"value": {"tensor": {"dtype": "DT_INT32", "tensorShape": {"dim": [{"size": "1"}]}}}, "dtype": {"type": "DT_INT32"}}}, {"name": "StatefulPartitionedCall/functional_2_1/time_distributed_1_1/strided_slice_26/stack_2", "op": "Const", "attr": {"value": {"tensor": {"dtype": "DT_INT32", "tensorShape": {"dim": [{"size": "1"}]}}}, "dtype": {"type": "DT_INT32"}}}, {"name": "StatefulPartitionedCall/functional_2_1/time_distributed_1_1/Cast_25/ReadVariableOp", "op": "Const", "attr": {"value": {"tensor": {"dtype": "DT_FLOAT", "tensorShape": {"dim": [{"size": "128"}, {"size": "3"}]}}}, "dtype": {"type": "DT_FLOAT"}}}, {"name": "StatefulPartitionedCall/functional_2_1/time_distributed_1_1/BiasAdd_25/ReadVariableOp", "op": "Const", "attr": {"value": {"tensor": {"dtype": "DT_FLOAT", "tensorShape": {"dim": [{"size": "3"}]}}}, "dtype": {"type": "DT_FLOAT"}}}, {"name": "StatefulPartitionedCall/functional_2_1/time_distributed_1_1/strided_slice_27/stack", "op": "Const", "attr": {"value": {"tensor": {"dtype": "DT_INT32", "tensorShape": {"dim": [{"size": "1"}]}}}, "dtype": {"type": "DT_INT32"}}}, {"name": "StatefulPartitionedCall/functional_2_1/time_distributed_1_1/strided_slice_27/stack_1", "op": "Const", "attr": {"value": {"tensor": {"dtype": "DT_INT32", "tensorShape": {"dim": [{"size": "1"}]}}}, "dtype": {"type": "DT_INT32"}}}, {"name": "StatefulPartitionedCall/functional_2_1/time_distributed_1_1/strided_slice_27/stack_2", "op": "Const", "attr": {"value": {"tensor": {"dtype": "DT_INT32", "tensorShape": {"dim": [{"size": "1"}]}}}, "dtype": {"type": "DT_INT32"}}}, {"name": "StatefulPartitionedCall/functional_2_1/time_distributed_1_1/Cast_26/ReadVariableOp", "op": "Const", "attr": {"value": {"tensor": {"dtype": "DT_FLOAT", "tensorShape": {"dim": [{"size": "128"}, {"size": "3"}]}}}, "dtype": {"type": "DT_FLOAT"}}}, {"name": "StatefulPartitionedCall/functional_2_1/time_distributed_1_1/BiasAdd_26/ReadVariableOp", "op": "Const", "attr": {"value": {"tensor": {"dtype": "DT_FLOAT", "tensorShape": {"dim": [{"size": "3"}]}}}, "dtype": {"type": "DT_FLOAT"}}}, {"name": "StatefulPartitionedCall/functional_2_1/time_distributed_1_1/strided_slice_28/stack", "op": "Const", "attr": {"value": {"tensor": {"dtype": "DT_INT32", "tensorShape": {"dim": [{"size": "1"}]}}}, "dtype": {"type": "DT_INT32"}}}, {"name": "StatefulPartitionedCall/functional_2_1/time_distributed_1_1/strided_slice_28/stack_1", "op": "Const", "attr": {"value": {"tensor": {"dtype": "DT_INT32", "tensorShape": {"dim": [{"size": "1"}]}}}, "dtype": {"type": "DT_INT32"}}}, {"name": "StatefulPartitionedCall/functional_2_1/time_distributed_1_1/strided_slice_28/stack_2", "op": "Const", "attr": {"value": {"tensor": {"dtype": "DT_INT32", "tensorShape": {"dim": [{"size": "1"}]}}}, "dtype": {"type": "DT_INT32"}}}, {"name": "StatefulPartitionedCall/functional_2_1/time_distributed_1_1/Cast_27/ReadVariableOp", "op": "Const", "attr": {"value": {"tensor": {"dtype": "DT_FLOAT", "tensorShape": {"dim": [{"size": "128"}, {"size": "3"}]}}}, "dtype": {"type": "DT_FLOAT"}}}, {"name": "StatefulPartitionedCall/functional_2_1/time_distributed_1_1/BiasAdd_27/ReadVariableOp", "op": "Const", "attr": {"value": {"tensor": {"dtype": "DT_FLOAT", "tensorShape": {"dim": [{"size": "3"}]}}}, "dtype": {"type": "DT_FLOAT"}}}, {"name": "StatefulPartitionedCall/functional_2_1/time_distributed_1_1/strided_slice_29/stack", "op": "Const", "attr": {"value": {"tensor": {"dtype": "DT_INT32", "tensorShape": {"dim": [{"size": "1"}]}}}, "dtype": {"type": "DT_INT32"}}}, {"name": "StatefulPartitionedCall/functional_2_1/time_distributed_1_1/strided_slice_29/stack_1", "op": "Const", "attr": {"value": {"tensor": {"dtype": "DT_INT32", "tensorShape": {"dim": [{"size": "1"}]}}}, "dtype": {"type": "DT_INT32"}}}, {"name": "StatefulPartitionedCall/functional_2_1/time_distributed_1_1/strided_slice_29/stack_2", "op": "Const", "attr": {"value": {"tensor": {"dtype": "DT_INT32", "tensorShape": {"dim": [{"size": "1"}]}}}, "dtype": {"type": "DT_INT32"}}}, {"name": "StatefulPartitionedCall/functional_2_1/time_distributed_1_1/Cast_28/ReadVariableOp", "op": "Const", "attr": {"value": {"tensor": {"dtype": "DT_FLOAT", "tensorShape": {"dim": [{"size": "128"}, {"size": "3"}]}}}, "dtype": {"type": "DT_FLOAT"}}}, {"name": "StatefulPartitionedCall/functional_2_1/time_distributed_1_1/BiasAdd_28/ReadVariableOp", "op": "Const", "attr": {"value": {"tensor": {"dtype": "DT_FLOAT", "tensorShape": {"dim": [{"size": "3"}]}}}, "dtype": {"type": "DT_FLOAT"}}}, {"name": "StatefulPartitionedCall/functional_2_1/time_distributed_1_1/strided_slice_30/stack", "op": "Const", "attr": {"value": {"tensor": {"dtype": "DT_INT32", "tensorShape": {"dim": [{"size": "1"}]}}}, "dtype": {"type": "DT_INT32"}}}, {"name": "StatefulPartitionedCall/functional_2_1/time_distributed_1_1/strided_slice_30/stack_1", "op": "Const", "attr": {"value": {"tensor": {"dtype": "DT_INT32", "tensorShape": {"dim": [{"size": "1"}]}}}, "dtype": {"type": "DT_INT32"}}}, {"name": "StatefulPartitionedCall/functional_2_1/time_distributed_1_1/strided_slice_30/stack_2", "op": "Const", "attr": {"value": {"tensor": {"dtype": "DT_INT32", "tensorShape": {"dim": [{"size": "1"}]}}}, "dtype": {"type": "DT_INT32"}}}, {"name": "StatefulPartitionedCall/functional_2_1/time_distributed_1_1/Cast_29/ReadVariableOp", "op": "Const", "attr": {"value": {"tensor": {"dtype": "DT_FLOAT", "tensorShape": {"dim": [{"size": "128"}, {"size": "3"}]}}}, "dtype": {"type": "DT_FLOAT"}}}, {"name": "StatefulPartitionedCall/functional_2_1/time_distributed_1_1/BiasAdd_29/ReadVariableOp", "op": "Const", "attr": {"value": {"tensor": {"dtype": "DT_FLOAT", "tensorShape": {"dim": [{"size": "3"}]}}}, "dtype": {"type": "DT_FLOAT"}}}, {"name": "StatefulPartitionedCall/functional_2_1/time_distributed_1_1/strided_slice_31/stack", "op": "Const", "attr": {"value": {"tensor": {"dtype": "DT_INT32", "tensorShape": {"dim": [{"size": "1"}]}}}, "dtype": {"type": "DT_INT32"}}}, {"name": "StatefulPartitionedCall/functional_2_1/time_distributed_1_1/strided_slice_31/stack_1", "op": "Const", "attr": {"value": {"tensor": {"dtype": "DT_INT32", "tensorShape": {"dim": [{"size": "1"}]}}}, "dtype": {"type": "DT_INT32"}}}, {"name": "StatefulPartitionedCall/functional_2_1/time_distributed_1_1/strided_slice_31/stack_2", "op": "Const", "attr": {"value": {"tensor": {"dtype": "DT_INT32", "tensorShape": {"dim": [{"size": "1"}]}}}, "dtype": {"type": "DT_INT32"}}}, {"name": "StatefulPartitionedCall/functional_2_1/time_distributed_1_1/Cast_30/ReadVariableOp", "op": "Const", "attr": {"value": {"tensor": {"dtype": "DT_FLOAT", "tensorShape": {"dim": [{"size": "128"}, {"size": "3"}]}}}, "dtype": {"type": "DT_FLOAT"}}}, {"name": "StatefulPartitionedCall/functional_2_1/time_distributed_1_1/BiasAdd_30/ReadVariableOp", "op": "Const", "attr": {"value": {"tensor": {"dtype": "DT_FLOAT", "tensorShape": {"dim": [{"size": "3"}]}}}, "dtype": {"type": "DT_FLOAT"}}}, {"name": "StatefulPartitionedCall/functional_2_1/time_distributed_1_1/strided_slice_32/stack", "op": "Const", "attr": {"value": {"tensor": {"dtype": "DT_INT32", "tensorShape": {"dim": [{"size": "1"}]}}}, "dtype": {"type": "DT_INT32"}}}, {"name": "StatefulPartitionedCall/functional_2_1/time_distributed_1_1/strided_slice_32/stack_1", "op": "Const", "attr": {"value": {"tensor": {"dtype": "DT_INT32", "tensorShape": {"dim": [{"size": "1"}]}}}, "dtype": {"type": "DT_INT32"}}}, {"name": "StatefulPartitionedCall/functional_2_1/time_distributed_1_1/strided_slice_32/stack_2", "op": "Const", "attr": {"value": {"tensor": {"dtype": "DT_INT32", "tensorShape": {"dim": [{"size": "1"}]}}}, "dtype": {"type": "DT_INT32"}}}, {"name": "StatefulPartitionedCall/functional_2_1/time_distributed_1_1/Cast_31/ReadVariableOp", "op": "Const", "attr": {"value": {"tensor": {"dtype": "DT_FLOAT", "tensorShape": {"dim": [{"size": "128"}, {"size": "3"}]}}}, "dtype": {"type": "DT_FLOAT"}}}, {"name": "StatefulPartitionedCall/functional_2_1/time_distributed_1_1/BiasAdd_31/ReadVariableOp", "op": "Const", "attr": {"value": {"tensor": {"dtype": "DT_FLOAT", "tensorShape": {"dim": [{"size": "3"}]}}}, "dtype": {"type": "DT_FLOAT"}}}, {"name": "StatefulPartitionedCall/functional_2_1/time_distributed_1_1/strided_slice_33/stack", "op": "Const", "attr": {"value": {"tensor": {"dtype": "DT_INT32", "tensorShape": {"dim": [{"size": "1"}]}}}, "dtype": {"type": "DT_INT32"}}}, {"name": "StatefulPartitionedCall/functional_2_1/time_distributed_1_1/strided_slice_33/stack_1", "op": "Const", "attr": {"value": {"tensor": {"dtype": "DT_INT32", "tensorShape": {"dim": [{"size": "1"}]}}}, "dtype": {"type": "DT_INT32"}}}, {"name": "StatefulPartitionedCall/functional_2_1/time_distributed_1_1/strided_slice_33/stack_2", "op": "Const", "attr": {"value": {"tensor": {"dtype": "DT_INT32", "tensorShape": {"dim": [{"size": "1"}]}}}, "dtype": {"type": "DT_INT32"}}}, {"name": "StatefulPartitionedCall/functional_2_1/time_distributed_1_1/Cast_32/ReadVariableOp", "op": "Const", "attr": {"value": {"tensor": {"dtype": "DT_FLOAT", "tensorShape": {"dim": [{"size": "128"}, {"size": "3"}]}}}, "dtype": {"type": "DT_FLOAT"}}}, {"name": "StatefulPartitionedCall/functional_2_1/time_distributed_1_1/BiasAdd_32/ReadVariableOp", "op": "Const", "attr": {"value": {"tensor": {"dtype": "DT_FLOAT", "tensorShape": {"dim": [{"size": "3"}]}}}, "dtype": {"type": "DT_FLOAT"}}}, {"name": "StatefulPartitionedCall/functional_2_1/time_distributed_1_1/strided_slice_34/stack", "op": "Const", "attr": {"value": {"tensor": {"dtype": "DT_INT32", "tensorShape": {"dim": [{"size": "1"}]}}}, "dtype": {"type": "DT_INT32"}}}, {"name": "StatefulPartitionedCall/functional_2_1/time_distributed_1_1/strided_slice_34/stack_1", "op": "Const", "attr": {"value": {"tensor": {"dtype": "DT_INT32", "tensorShape": {"dim": [{"size": "1"}]}}}, "dtype": {"type": "DT_INT32"}}}, {"name": "StatefulPartitionedCall/functional_2_1/time_distributed_1_1/strided_slice_34/stack_2", "op": "Const", "attr": {"value": {"tensor": {"dtype": "DT_INT32", "tensorShape": {"dim": [{"size": "1"}]}}}, "dtype": {"type": "DT_INT32"}}}, {"name": "StatefulPartitionedCall/functional_2_1/time_distributed_1_1/Cast_33/ReadVariableOp", "op": "Const", "attr": {"value": {"tensor": {"dtype": "DT_FLOAT", "tensorShape": {"dim": [{"size": "128"}, {"size": "3"}]}}}, "dtype": {"type": "DT_FLOAT"}}}, {"name": "StatefulPartitionedCall/functional_2_1/time_distributed_1_1/BiasAdd_33/ReadVariableOp", "op": "Const", "attr": {"value": {"tensor": {"dtype": "DT_FLOAT", "tensorShape": {"dim": [{"size": "3"}]}}}, "dtype": {"type": "DT_FLOAT"}}}, {"name": "StatefulPartitionedCall/functional_2_1/time_distributed_1_1/strided_slice_35/stack", "op": "Const", "attr": {"value": {"tensor": {"dtype": "DT_INT32", "tensorShape": {"dim": [{"size": "1"}]}}}, "dtype": {"type": "DT_INT32"}}}, {"name": "StatefulPartitionedCall/functional_2_1/time_distributed_1_1/strided_slice_35/stack_1", "op": "Const", "attr": {"value": {"tensor": {"dtype": "DT_INT32", "tensorShape": {"dim": [{"size": "1"}]}}}, "dtype": {"type": "DT_INT32"}}}, {"name": "StatefulPartitionedCall/functional_2_1/time_distributed_1_1/strided_slice_35/stack_2", "op": "Const", "attr": {"value": {"tensor": {"dtype": "DT_INT32", "tensorShape": {"dim": [{"size": "1"}]}}}, "dtype": {"type": "DT_INT32"}}}, {"name": "StatefulPartitionedCall/functional_2_1/time_distributed_1_1/Cast_34/ReadVariableOp", "op": "Const", "attr": {"value": {"tensor": {"dtype": "DT_FLOAT", "tensorShape": {"dim": [{"size": "128"}, {"size": "3"}]}}}, "dtype": {"type": "DT_FLOAT"}}}, {"name": "StatefulPartitionedCall/functional_2_1/time_distributed_1_1/BiasAdd_34/ReadVariableOp", "op": "Const", "attr": {"value": {"tensor": {"dtype": "DT_FLOAT", "tensorShape": {"dim": [{"size": "3"}]}}}, "dtype": {"type": "DT_FLOAT"}}}, {"name": "StatefulPartitionedCall/functional_2_1/time_distributed_1_1/strided_slice_36/stack", "op": "Const", "attr": {"value": {"tensor": {"dtype": "DT_INT32", "tensorShape": {"dim": [{"size": "1"}]}}}, "dtype": {"type": "DT_INT32"}}}, {"name": "StatefulPartitionedCall/functional_2_1/time_distributed_1_1/strided_slice_36/stack_1", "op": "Const", "attr": {"value": {"tensor": {"dtype": "DT_INT32", "tensorShape": {"dim": [{"size": "1"}]}}}, "dtype": {"type": "DT_INT32"}}}, {"name": "StatefulPartitionedCall/functional_2_1/time_distributed_1_1/strided_slice_36/stack_2", "op": "Const", "attr": {"value": {"tensor": {"dtype": "DT_INT32", "tensorShape": {"dim": [{"size": "1"}]}}}, "dtype": {"type": "DT_INT32"}}}, {"name": "StatefulPartitionedCall/functional_2_1/time_distributed_1_1/Cast_35/ReadVariableOp", "op": "Const", "attr": {"value": {"tensor": {"dtype": "DT_FLOAT", "tensorShape": {"dim": [{"size": "128"}, {"size": "3"}]}}}, "dtype": {"type": "DT_FLOAT"}}}, {"name": "StatefulPartitionedCall/functional_2_1/time_distributed_1_1/BiasAdd_35/ReadVariableOp", "op": "Const", "attr": {"value": {"tensor": {"dtype": "DT_FLOAT", "tensorShape": {"dim": [{"size": "3"}]}}}, "dtype": {"type": "DT_FLOAT"}}}, {"name": "StatefulPartitionedCall/functional_2_1/time_distributed_1_1/strided_slice_37/stack", "op": "Const", "attr": {"value": {"tensor": {"dtype": "DT_INT32", "tensorShape": {"dim": [{"size": "1"}]}}}, "dtype": {"type": "DT_INT32"}}}, {"name": "StatefulPartitionedCall/functional_2_1/time_distributed_1_1/strided_slice_37/stack_1", "op": "Const", "attr": {"value": {"tensor": {"dtype": "DT_INT32", "tensorShape": {"dim": [{"size": "1"}]}}}, "dtype": {"type": "DT_INT32"}}}, {"name": "StatefulPartitionedCall/functional_2_1/time_distributed_1_1/strided_slice_37/stack_2", "op": "Const", "attr": {"value": {"tensor": {"dtype": "DT_INT32", "tensorShape": {"dim": [{"size": "1"}]}}}, "dtype": {"type": "DT_INT32"}}}, {"name": "StatefulPartitionedCall/functional_2_1/time_distributed_1_1/Cast_36/ReadVariableOp", "op": "Const", "attr": {"value": {"tensor": {"dtype": "DT_FLOAT", "tensorShape": {"dim": [{"size": "128"}, {"size": "3"}]}}}, "dtype": {"type": "DT_FLOAT"}}}, {"name": "StatefulPartitionedCall/functional_2_1/time_distributed_1_1/BiasAdd_36/ReadVariableOp", "op": "Const", "attr": {"value": {"tensor": {"dtype": "DT_FLOAT", "tensorShape": {"dim": [{"size": "3"}]}}}, "dtype": {"type": "DT_FLOAT"}}}, {"name": "StatefulPartitionedCall/functional_2_1/time_distributed_1_1/strided_slice_38/stack", "op": "Const", "attr": {"value": {"tensor": {"dtype": "DT_INT32", "tensorShape": {"dim": [{"size": "1"}]}}}, "dtype": {"type": "DT_INT32"}}}, {"name": "StatefulPartitionedCall/functional_2_1/time_distributed_1_1/strided_slice_38/stack_1", "op": "Const", "attr": {"value": {"tensor": {"dtype": "DT_INT32", "tensorShape": {"dim": [{"size": "1"}]}}}, "dtype": {"type": "DT_INT32"}}}, {"name": "StatefulPartitionedCall/functional_2_1/time_distributed_1_1/strided_slice_38/stack_2", "op": "Const", "attr": {"value": {"tensor": {"dtype": "DT_INT32", "tensorShape": {"dim": [{"size": "1"}]}}}, "dtype": {"type": "DT_INT32"}}}, {"name": "StatefulPartitionedCall/functional_2_1/time_distributed_1_1/Cast_37/ReadVariableOp", "op": "Const", "attr": {"value": {"tensor": {"dtype": "DT_FLOAT", "tensorShape": {"dim": [{"size": "128"}, {"size": "3"}]}}}, "dtype": {"type": "DT_FLOAT"}}}, {"name": "StatefulPartitionedCall/functional_2_1/time_distributed_1_1/BiasAdd_37/ReadVariableOp", "op": "Const", "attr": {"value": {"tensor": {"dtype": "DT_FLOAT", "tensorShape": {"dim": [{"size": "3"}]}}}, "dtype": {"type": "DT_FLOAT"}}}, {"name": "StatefulPartitionedCall/functional_2_1/time_distributed_1_1/strided_slice_39/stack", "op": "Const", "attr": {"value": {"tensor": {"dtype": "DT_INT32", "tensorShape": {"dim": [{"size": "1"}]}}}, "dtype": {"type": "DT_INT32"}}}, {"name": "StatefulPartitionedCall/functional_2_1/time_distributed_1_1/strided_slice_39/stack_1", "op": "Const", "attr": {"value": {"tensor": {"dtype": "DT_INT32", "tensorShape": {"dim": [{"size": "1"}]}}}, "dtype": {"type": "DT_INT32"}}}, {"name": "StatefulPartitionedCall/functional_2_1/time_distributed_1_1/strided_slice_39/stack_2", "op": "Const", "attr": {"value": {"tensor": {"dtype": "DT_INT32", "tensorShape": {"dim": [{"size": "1"}]}}}, "dtype": {"type": "DT_INT32"}}}, {"name": "StatefulPartitionedCall/functional_2_1/time_distributed_1_1/Cast_38/ReadVariableOp", "op": "Const", "attr": {"value": {"tensor": {"dtype": "DT_FLOAT", "tensorShape": {"dim": [{"size": "128"}, {"size": "3"}]}}}, "dtype": {"type": "DT_FLOAT"}}}, {"name": "StatefulPartitionedCall/functional_2_1/time_distributed_1_1/BiasAdd_38/ReadVariableOp", "op": "Const", "attr": {"value": {"tensor": {"dtype": "DT_FLOAT", "tensorShape": {"dim": [{"size": "3"}]}}}, "dtype": {"type": "DT_FLOAT"}}}, {"name": "StatefulPartitionedCall/functional_2_1/time_distributed_1_1/strided_slice_40/stack", "op": "Const", "attr": {"value": {"tensor": {"dtype": "DT_INT32", "tensorShape": {"dim": [{"size": "1"}]}}}, "dtype": {"type": "DT_INT32"}}}, {"name": "StatefulPartitionedCall/functional_2_1/time_distributed_1_1/strided_slice_40/stack_1", "op": "Const", "attr": {"value": {"tensor": {"dtype": "DT_INT32", "tensorShape": {"dim": [{"size": "1"}]}}}, "dtype": {"type": "DT_INT32"}}}, {"name": "StatefulPartitionedCall/functional_2_1/time_distributed_1_1/strided_slice_40/stack_2", "op": "Const", "attr": {"value": {"tensor": {"dtype": "DT_INT32", "tensorShape": {"dim": [{"size": "1"}]}}}, "dtype": {"type": "DT_INT32"}}}, {"name": "StatefulPartitionedCall/functional_2_1/time_distributed_1_1/Cast_39/ReadVariableOp", "op": "Const", "attr": {"value": {"tensor": {"dtype": "DT_FLOAT", "tensorShape": {"dim": [{"size": "128"}, {"size": "3"}]}}}, "dtype": {"type": "DT_FLOAT"}}}, {"name": "StatefulPartitionedCall/functional_2_1/time_distributed_1_1/BiasAdd_39/ReadVariableOp", "op": "Const", "attr": {"value": {"tensor": {"dtype": "DT_FLOAT", "tensorShape": {"dim": [{"size": "3"}]}}}, "dtype": {"type": "DT_FLOAT"}}}, {"name": "StatefulPartitionedCall/functional_2_1/time_distributed_1_1/strided_slice_41/stack", "op": "Const", "attr": {"value": {"tensor": {"dtype": "DT_INT32", "tensorShape": {"dim": [{"size": "1"}]}}}, "dtype": {"type": "DT_INT32"}}}, {"name": "StatefulPartitionedCall/functional_2_1/time_distributed_1_1/strided_slice_41/stack_1", "op": "Const", "attr": {"value": {"tensor": {"dtype": "DT_INT32", "tensorShape": {"dim": [{"size": "1"}]}}}, "dtype": {"type": "DT_INT32"}}}, {"name": "StatefulPartitionedCall/functional_2_1/time_distributed_1_1/strided_slice_41/stack_2", "op": "Const", "attr": {"value": {"tensor": {"dtype": "DT_INT32", "tensorShape": {"dim": [{"size": "1"}]}}}, "dtype": {"type": "DT_INT32"}}}, {"name": "StatefulPartitionedCall/functional_2_1/time_distributed_1_1/Cast_40/ReadVariableOp", "op": "Const", "attr": {"value": {"tensor": {"dtype": "DT_FLOAT", "tensorShape": {"dim": [{"size": "128"}, {"size": "3"}]}}}, "dtype": {"type": "DT_FLOAT"}}}, {"name": "StatefulPartitionedCall/functional_2_1/time_distributed_1_1/BiasAdd_40/ReadVariableOp", "op": "Const", "attr": {"value": {"tensor": {"dtype": "DT_FLOAT", "tensorShape": {"dim": [{"size": "3"}]}}}, "dtype": {"type": "DT_FLOAT"}}}, {"name": "StatefulPartitionedCall/functional_2_1/time_distributed_1_1/strided_slice_42/stack", "op": "Const", "attr": {"value": {"tensor": {"dtype": "DT_INT32", "tensorShape": {"dim": [{"size": "1"}]}}}, "dtype": {"type": "DT_INT32"}}}, {"name": "StatefulPartitionedCall/functional_2_1/time_distributed_1_1/strided_slice_42/stack_1", "op": "Const", "attr": {"value": {"tensor": {"dtype": "DT_INT32", "tensorShape": {"dim": [{"size": "1"}]}}}, "dtype": {"type": "DT_INT32"}}}, {"name": "StatefulPartitionedCall/functional_2_1/time_distributed_1_1/strided_slice_42/stack_2", "op": "Const", "attr": {"value": {"tensor": {"dtype": "DT_INT32", "tensorShape": {"dim": [{"size": "1"}]}}}, "dtype": {"type": "DT_INT32"}}}, {"name": "StatefulPartitionedCall/functional_2_1/time_distributed_1_1/Cast_41/ReadVariableOp", "op": "Const", "attr": {"value": {"tensor": {"dtype": "DT_FLOAT", "tensorShape": {"dim": [{"size": "128"}, {"size": "3"}]}}}, "dtype": {"type": "DT_FLOAT"}}}, {"name": "StatefulPartitionedCall/functional_2_1/time_distributed_1_1/BiasAdd_41/ReadVariableOp", "op": "Const", "attr": {"value": {"tensor": {"dtype": "DT_FLOAT", "tensorShape": {"dim": [{"size": "3"}]}}}, "dtype": {"type": "DT_FLOAT"}}}, {"name": "StatefulPartitionedCall/functional_2_1/time_distributed_1_1/strided_slice_43/stack", "op": "Const", "attr": {"value": {"tensor": {"dtype": "DT_INT32", "tensorShape": {"dim": [{"size": "1"}]}}}, "dtype": {"type": "DT_INT32"}}}, {"name": "StatefulPartitionedCall/functional_2_1/time_distributed_1_1/strided_slice_43/stack_1", "op": "Const", "attr": {"value": {"tensor": {"dtype": "DT_INT32", "tensorShape": {"dim": [{"size": "1"}]}}}, "dtype": {"type": "DT_INT32"}}}, {"name": "StatefulPartitionedCall/functional_2_1/time_distributed_1_1/strided_slice_43/stack_2", "op": "Const", "attr": {"value": {"tensor": {"dtype": "DT_INT32", "tensorShape": {"dim": [{"size": "1"}]}}}, "dtype": {"type": "DT_INT32"}}}, {"name": "StatefulPartitionedCall/functional_2_1/time_distributed_1_1/Cast_42/ReadVariableOp", "op": "Const", "attr": {"value": {"tensor": {"dtype": "DT_FLOAT", "tensorShape": {"dim": [{"size": "128"}, {"size": "3"}]}}}, "dtype": {"type": "DT_FLOAT"}}}, {"name": "StatefulPartitionedCall/functional_2_1/time_distributed_1_1/BiasAdd_42/ReadVariableOp", "op": "Const", "attr": {"value": {"tensor": {"dtype": "DT_FLOAT", "tensorShape": {"dim": [{"size": "3"}]}}}, "dtype": {"type": "DT_FLOAT"}}}, {"name": "StatefulPartitionedCall/functional_2_1/time_distributed_1_1/strided_slice_44/stack", "op": "Const", "attr": {"value": {"tensor": {"dtype": "DT_INT32", "tensorShape": {"dim": [{"size": "1"}]}}}, "dtype": {"type": "DT_INT32"}}}, {"name": "StatefulPartitionedCall/functional_2_1/time_distributed_1_1/strided_slice_44/stack_1", "op": "Const", "attr": {"value": {"tensor": {"dtype": "DT_INT32", "tensorShape": {"dim": [{"size": "1"}]}}}, "dtype": {"type": "DT_INT32"}}}, {"name": "StatefulPartitionedCall/functional_2_1/time_distributed_1_1/strided_slice_44/stack_2", "op": "Const", "attr": {"value": {"tensor": {"dtype": "DT_INT32", "tensorShape": {"dim": [{"size": "1"}]}}}, "dtype": {"type": "DT_INT32"}}}, {"name": "StatefulPartitionedCall/functional_2_1/time_distributed_1_1/Cast_43/ReadVariableOp", "op": "Const", "attr": {"value": {"tensor": {"dtype": "DT_FLOAT", "tensorShape": {"dim": [{"size": "128"}, {"size": "3"}]}}}, "dtype": {"type": "DT_FLOAT"}}}, {"name": "StatefulPartitionedCall/functional_2_1/time_distributed_1_1/BiasAdd_43/ReadVariableOp", "op": "Const", "attr": {"value": {"tensor": {"dtype": "DT_FLOAT", "tensorShape": {"dim": [{"size": "3"}]}}}, "dtype": {"type": "DT_FLOAT"}}}, {"name": "StatefulPartitionedCall/functional_2_1/time_distributed_1_1/strided_slice_45/stack", "op": "Const", "attr": {"value": {"tensor": {"dtype": "DT_INT32", "tensorShape": {"dim": [{"size": "1"}]}}}, "dtype": {"type": "DT_INT32"}}}, {"name": "StatefulPartitionedCall/functional_2_1/time_distributed_1_1/strided_slice_45/stack_1", "op": "Const", "attr": {"value": {"tensor": {"dtype": "DT_INT32", "tensorShape": {"dim": [{"size": "1"}]}}}, "dtype": {"type": "DT_INT32"}}}, {"name": "StatefulPartitionedCall/functional_2_1/time_distributed_1_1/strided_slice_45/stack_2", "op": "Const", "attr": {"value": {"tensor": {"dtype": "DT_INT32", "tensorShape": {"dim": [{"size": "1"}]}}}, "dtype": {"type": "DT_INT32"}}}, {"name": "StatefulPartitionedCall/functional_2_1/time_distributed_1_1/Cast_44/ReadVariableOp", "op": "Const", "attr": {"value": {"tensor": {"dtype": "DT_FLOAT", "tensorShape": {"dim": [{"size": "128"}, {"size": "3"}]}}}, "dtype": {"type": "DT_FLOAT"}}}, {"name": "StatefulPartitionedCall/functional_2_1/time_distributed_1_1/BiasAdd_44/ReadVariableOp", "op": "Const", "attr": {"value": {"tensor": {"dtype": "DT_FLOAT", "tensorShape": {"dim": [{"size": "3"}]}}}, "dtype": {"type": "DT_FLOAT"}}}, {"name": "StatefulPartitionedCall/functional_2_1/time_distributed_1_1/strided_slice_46/stack", "op": "Const", "attr": {"value": {"tensor": {"dtype": "DT_INT32", "tensorShape": {"dim": [{"size": "1"}]}}}, "dtype": {"type": "DT_INT32"}}}, {"name": "StatefulPartitionedCall/functional_2_1/time_distributed_1_1/strided_slice_46/stack_1", "op": "Const", "attr": {"value": {"tensor": {"dtype": "DT_INT32", "tensorShape": {"dim": [{"size": "1"}]}}}, "dtype": {"type": "DT_INT32"}}}, {"name": "StatefulPartitionedCall/functional_2_1/time_distributed_1_1/strided_slice_46/stack_2", "op": "Const", "attr": {"value": {"tensor": {"dtype": "DT_INT32", "tensorShape": {"dim": [{"size": "1"}]}}}, "dtype": {"type": "DT_INT32"}}}, {"name": "StatefulPartitionedCall/functional_2_1/time_distributed_1_1/Cast_45/ReadVariableOp", "op": "Const", "attr": {"value": {"tensor": {"dtype": "DT_FLOAT", "tensorShape": {"dim": [{"size": "128"}, {"size": "3"}]}}}, "dtype": {"type": "DT_FLOAT"}}}, {"name": "StatefulPartitionedCall/functional_2_1/time_distributed_1_1/BiasAdd_45/ReadVariableOp", "op": "Const", "attr": {"value": {"tensor": {"dtype": "DT_FLOAT", "tensorShape": {"dim": [{"size": "3"}]}}}, "dtype": {"type": "DT_FLOAT"}}}, {"name": "StatefulPartitionedCall/functional_2_1/time_distributed_1_1/strided_slice_47/stack", "op": "Const", "attr": {"value": {"tensor": {"dtype": "DT_INT32", "tensorShape": {"dim": [{"size": "1"}]}}}, "dtype": {"type": "DT_INT32"}}}, {"name": "StatefulPartitionedCall/functional_2_1/time_distributed_1_1/strided_slice_47/stack_1", "op": "Const", "attr": {"value": {"tensor": {"dtype": "DT_INT32", "tensorShape": {"dim": [{"size": "1"}]}}}, "dtype": {"type": "DT_INT32"}}}, {"name": "StatefulPartitionedCall/functional_2_1/time_distributed_1_1/strided_slice_47/stack_2", "op": "Const", "attr": {"value": {"tensor": {"dtype": "DT_INT32", "tensorShape": {"dim": [{"size": "1"}]}}}, "dtype": {"type": "DT_INT32"}}}, {"name": "StatefulPartitionedCall/functional_2_1/time_distributed_1_1/Cast_46/ReadVariableOp", "op": "Const", "attr": {"value": {"tensor": {"dtype": "DT_FLOAT", "tensorShape": {"dim": [{"size": "128"}, {"size": "3"}]}}}, "dtype": {"type": "DT_FLOAT"}}}, {"name": "StatefulPartitionedCall/functional_2_1/time_distributed_1_1/BiasAdd_46/ReadVariableOp", "op": "Const", "attr": {"value": {"tensor": {"dtype": "DT_FLOAT", "tensorShape": {"dim": [{"size": "3"}]}}}, "dtype": {"type": "DT_FLOAT"}}}, {"name": "StatefulPartitionedCall/functional_2_1/time_distributed_1_1/strided_slice_48/stack", "op": "Const", "attr": {"value": {"tensor": {"dtype": "DT_INT32", "tensorShape": {"dim": [{"size": "1"}]}}}, "dtype": {"type": "DT_INT32"}}}, {"name": "StatefulPartitionedCall/functional_2_1/time_distributed_1_1/strided_slice_48/stack_1", "op": "Const", "attr": {"value": {"tensor": {"dtype": "DT_INT32", "tensorShape": {"dim": [{"size": "1"}]}}}, "dtype": {"type": "DT_INT32"}}}, {"name": "StatefulPartitionedCall/functional_2_1/time_distributed_1_1/strided_slice_48/stack_2", "op": "Const", "attr": {"value": {"tensor": {"dtype": "DT_INT32", "tensorShape": {"dim": [{"size": "1"}]}}}, "dtype": {"type": "DT_INT32"}}}, {"name": "StatefulPartitionedCall/functional_2_1/time_distributed_1_1/Cast_47/ReadVariableOp", "op": "Const", "attr": {"value": {"tensor": {"dtype": "DT_FLOAT", "tensorShape": {"dim": [{"size": "128"}, {"size": "3"}]}}}, "dtype": {"type": "DT_FLOAT"}}}, {"name": "StatefulPartitionedCall/functional_2_1/time_distributed_1_1/BiasAdd_47/ReadVariableOp", "op": "Const", "attr": {"value": {"tensor": {"dtype": "DT_FLOAT", "tensorShape": {"dim": [{"size": "3"}]}}}, "dtype": {"type": "DT_FLOAT"}}}, {"name": "StatefulPartitionedCall/functional_2_1/time_distributed_1_1/strided_slice_49/stack", "op": "Const", "attr": {"value": {"tensor": {"dtype": "DT_INT32", "tensorShape": {"dim": [{"size": "1"}]}}}, "dtype": {"type": "DT_INT32"}}}, {"name": "StatefulPartitionedCall/functional_2_1/time_distributed_1_1/strided_slice_49/stack_1", "op": "Const", "attr": {"value": {"tensor": {"dtype": "DT_INT32", "tensorShape": {"dim": [{"size": "1"}]}}}, "dtype": {"type": "DT_INT32"}}}, {"name": "StatefulPartitionedCall/functional_2_1/time_distributed_1_1/strided_slice_49/stack_2", "op": "Const", "attr": {"value": {"tensor": {"dtype": "DT_INT32", "tensorShape": {"dim": [{"size": "1"}]}}}, "dtype": {"type": "DT_INT32"}}}, {"name": "StatefulPartitionedCall/functional_2_1/time_distributed_1_1/Cast_48/ReadVariableOp", "op": "Const", "attr": {"value": {"tensor": {"dtype": "DT_FLOAT", "tensorShape": {"dim": [{"size": "128"}, {"size": "3"}]}}}, "dtype": {"type": "DT_FLOAT"}}}, {"name": "StatefulPartitionedCall/functional_2_1/time_distributed_1_1/BiasAdd_48/ReadVariableOp", "op": "Const", "attr": {"value": {"tensor": {"dtype": "DT_FLOAT", "tensorShape": {"dim": [{"size": "3"}]}}}, "dtype": {"type": "DT_FLOAT"}}}, {"name": "StatefulPartitionedCall/functional_2_1/lstm_7_1/TensorArrayV2Stack/TensorListStack/element_shape", "op": "Const", "attr": {"value": {"tensor": {"dtype": "DT_INT32", "tensorShape": {"dim": [{"size": "2"}]}}}, "dtype": {"type": "DT_INT32"}}}, {"name": "StatefulPartitionedCall/functional_2_1/time_distributed_1_1/strided_slice_50/stack", "op": "Const", "attr": {"value": {"tensor": {"dtype": "DT_INT32", "tensorShape": {"dim": [{"size": "1"}]}}}, "dtype": {"type": "DT_INT32"}}}, {"name": "StatefulPartitionedCall/functional_2_1/time_distributed_1_1/strided_slice_50/stack_1", "op": "Const", "attr": {"value": {"tensor": {"dtype": "DT_INT32", "tensorShape": {"dim": [{"size": "1"}]}}}, "dtype": {"type": "DT_INT32"}}}, {"name": "StatefulPartitionedCall/functional_2_1/time_distributed_1_1/strided_slice_50/stack_2", "op": "Const", "attr": {"value": {"tensor": {"dtype": "DT_INT32", "tensorShape": {"dim": [{"size": "1"}]}}}, "dtype": {"type": "DT_INT32"}}}, {"name": "StatefulPartitionedCall/functional_2_1/time_distributed_1_1/Cast_49/ReadVariableOp", "op": "Const", "attr": {"value": {"tensor": {"dtype": "DT_FLOAT", "tensorShape": {"dim": [{"size": "128"}, {"size": "3"}]}}}, "dtype": {"type": "DT_FLOAT"}}}, {"name": "StatefulPartitionedCall/functional_2_1/time_distributed_1_1/BiasAdd_49/ReadVariableOp", "op": "Const", "attr": {"value": {"tensor": {"dtype": "DT_FLOAT", "tensorShape": {"dim": [{"size": "3"}]}}}, "dtype": {"type": "DT_FLOAT"}}}, {"name": "StatefulPartitionedCall/functional_2_1/time_distributed_1_1/transpose_1/perm", "op": "Const", "attr": {"value": {"tensor": {"dtype": "DT_INT32", "tensorShape": {"dim": [{"size": "3"}]}}}, "dtype": {"type": "DT_INT32"}}}, {"name": "StatefulPartitionedCall/functional_2_1/lstm_7_1/Max", "op": "Const", "attr": {"value": {"tensor": {"dtype": "DT_INT32", "tensorShape": {}}}, "dtype": {"type": "DT_INT32"}}}, {"name": "StatefulPartitionedCall/functional_2_1/lstm_7_1/while/loop_counter", "op": "Const", "attr": {"value": {"tensor": {"dtype": "DT_INT32", "tensorShape": {}}}, "_has_manual_control_dependencies": {"b": true}, "dtype": {"type": "DT_INT32"}}}, {"name": "StatefulPartitionedCall/functional_2_1/lstm_7_1/time", "op": "Const", "attr": {"value": {"tensor": {"dtype": "DT_INT32", "tensorShape": {}}}, "_has_manual_control_dependencies": {"b": true}, "dtype": {"type": "DT_INT32"}}}, {"name": "Func/StatefulPartitionedCall/input/_4", "op": "Const", "attr": {"value": {"tensor": {"dtype": "DT_FLOAT", "tensorShape": {"dim": [{"size": "128"}, {"size": "512"}]}}}, "dtype": {"type": "DT_FLOAT"}}}, {"name": "Func/StatefulPartitionedCall/input/_5", "op": "Const", "attr": {"value": {"tensor": {"dtype": "DT_FLOAT", "tensorShape": {"dim": [{"size": "128"}, {"size": "512"}]}}}, "dtype": {"type": "DT_FLOAT"}}}, {"name": "Func/StatefulPartitionedCall/input/_6", "op": "Const", "attr": {"value": {"tensor": {"dtype": "DT_FLOAT", "tensorShape": {"dim": [{"size": "512"}]}}}, "dtype": {"type": "DT_FLOAT"}}}, {"name": "StatefulPartitionedCall/functional_2_1/lstm_7_1/transpose/perm", "op": "Const", "attr": {"value": {"tensor": {"dtype": "DT_INT32", "tensorShape": {"dim": [{"size": "3"}]}}}, "dtype": {"type": "DT_INT32"}}}, {"name": "StatefulPartitionedCall/functional_2_1/lstm_7_1/TensorArrayUnstack/TensorListFromTensor/element_shape", "op": "Const", "attr": {"value": {"tensor": {"dtype": "DT_INT32", "tensorShape": {"dim": [{"size": "2"}]}}}, "dtype": {"type": "DT_INT32"}}}, {"name": "StatefulPartitionedCall/functional_2_1/lstm_7_1/TensorArrayV2_1/element_shape", "op": "Const", "attr": {"value": {"tensor": {"dtype": "DT_INT32", "tensorShape": {"dim": [{"size": "2"}]}}}, "dtype": {"type": "DT_INT32"}}}, {"name": "StatefulPartitionedCall/functional_2_1/lstm_7_1/TensorArrayV2_1/num_elements", "op": "Const", "attr": {"value": {"tensor": {"dtype": "DT_INT32", "tensorShape": {}}}, "dtype": {"type": "DT_INT32"}}}, {"name": "StatefulPartitionedCall/functional_2_1/lstm_7_1/zeros/packed/1", "op": "Const", "attr": {"value": {"tensor": {"dtype": "DT_INT32", "tensorShape": {}}}, "dtype": {"type": "DT_INT32"}}}, {"name": "StatefulPartitionedCall/functional_2_1/lstm_7_1/zeros/Const", "op": "Const", "attr": {"value": {"tensor": {"dtype": "DT_FLOAT", "tensorShape": {}}}, "dtype": {"type": "DT_FLOAT"}}}, {"name": "StatefulPartitionedCall/functional_2_1/repeat_vector_3_1/Repeat/ExpandDims/dim", "op": "Const", "attr": {"value": {"tensor": {"dtype": "DT_INT32", "tensorShape": {}}}, "dtype": {"type": "DT_INT32"}}}, {"name": "StatefulPartitionedCall/functional_2_1/repeat_vector_3_1/Repeat/Tile/multiples", "op": "Const", "attr": {"value": {"tensor": {"dtype": "DT_INT32", "tensorShape": {"dim": [{"size": "4"}]}}}, "dtype": {"type": "DT_INT32"}}}, {"name": "StatefulPartitionedCall/functional_2_1/repeat_vector_3_1/Repeat/strided_slice/stack", "op": "Const", "attr": {"value": {"tensor": {"dtype": "DT_INT32", "tensorShape": {"dim": [{"size": "1"}]}}}, "dtype": {"type": "DT_INT32"}}}, {"name": "StatefulPartitionedCall/functional_2_1/repeat_vector_3_1/Repeat/strided_slice/stack_1", "op": "Const", "attr": {"value": {"tensor": {"dtype": "DT_INT32", "tensorShape": {"dim": [{"size": "1"}]}}}, "dtype": {"type": "DT_INT32"}}}, {"name": "StatefulPartitionedCall/functional_2_1/repeat_vector_3_1/Repeat/strided_slice/stack_2", "op": "Const", "attr": {"value": {"tensor": {"dtype": "DT_INT32", "tensorShape": {"dim": [{"size": "1"}]}}}, "dtype": {"type": "DT_INT32"}}}, {"name": "StatefulPartitionedCall/functional_2_1/repeat_vector_3_1/Repeat/Reshape", "op": "Const", "attr": {"value": {"tensor": {"dtype": "DT_INT32", "tensorShape": {}}}, "dtype": {"type": "DT_INT32"}}}, {"name": "StatefulPartitionedCall/functional_2_1/repeat_vector_3_1/Repeat/strided_slice_1/stack", "op": "Const", "attr": {"value": {"tensor": {"dtype": "DT_INT32", "tensorShape": {"dim": [{"size": "1"}]}}}, "dtype": {"type": "DT_INT32"}}}, {"name": "StatefulPartitionedCall/functional_2_1/repeat_vector_3_1/Repeat/strided_slice_1/stack_1", "op": "Const", "attr": {"value": {"tensor": {"dtype": "DT_INT32", "tensorShape": {"dim": [{"size": "1"}]}}}, "dtype": {"type": "DT_INT32"}}}, {"name": "StatefulPartitionedCall/functional_2_1/repeat_vector_3_1/Repeat/strided_slice_1/stack_2", "op": "Const", "attr": {"value": {"tensor": {"dtype": "DT_INT32", "tensorShape": {"dim": [{"size": "1"}]}}}, "dtype": {"type": "DT_INT32"}}}, {"name": "StatefulPartitionedCall/functional_2_1/lstm_6_1/Max", "op": "Const", "attr": {"value": {"tensor": {"dtype": "DT_INT32", "tensorShape": {}}}, "dtype": {"type": "DT_INT32"}}}, {"name": "StatefulPartitionedCall/functional_2_1/lstm_6_1/while/loop_counter", "op": "Const", "attr": {"value": {"tensor": {"dtype": "DT_INT32", "tensorShape": {}}}, "_has_manual_control_dependencies": {"b": true}, "dtype": {"type": "DT_INT32"}}}, {"name": "StatefulPartitionedCall/functional_2_1/lstm_6_1/time", "op": "Const", "attr": {"value": {"tensor": {"dtype": "DT_INT32", "tensorShape": {}}}, "_has_manual_control_dependencies": {"b": true}, "dtype": {"type": "DT_INT32"}}}, {"name": "Func/StatefulPartitionedCall/input/_1", "op": "Const", "attr": {"value": {"tensor": {"dtype": "DT_FLOAT", "tensorShape": {"dim": [{"size": "3"}, {"size": "512"}]}}}, "dtype": {"type": "DT_FLOAT"}}}, {"name": "Func/StatefulPartitionedCall/input/_2", "op": "Const", "attr": {"value": {"tensor": {"dtype": "DT_FLOAT", "tensorShape": {"dim": [{"size": "128"}, {"size": "512"}]}}}, "dtype": {"type": "DT_FLOAT"}}}, {"name": "Func/StatefulPartitionedCall/input/_3", "op": "Const", "attr": {"value": {"tensor": {"dtype": "DT_FLOAT", "tensorShape": {"dim": [{"size": "512"}]}}}, "dtype": {"type": "DT_FLOAT"}}}, {"name": "StatefulPartitionedCall/functional_2_1/lstm_6_1/transpose/perm", "op": "Const", "attr": {"value": {"tensor": {"dtype": "DT_INT32", "tensorShape": {"dim": [{"size": "3"}]}}}, "dtype": {"type": "DT_INT32"}}}, {"name": "StatefulPartitionedCall/functional_2_1/lstm_6_1/TensorArrayUnstack/TensorListFromTensor/element_shape", "op": "Const", "attr": {"value": {"tensor": {"dtype": "DT_INT32", "tensorShape": {"dim": [{"size": "2"}]}}}, "dtype": {"type": "DT_INT32"}}}, {"name": "StatefulPartitionedCall/functional_2_1/lstm_6_1/TensorArrayV2_1/element_shape", "op": "Const", "attr": {"value": {"tensor": {"dtype": "DT_INT32", "tensorShape": {"dim": [{"size": "2"}]}}}, "dtype": {"type": "DT_INT32"}}}, {"name": "StatefulPartitionedCall/functional_2_1/lstm_6_1/TensorArrayV2_1/num_elements", "op": "Const", "attr": {"value": {"tensor": {"dtype": "DT_INT32", "tensorShape": {}}}, "dtype": {"type": "DT_INT32"}}}, {"name": "StatefulPartitionedCall/functional_2_1/lstm_6_1/zeros/packed/1", "op": "Const", "attr": {"value": {"tensor": {"dtype": "DT_INT32", "tensorShape": {}}}, "dtype": {"type": "DT_INT32"}}}, {"name": "StatefulPartitionedCall/functional_2_1/lstm_6_1/zeros/Const", "op": "Const", "attr": {"value": {"tensor": {"dtype": "DT_FLOAT", "tensorShape": {}}}, "dtype": {"type": "DT_FLOAT"}}}, {"name": "StatefulPartitionedCall/functional_2_1/lstm_6_1/strided_slice/stack", "op": "Const", "attr": {"value": {"tensor": {"dtype": "DT_INT32", "tensorShape": {"dim": [{"size": "1"}]}}}, "dtype": {"type": "DT_INT32"}}}, {"name": "StatefulPartitionedCall/functional_2_1/lstm_6_1/strided_slice/stack_1", "op": "Const", "attr": {"value": {"tensor": {"dtype": "DT_INT32", "tensorShape": {"dim": [{"size": "1"}]}}}, "dtype": {"type": "DT_INT32"}}}, {"name": "StatefulPartitionedCall/functional_2_1/lstm_6_1/strided_slice/stack_2", "op": "Const", "attr": {"value": {"tensor": {"dtype": "DT_INT32", "tensorShape": {"dim": [{"size": "1"}]}}}, "dtype": {"type": "DT_INT32"}}}, {"name": "StatefulPartitionedCall/functional_2_1/lstm_6_1/zeros_1/packed/1", "op": "Const", "attr": {"value": {"tensor": {"dtype": "DT_INT32", "tensorShape": {}}}, "dtype": {"type": "DT_INT32"}}}, {"name": "StatefulPartitionedCall/functional_2_1/lstm_6_1/zeros_1/Const", "op": "Const", "attr": {"value": {"tensor": {"dtype": "DT_FLOAT", "tensorShape": {}}}, "dtype": {"type": "DT_FLOAT"}}}, {"name": "StatefulPartitionedCall/functional_2_1/lstm_6_1/TensorArrayV2Stack/TensorListStack/element_shape", "op": "Const", "attr": {"value": {"tensor": {"dtype": "DT_INT32", "tensorShape": {"dim": [{"size": "2"}]}}}, "dtype": {"type": "DT_INT32"}}}, {"name": "StatefulPartitionedCall/functional_2_1/lstm_6_1/strided_slice_3/stack", "op": "Const", "attr": {"value": {"tensor": {"dtype": "DT_INT32", "tensorShape": {"dim": [{"size": "1"}]}}}, "dtype": {"type": "DT_INT32"}}}, {"name": "StatefulPartitionedCall/functional_2_1/lstm_6_1/strided_slice_3/stack_1", "op": "Const", "attr": {"value": {"tensor": {"dtype": "DT_INT32", "tensorShape": {"dim": [{"size": "1"}]}}}, "dtype": {"type": "DT_INT32"}}}, {"name": "StatefulPartitionedCall/functional_2_1/lstm_6_1/strided_slice_3/stack_2", "op": "Const", "attr": {"value": {"tensor": {"dtype": "DT_INT32", "tensorShape": {"dim": [{"size": "1"}]}}}, "dtype": {"type": "DT_INT32"}}}, {"name": "StatefulPartitionedCall/functional_2_1/repeat_vector_3_1/strided_slice/stack", "op": "Const", "attr": {"value": {"tensor": {"dtype": "DT_INT32", "tensorShape": {"dim": [{"size": "1"}]}}}, "dtype": {"type": "DT_INT32"}}}, {"name": "StatefulPartitionedCall/functional_2_1/repeat_vector_3_1/strided_slice/stack_1", "op": "Const", "attr": {"value": {"tensor": {"dtype": "DT_INT32", "tensorShape": {"dim": [{"size": "1"}]}}}, "dtype": {"type": "DT_INT32"}}}, {"name": "StatefulPartitionedCall/functional_2_1/repeat_vector_3_1/strided_slice/stack_2", "op": "Const", "attr": {"value": {"tensor": {"dtype": "DT_INT32", "tensorShape": {"dim": [{"size": "1"}]}}}, "dtype": {"type": "DT_INT32"}}}, {"name": "StatefulPartitionedCall/functional_2_1/repeat_vector_3_1/Reshape/shape/1", "op": "Const", "attr": {"value": {"tensor": {"dtype": "DT_INT32", "tensorShape": {}}}, "dtype": {"type": "DT_INT32"}}}, {"name": "StatefulPartitionedCall/functional_2_1/repeat_vector_3_1/Reshape/shape/2", "op": "Const", "attr": {"value": {"tensor": {"dtype": "DT_INT32", "tensorShape": {}}}, "dtype": {"type": "DT_INT32"}}}, {"name": "StatefulPartitionedCall/functional_2_1/repeat_vector_3_1/Repeat/strided_slice_2/stack", "op": "Const", "attr": {"value": {"tensor": {"dtype": "DT_INT32", "tensorShape": {"dim": [{"size": "1"}]}}}, "dtype": {"type": "DT_INT32"}}}, {"name": "StatefulPartitionedCall/functional_2_1/repeat_vector_3_1/Repeat/strided_slice_2/stack_1", "op": "Const", "attr": {"value": {"tensor": {"dtype": "DT_INT32", "tensorShape": {"dim": [{"size": "1"}]}}}, "dtype": {"type": "DT_INT32"}}}, {"name": "StatefulPartitionedCall/functional_2_1/repeat_vector_3_1/Repeat/strided_slice_2/stack_2", "op": "Const", "attr": {"value": {"tensor": {"dtype": "DT_INT32", "tensorShape": {"dim": [{"size": "1"}]}}}, "dtype": {"type": "DT_INT32"}}}, {"name": "StatefulPartitionedCall/functional_2_1/repeat_vector_3_1/Repeat/concat/axis", "op": "Const", "attr": {"value": {"tensor": {"dtype": "DT_INT32", "tensorShape": {}}}, "dtype": {"type": "DT_INT32"}}}, {"name": "StatefulPartitionedCall/functional_2_1/lstm_7_1/strided_slice/stack", "op": "Const", "attr": {"value": {"tensor": {"dtype": "DT_INT32", "tensorShape": {"dim": [{"size": "1"}]}}}, "dtype": {"type": "DT_INT32"}}}, {"name": "StatefulPartitionedCall/functional_2_1/lstm_7_1/strided_slice/stack_1", "op": "Const", "attr": {"value": {"tensor": {"dtype": "DT_INT32", "tensorShape": {"dim": [{"size": "1"}]}}}, "dtype": {"type": "DT_INT32"}}}, {"name": "StatefulPartitionedCall/functional_2_1/lstm_7_1/strided_slice/stack_2", "op": "Const", "attr": {"value": {"tensor": {"dtype": "DT_INT32", "tensorShape": {"dim": [{"size": "1"}]}}}, "dtype": {"type": "DT_INT32"}}}, {"name": "StatefulPartitionedCall/functional_2_1/lstm_7_1/zeros_1/packed/1", "op": "Const", "attr": {"value": {"tensor": {"dtype": "DT_INT32", "tensorShape": {}}}, "dtype": {"type": "DT_INT32"}}}, {"name": "StatefulPartitionedCall/functional_2_1/lstm_7_1/zeros_1/Const", "op": "Const", "attr": {"value": {"tensor": {"dtype": "DT_FLOAT", "tensorShape": {}}}, "dtype": {"type": "DT_FLOAT"}}}, {"name": "keras_tensor_13", "op": "Placeholder", "attr": {"shape": {"shape": {"dim": [{"size": "-1"}, {"size": "50"}, {"size": "3"}]}}, "dtype": {"type": "DT_FLOAT"}}}, {"name": "StatefulPartitionedCall/functional_2_1/lstm_7_1/TensorArrayV2_1", "op": "TensorListReserve", "input": ["StatefulPartitionedCall/functional_2_1/lstm_7_1/TensorArrayV2_1/element_shape", "StatefulPartitionedCall/functional_2_1/lstm_7_1/TensorArrayV2_1/num_elements"], "attr": {"shape_type": {"type": "DT_INT32"}, "_has_manual_control_dependencies": {"b": true}, "element_dtype": {"type": "DT_FLOAT"}}, "experimentalType": {"typeId": "TFT_PRODUCT", "args": [{"typeId": "TFT_ARRAY", "args": [{"typeId": "TFT_TENSOR", "args": [{"typeId": "TFT_FLOAT"}]}]}]}}, {"name": "StatefulPartitionedCall/functional_2_1/lstm_6_1/TensorArrayV2_1", "op": "TensorListReserve", "input": ["StatefulPartitionedCall/functional_2_1/lstm_6_1/TensorArrayV2_1/element_shape", "StatefulPartitionedCall/functional_2_1/lstm_6_1/TensorArrayV2_1/num_elements"], "attr": {"shape_type": {"type": "DT_INT32"}, "_has_manual_control_dependencies": {"b": true}, "element_dtype": {"type": "DT_FLOAT"}}, "experimentalType": {"typeId": "TFT_PRODUCT", "args": [{"typeId": "TFT_ARRAY", "args": [{"typeId": "TFT_TENSOR", "args": [{"typeId": "TFT_FLOAT"}]}]}]}}, {"name": "StatefulPartitionedCall/functional_2_1/lstm_6_1/transpose", "op": "Transpose", "input": ["keras_tensor_13", "StatefulPartitionedCall/functional_2_1/lstm_6_1/transpose/perm"], "attr": {"Tperm": {"type": "DT_INT32"}, "T": {"type": "DT_FLOAT"}}}, {"name": "StatefulPartitionedCall/functional_2_1/lstm_6_1/Shape", "op": "Shape", "input": ["keras_tensor_13"], "attr": {"T": {"type": "DT_FLOAT"}, "out_type": {"type": "DT_INT32"}}, "experimentalType": {"typeId": "TFT_PRODUCT", "args": [{"typeId": "TFT_SHAPE_TENSOR", "args": [{"typeId": "TFT_INT32"}]}]}}, {"name": "StatefulPartitionedCall/functional_2_1/lstm_6_1/TensorArrayUnstack/TensorListFromTensor", "op": "TensorListFromTensor", "input": ["StatefulPartitionedCall/functional_2_1/lstm_6_1/transpose", "StatefulPartitionedCall/functional_2_1/lstm_6_1/TensorArrayUnstack/TensorListFromTensor/element_shape"], "attr": {"shape_type": {"type": "DT_INT32"}, "_has_manual_control_dependencies": {"b": true}, "element_dtype": {"type": "DT_FLOAT"}}, "experimentalType": {"typeId": "TFT_PRODUCT", "args": [{"typeId": "TFT_ARRAY", "args": [{"typeId": "TFT_TENSOR", "args": [{"typeId": "TFT_FLOAT"}]}]}]}}, {"name": "StatefulPartitionedCall/functional_2_1/lstm_6_1/strided_slice", "op": "StridedSlice", "input": ["StatefulPartitionedCall/functional_2_1/lstm_6_1/Shape", "StatefulPartitionedCall/functional_2_1/lstm_6_1/strided_slice/stack", "StatefulPartitionedCall/functional_2_1/lstm_6_1/strided_slice/stack_1", "StatefulPartitionedCall/functional_2_1/lstm_6_1/strided_slice/stack_2"], "attr": {"shrink_axis_mask": {"i": "1"}, "Index": {"type": "DT_INT32"}, "new_axis_mask": {"i": "0"}, "begin_mask": {"i": "0"}, "end_mask": {"i": "0"}, "T": {"type": "DT_INT32"}, "ellipsis_mask": {"i": "0"}}}, {"name": "StatefulPartitionedCall/functional_2_1/lstm_6_1/zeros/packed", "op": "Pack", "input": ["StatefulPartitionedCall/functional_2_1/lstm_6_1/strided_slice", "StatefulPartitionedCall/functional_2_1/lstm_6_1/zeros/packed/1"], "attr": {"N": {"i": "2"}, "axis": {"i": "0"}, "T": {"type": "DT_INT32"}}}, {"name": "StatefulPartitionedCall/functional_2_1/lstm_6_1/zeros_1/packed", "op": "Pack", "input": ["StatefulPartitionedCall/functional_2_1/lstm_6_1/strided_slice", "StatefulPartitionedCall/functional_2_1/lstm_6_1/zeros_1/packed/1"], "attr": {"N": {"i": "2"}, "axis": {"i": "0"}, "T": {"type": "DT_INT32"}}}, {"name": "StatefulPartitionedCall/functional_2_1/lstm_6_1/zeros", "op": "Fill", "input": ["StatefulPartitionedCall/functional_2_1/lstm_6_1/zeros/packed", "StatefulPartitionedCall/functional_2_1/lstm_6_1/zeros/Const"], "attr": {"_has_manual_control_dependencies": {"b": true}, "T": {"type": "DT_FLOAT"}, "index_type": {"type": "DT_INT32"}}}, {"name": "StatefulPartitionedCall/functional_2_1/lstm_6_1/zeros_1", "op": "Fill", "input": ["StatefulPartitionedCall/functional_2_1/lstm_6_1/zeros_1/packed", "StatefulPartitionedCall/functional_2_1/lstm_6_1/zeros_1/Const"], "attr": {"_has_manual_control_dependencies": {"b": true}, "T": {"type": "DT_FLOAT"}, "index_type": {"type": "DT_INT32"}}}, {"name": "StatefulPartitionedCall/functional_2_1/lstm_6_1/while/LoopControlInputs/_23", "op": "NoOp", "input": ["^StatefulPartitionedCall/functional_2_1/lstm_6_1/TensorArrayUnstack/TensorListFromTensor", "^StatefulPartitionedCall/functional_2_1/lstm_6_1/TensorArrayV2_1", "^StatefulPartitionedCall/functional_2_1/lstm_6_1/zeros", "^StatefulPartitionedCall/functional_2_1/lstm_6_1/zeros_1"], "attr": {"_has_manual_control_dependencies": {"b": true}}}, {"name": "StatefulPartitionedCall/functional_2_1/lstm_6_1/while/enter/_16", "op": "Enter", "input": ["StatefulPartitionedCall/functional_2_1/lstm_6_1/TensorArrayV2_1", "^StatefulPartitionedCall/functional_2_1/lstm_6_1/while/LoopControlInputs/_23"], "attr": {"is_constant": {"b": false}, "frame_name": {"s": "U3RhdGVmdWxQYXJ0aXRpb25lZENhbGwvZnVuY3Rpb25hbF8yXzEvbHN0bV82XzEvd2hpbGU="}, "T": {"type": "DT_VARIANT"}, "parallel_iterations": {"i": "32"}}}, {"name": "StatefulPartitionedCall/functional_2_1/lstm_6_1/while/enter/_19", "op": "Enter", "input": ["StatefulPartitionedCall/functional_2_1/lstm_6_1/TensorArrayUnstack/TensorListFromTensor", "^StatefulPartitionedCall/functional_2_1/lstm_6_1/while/LoopControlInputs/_23"], "attr": {"is_constant": {"b": false}, "frame_name": {"s": "U3RhdGVmdWxQYXJ0aXRpb25lZENhbGwvZnVuY3Rpb25hbF8yXzEvbHN0bV82XzEvd2hpbGU="}, "T": {"type": "DT_VARIANT"}, "parallel_iterations": {"i": "32"}}}, {"name": "StatefulPartitionedCall/functional_2_1/lstm_6_1/while/enter/_14", "op": "Enter", "input": ["StatefulPartitionedCall/functional_2_1/lstm_6_1/Max", "^StatefulPartitionedCall/functional_2_1/lstm_6_1/while/LoopControlInputs/_23"], "attr": {"is_constant": {"b": false}, "frame_name": {"s": "U3RhdGVmdWxQYXJ0aXRpb25lZENhbGwvZnVuY3Rpb25hbF8yXzEvbHN0bV82XzEvd2hpbGU="}, "T": {"type": "DT_INT32"}, "parallel_iterations": {"i": "32"}}}, {"name": "StatefulPartitionedCall/functional_2_1/lstm_6_1/while/enter/_13", "op": "Enter", "input": ["StatefulPartitionedCall/functional_2_1/lstm_6_1/while/loop_counter", "^StatefulPartitionedCall/functional_2_1/lstm_6_1/while/LoopControlInputs/_23"], "attr": {"is_constant": {"b": false}, "frame_name": {"s": "U3RhdGVmdWxQYXJ0aXRpb25lZENhbGwvZnVuY3Rpb25hbF8yXzEvbHN0bV82XzEvd2hpbGU="}, "T": {"type": "DT_INT32"}, "parallel_iterations": {"i": "32"}}}, {"name": "StatefulPartitionedCall/functional_2_1/lstm_6_1/while/enter/_17", "op": "Enter", "input": ["StatefulPartitionedCall/functional_2_1/lstm_6_1/zeros", "^StatefulPartitionedCall/functional_2_1/lstm_6_1/while/LoopControlInputs/_23"], "attr": {"is_constant": {"b": false}, "frame_name": {"s": "U3RhdGVmdWxQYXJ0aXRpb25lZENhbGwvZnVuY3Rpb25hbF8yXzEvbHN0bV82XzEvd2hpbGU="}, "T": {"type": "DT_FLOAT"}, "parallel_iterations": {"i": "32"}}}, {"name": "StatefulPartitionedCall/functional_2_1/lstm_6_1/while/enter/_18", "op": "Enter", "input": ["StatefulPartitionedCall/functional_2_1/lstm_6_1/zeros_1", "^StatefulPartitionedCall/functional_2_1/lstm_6_1/while/LoopControlInputs/_23"], "attr": {"is_constant": {"b": false}, "frame_name": {"s": "U3RhdGVmdWxQYXJ0aXRpb25lZENhbGwvZnVuY3Rpb25hbF8yXzEvbHN0bV82XzEvd2hpbGU="}, "T": {"type": "DT_FLOAT"}, "parallel_iterations": {"i": "32"}}}, {"name": "StatefulPartitionedCall/functional_2_1/lstm_6_1/while/enter/_15", "op": "Enter", "input": ["StatefulPartitionedCall/functional_2_1/lstm_6_1/time", "^StatefulPartitionedCall/functional_2_1/lstm_6_1/while/LoopControlInputs/_23"], "attr": {"is_constant": {"b": false}, "frame_name": {"s": "U3RhdGVmdWxQYXJ0aXRpb25lZENhbGwvZnVuY3Rpb25hbF8yXzEvbHN0bV82XzEvd2hpbGU="}, "T": {"type": "DT_INT32"}, "parallel_iterations": {"i": "32"}}}, {"name": "StatefulPartitionedCall/functional_2_1/lstm_6_1/while/enter/_20", "op": "Enter", "input": ["Func/StatefulPartitionedCall/input/_1", "^StatefulPartitionedCall/functional_2_1/lstm_6_1/while/LoopControlInputs/_23"], "attr": {"is_constant": {"b": true}, "frame_name": {"s": "U3RhdGVmdWxQYXJ0aXRpb25lZENhbGwvZnVuY3Rpb25hbF8yXzEvbHN0bV82XzEvd2hpbGU="}, "T": {"type": "DT_FLOAT"}, "_has_manual_control_dependencies": {"b": true}, "parallel_iterations": {"i": "32"}}}, {"name": "StatefulPartitionedCall/functional_2_1/lstm_6_1/while/enter/_21", "op": "Enter", "input": ["Func/StatefulPartitionedCall/input/_2", "^StatefulPartitionedCall/functional_2_1/lstm_6_1/while/LoopControlInputs/_23"], "attr": {"is_constant": {"b": true}, "_has_manual_control_dependencies": {"b": true}, "T": {"type": "DT_FLOAT"}, "frame_name": {"s": "U3RhdGVmdWxQYXJ0aXRpb25lZENhbGwvZnVuY3Rpb25hbF8yXzEvbHN0bV82XzEvd2hpbGU="}, "parallel_iterations": {"i": "32"}}}, {"name": "StatefulPartitionedCall/functional_2_1/lstm_6_1/while/enter/_22", "op": "Enter", "input": ["Func/StatefulPartitionedCall/input/_3", "^StatefulPartitionedCall/functional_2_1/lstm_6_1/while/LoopControlInputs/_23"], "attr": {"is_constant": {"b": true}, "frame_name": {"s": "U3RhdGVmdWxQYXJ0aXRpb25lZENhbGwvZnVuY3Rpb25hbF8yXzEvbHN0bV82XzEvd2hpbGU="}, "T": {"type": "DT_FLOAT"}, "_has_manual_control_dependencies": {"b": true}, "parallel_iterations": {"i": "32"}}}, {"name": "StatefulPartitionedCall/functional_2_1/lstm_6_1/while/merge/_27", "op": "Merge", "input": ["StatefulPartitionedCall/functional_2_1/lstm_6_1/while/enter/_16", "StatefulPartitionedCall/functional_2_1/lstm_6_1/while/next_iteration/_51"], "attr": {"N": {"i": "2"}, "_has_manual_control_dependencies": {"b": true}, "T": {"type": "DT_VARIANT"}}}, {"name": "StatefulPartitionedCall/functional_2_1/lstm_6_1/while/merge/_30", "op": "Merge", "input": ["StatefulPartitionedCall/functional_2_1/lstm_6_1/while/enter/_19", "StatefulPartitionedCall/functional_2_1/lstm_6_1/while/next_iteration/_54"], "attr": {"N": {"i": "2"}, "_has_manual_control_dependencies": {"b": true}, "T": {"type": "DT_VARIANT"}}}, {"name": "StatefulPartitionedCall/functional_2_1/lstm_6_1/while/merge/_25", "op": "Merge", "input": ["StatefulPartitionedCall/functional_2_1/lstm_6_1/while/enter/_14", "StatefulPartitionedCall/functional_2_1/lstm_6_1/while/next_iteration/_49"], "attr": {"N": {"i": "2"}, "_has_manual_control_dependencies": {"b": true}, "T": {"type": "DT_INT32"}}}, {"name": "StatefulPartitionedCall/functional_2_1/lstm_6_1/while/merge/_24", "op": "Merge", "input": ["StatefulPartitionedCall/functional_2_1/lstm_6_1/while/enter/_13", "StatefulPartitionedCall/functional_2_1/lstm_6_1/while/next_iteration/_48"], "attr": {"N": {"i": "2"}, "T": {"type": "DT_INT32"}}}, {"name": "StatefulPartitionedCall/functional_2_1/lstm_6_1/while/merge/_28", "op": "Merge", "input": ["StatefulPartitionedCall/functional_2_1/lstm_6_1/while/enter/_17", "StatefulPartitionedCall/functional_2_1/lstm_6_1/while/next_iteration/_52"], "attr": {"N": {"i": "2"}, "_has_manual_control_dependencies": {"b": true}, "T": {"type": "DT_FLOAT"}}}, {"name": "StatefulPartitionedCall/functional_2_1/lstm_6_1/while/merge/_29", "op": "Merge", "input": ["StatefulPartitionedCall/functional_2_1/lstm_6_1/while/enter/_18", "StatefulPartitionedCall/functional_2_1/lstm_6_1/while/next_iteration/_53"], "attr": {"N": {"i": "2"}, "_has_manual_control_dependencies": {"b": true}, "T": {"type": "DT_FLOAT"}}}, {"name": "StatefulPartitionedCall/functional_2_1/lstm_6_1/while/merge/_26", "op": "Merge", "input": ["StatefulPartitionedCall/functional_2_1/lstm_6_1/while/enter/_15", "StatefulPartitionedCall/functional_2_1/lstm_6_1/while/next_iteration/_50"], "attr": {"N": {"i": "2"}, "_has_manual_control_dependencies": {"b": true}, "T": {"type": "DT_INT32"}}}, {"name": "Func/StatefulPartitionedCall/functional_2_1/lstm_6_1/while/cond/_11/input_control_node/_99", "op": "NoOp", "input": ["^StatefulPartitionedCall/functional_2_1/lstm_6_1/while/enter/_20", "^StatefulPartitionedCall/functional_2_1/lstm_6_1/while/enter/_21", "^StatefulPartitionedCall/functional_2_1/lstm_6_1/while/enter/_22", "^StatefulPartitionedCall/functional_2_1/lstm_6_1/while/merge/_24", "^StatefulPartitionedCall/functional_2_1/lstm_6_1/while/merge/_25", "^StatefulPartitionedCall/functional_2_1/lstm_6_1/while/merge/_26", "^StatefulPartitionedCall/functional_2_1/lstm_6_1/while/merge/_27", "^StatefulPartitionedCall/functional_2_1/lstm_6_1/while/merge/_28", "^StatefulPartitionedCall/functional_2_1/lstm_6_1/while/merge/_29", "^StatefulPartitionedCall/functional_2_1/lstm_6_1/while/merge/_30"], "attr": {"_has_manual_control_dependencies": {"b": true}}}, {"name": "StatefulPartitionedCall/functional_2_1/lstm_6_1/while/cond/_11/functional_2_1/lstm_6_1/while/Less_1", "op": "Less", "input": ["StatefulPartitionedCall/functional_2_1/lstm_6_1/while/merge/_24", "StatefulPartitionedCall/functional_2_1/lstm_6_1/while/merge/_25", "^Func/StatefulPartitionedCall/functional_2_1/lstm_6_1/while/cond/_11/input_control_node/_99"], "attr": {"T": {"type": "DT_INT32"}}}, {"name": "StatefulPartitionedCall/functional_2_1/lstm_6_1/while/cond/_11/functional_2_1/lstm_6_1/while/Less/y", "op": "Const", "input": ["^Func/StatefulPartitionedCall/functional_2_1/lstm_6_1/while/cond/_11/input_control_node/_99"], "attr": {"value": {"tensor": {"dtype": "DT_INT32", "tensorShape": {}}}, "dtype": {"type": "DT_INT32"}}}, {"name": "StatefulPartitionedCall/functional_2_1/lstm_6_1/while/cond/_11/functional_2_1/lstm_6_1/while/Less", "op": "Less", "input": ["StatefulPartitionedCall/functional_2_1/lstm_6_1/while/merge/_26", "StatefulPartitionedCall/functional_2_1/lstm_6_1/while/cond/_11/functional_2_1/lstm_6_1/while/Less/y"], "attr": {"T": {"type": "DT_INT32"}}}, {"name": "StatefulPartitionedCall/functional_2_1/lstm_6_1/while/cond/_11/functional_2_1/lstm_6_1/while/LogicalAnd", "op": "LogicalAnd", "input": ["StatefulPartitionedCall/functional_2_1/lstm_6_1/while/cond/_11/functional_2_1/lstm_6_1/while/Less_1", "StatefulPartitionedCall/functional_2_1/lstm_6_1/while/cond/_11/functional_2_1/lstm_6_1/while/Less"]}, {"name": "StatefulPartitionedCall/functional_2_1/lstm_6_1/while/LoopCond/_31", "op": "LoopCond", "input": ["StatefulPartitionedCall/functional_2_1/lstm_6_1/while/cond/_11/functional_2_1/lstm_6_1/while/LogicalAnd"]}, {"name": "StatefulPartitionedCall/functional_2_1/lstm_6_1/while/StatefulPartitionedCall/functional_2_1/lstm_6_1/Max_switch/_33", "op": "Switch", "input": ["StatefulPartitionedCall/functional_2_1/lstm_6_1/while/merge/_25", "StatefulPartitionedCall/functional_2_1/lstm_6_1/while/LoopCond/_31"], "attr": {"_has_manual_control_dependencies": {"b": true}, "T": {"type": "DT_INT32"}}}, {"name": "StatefulPartitionedCall/functional_2_1/lstm_6_1/while/StatefulPartitionedCall/functional_2_1/lstm_6_1/while/loop_counter_switch/_32", "op": "Switch", "input": ["StatefulPartitionedCall/functional_2_1/lstm_6_1/while/merge/_24", "StatefulPartitionedCall/functional_2_1/lstm_6_1/while/LoopCond/_31"], "attr": {"T": {"type": "DT_INT32"}}}, {"name": "StatefulPartitionedCall/functional_2_1/lstm_6_1/while/StatefulPartitionedCall/functional_2_1/lstm_6_1/zeros_1_switch/_37", "op": "Switch", "input": ["StatefulPartitionedCall/functional_2_1/lstm_6_1/while/merge/_29", "StatefulPartitionedCall/functional_2_1/lstm_6_1/while/LoopCond/_31"], "attr": {"_has_manual_control_dependencies": {"b": true}, "T": {"type": "DT_FLOAT"}}}, {"name": "StatefulPartitionedCall/functional_2_1/lstm_6_1/while/StatefulPartitionedCall/functional_2_1/lstm_6_1/TensorArrayUnstack/TensorListFromTensor_switch/_38", "op": "Switch", "input": ["StatefulPartitionedCall/functional_2_1/lstm_6_1/while/merge/_30", "StatefulPartitionedCall/functional_2_1/lstm_6_1/while/LoopCond/_31"], "attr": {"_has_manual_control_dependencies": {"b": true}, "T": {"type": "DT_VARIANT"}}}, {"name": "StatefulPartitionedCall/functional_2_1/lstm_6_1/while/StatefulPartitionedCall/functional_2_1/lstm_6_1/time_switch/_34", "op": "Switch", "input": ["StatefulPartitionedCall/functional_2_1/lstm_6_1/while/merge/_26", "StatefulPartitionedCall/functional_2_1/lstm_6_1/while/LoopCond/_31"], "attr": {"_has_manual_control_dependencies": {"b": true}, "T": {"type": "DT_INT32"}}}, {"name": "StatefulPartitionedCall/functional_2_1/lstm_6_1/while/StatefulPartitionedCall/functional_2_1/lstm_6_1/zeros_switch/_36", "op": "Switch", "input": ["StatefulPartitionedCall/functional_2_1/lstm_6_1/while/merge/_28", "StatefulPartitionedCall/functional_2_1/lstm_6_1/while/LoopCond/_31"], "attr": {"_has_manual_control_dependencies": {"b": true}, "T": {"type": "DT_FLOAT"}}}, {"name": "StatefulPartitionedCall/functional_2_1/lstm_6_1/while/StatefulPartitionedCall/functional_2_1/lstm_6_1/TensorArrayV2_1_switch/_35", "op": "Switch", "input": ["StatefulPartitionedCall/functional_2_1/lstm_6_1/while/merge/_27", "StatefulPartitionedCall/functional_2_1/lstm_6_1/while/LoopCond/_31"], "attr": {"_has_manual_control_dependencies": {"b": true}, "T": {"type": "DT_VARIANT"}}}, {"name": "StatefulPartitionedCall/functional_2_1/lstm_6_1/while/exit/_41", "op": "Exit", "input": ["StatefulPartitionedCall/functional_2_1/lstm_6_1/while/StatefulPartitionedCall/functional_2_1/lstm_6_1/Max_switch/_33"], "attr": {"_has_manual_control_dependencies": {"b": true}, "T": {"type": "DT_INT32"}}}, {"name": "StatefulPartitionedCall/functional_2_1/lstm_6_1/while/exit/_40", "op": "Exit", "input": ["StatefulPartitionedCall/functional_2_1/lstm_6_1/while/StatefulPartitionedCall/functional_2_1/lstm_6_1/while/loop_counter_switch/_32"], "attr": {"_has_manual_control_dependencies": {"b": true}, "T": {"type": "DT_INT32"}}}, {"name": "StatefulPartitionedCall/functional_2_1/lstm_6_1/while/loop_body_control/_39", "op": "Identity", "input": ["StatefulPartitionedCall/functional_2_1/lstm_6_1/while/StatefulPartitionedCall/functional_2_1/lstm_6_1/while/loop_counter_switch/_32:1"], "attr": {"_has_manual_control_dependencies": {"b": true}, "T": {"type": "DT_INT32"}}}, {"name": "StatefulPartitionedCall/functional_2_1/lstm_6_1/while/exit/_45", "op": "Exit", "input": ["StatefulPartitionedCall/functional_2_1/lstm_6_1/while/StatefulPartitionedCall/functional_2_1/lstm_6_1/zeros_1_switch/_37"], "attr": {"_has_manual_control_dependencies": {"b": true}, "T": {"type": "DT_FLOAT"}}}, {"name": "StatefulPartitionedCall/functional_2_1/lstm_6_1/while/exit/_46", "op": "Exit", "input": ["StatefulPartitionedCall/functional_2_1/lstm_6_1/while/StatefulPartitionedCall/functional_2_1/lstm_6_1/TensorArrayUnstack/TensorListFromTensor_switch/_38"], "attr": {"_has_manual_control_dependencies": {"b": true}, "T": {"type": "DT_VARIANT"}}}, {"name": "StatefulPartitionedCall/functional_2_1/lstm_6_1/while/exit/_42", "op": "Exit", "input": ["StatefulPartitionedCall/functional_2_1/lstm_6_1/while/StatefulPartitionedCall/functional_2_1/lstm_6_1/time_switch/_34"], "attr": {"_has_manual_control_dependencies": {"b": true}, "T": {"type": "DT_INT32"}}}, {"name": "StatefulPartitionedCall/functional_2_1/lstm_6_1/while/exit/_44", "op": "Exit", "input": ["StatefulPartitionedCall/functional_2_1/lstm_6_1/while/StatefulPartitionedCall/functional_2_1/lstm_6_1/zeros_switch/_36"], "attr": {"_has_manual_control_dependencies": {"b": true}, "T": {"type": "DT_FLOAT"}}}, {"name": "StatefulPartitionedCall/functional_2_1/lstm_6_1/while/exit/_43", "op": "Exit", "input": ["StatefulPartitionedCall/functional_2_1/lstm_6_1/while/StatefulPartitionedCall/functional_2_1/lstm_6_1/TensorArrayV2_1_switch/_35"], "attr": {"_has_manual_control_dependencies": {"b": true}, "T": {"type": "DT_VARIANT"}}}, {"name": "Func/StatefulPartitionedCall/functional_2_1/lstm_6_1/while/body/_12/input_control_node/_111", "op": "NoOp", "input": ["^StatefulPartitionedCall/functional_2_1/lstm_6_1/while/StatefulPartitionedCall/functional_2_1/lstm_6_1/Max_switch/_33", "^StatefulPartitionedCall/functional_2_1/lstm_6_1/while/StatefulPartitionedCall/functional_2_1/lstm_6_1/TensorArrayUnstack/TensorListFromTensor_switch/_38", "^StatefulPartitionedCall/functional_2_1/lstm_6_1/while/StatefulPartitionedCall/functional_2_1/lstm_6_1/TensorArrayV2_1_switch/_35", "^StatefulPartitionedCall/functional_2_1/lstm_6_1/while/StatefulPartitionedCall/functional_2_1/lstm_6_1/time_switch/_34", "^StatefulPartitionedCall/functional_2_1/lstm_6_1/while/loop_body_control/_39", "^StatefulPartitionedCall/functional_2_1/lstm_6_1/while/StatefulPartitionedCall/functional_2_1/lstm_6_1/zeros_1_switch/_37", "^StatefulPartitionedCall/functional_2_1/lstm_6_1/while/StatefulPartitionedCall/functional_2_1/lstm_6_1/zeros_switch/_36", "^StatefulPartitionedCall/functional_2_1/lstm_6_1/while/enter/_20", "^StatefulPartitionedCall/functional_2_1/lstm_6_1/while/enter/_21", "^StatefulPartitionedCall/functional_2_1/lstm_6_1/while/enter/_22"], "attr": {"_has_manual_control_dependencies": {"b": true}}}, {"name": "StatefulPartitionedCall/functional_2_1/lstm_6_1/TensorArrayV2Stack/TensorListStack", "op": "TensorListStack", "input": ["StatefulPartitionedCall/functional_2_1/lstm_6_1/while/exit/_43", "StatefulPartitionedCall/functional_2_1/lstm_6_1/TensorArrayV2Stack/TensorListStack/element_shape"], "attr": {"num_elements": {"i": "1"}, "element_dtype": {"type": "DT_FLOAT"}}}, {"name": "StatefulPartitionedCall/functional_2_1/lstm_6_1/while/body/_12/functional_2_1/lstm_6_1/while/TensorArrayV2Write/TensorListSetItem/index", "op": "Const", "input": ["^Func/StatefulPartitionedCall/functional_2_1/lstm_6_1/while/body/_12/input_control_node/_111"], "attr": {"value": {"tensor": {"dtype": "DT_INT32", "tensorShape": {}}}, "dtype": {"type": "DT_INT32"}}}, {"name": "StatefulPartitionedCall/functional_2_1/lstm_6_1/while/body/_12/functional_2_1/lstm_6_1/while/add_1/y", "op": "Const", "input": ["^Func/StatefulPartitionedCall/functional_2_1/lstm_6_1/while/body/_12/input_control_node/_111"], "attr": {"value": {"tensor": {"dtype": "DT_INT32", "tensorShape": {}}}, "dtype": {"type": "DT_INT32"}}}, {"name": "StatefulPartitionedCall/functional_2_1/lstm_6_1/while/body/_12/functional_2_1/lstm_6_1/while/lstm_cell_1/split/split_dim", "op": "Const", "input": ["^Func/StatefulPartitionedCall/functional_2_1/lstm_6_1/while/body/_12/input_control_node/_111"], "attr": {"value": {"tensor": {"dtype": "DT_INT32", "tensorShape": {}}}, "dtype": {"type": "DT_INT32"}}}, {"name": "StatefulPartitionedCall/functional_2_1/lstm_6_1/while/body/_12/functional_2_1/lstm_6_1/while/add/y", "op": "Const", "input": ["^Func/StatefulPartitionedCall/functional_2_1/lstm_6_1/while/body/_12/input_control_node/_111"], "attr": {"value": {"tensor": {"dtype": "DT_INT32", "tensorShape": {}}}, "dtype": {"type": "DT_INT32"}}}, {"name": "StatefulPartitionedCall/functional_2_1/lstm_6_1/while/body/_12/functional_2_1/lstm_6_1/while/TensorArrayV2Read/TensorListGetItem/element_shape", "op": "Const", "input": ["^Func/StatefulPartitionedCall/functional_2_1/lstm_6_1/while/body/_12/input_control_node/_111"], "attr": {"value": {"tensor": {"dtype": "DT_INT32", "tensorShape": {"dim": [{"size": "2"}]}}}, "dtype": {"type": "DT_INT32"}}}, {"name": "StatefulPartitionedCall/functional_2_1/lstm_6_1/while/body/_12/functional_2_1/lstm_6_1/while/lstm_cell_1/Cast/ReadVariableOp", "op": "Const", "input": ["^StatefulPartitionedCall/functional_2_1/lstm_6_1/while/enter/_20", "^Func/StatefulPartitionedCall/functional_2_1/lstm_6_1/while/body/_12/input_control_node/_111"], "attr": {"value": {"tensor": {"dtype": "DT_FLOAT", "tensorShape": {"dim": [{"size": "3"}, {"size": "512"}]}}}, "dtype": {"type": "DT_FLOAT"}}}, {"name": "StatefulPartitionedCall/functional_2_1/lstm_6_1/while/body/_12/functional_2_1/lstm_6_1/while/lstm_cell_1/Cast_1/ReadVariableOp", "op": "Const", "input": ["^StatefulPartitionedCall/functional_2_1/lstm_6_1/while/enter/_21", "^Func/StatefulPartitionedCall/functional_2_1/lstm_6_1/while/body/_12/input_control_node/_111"], "attr": {"value": {"tensor": {"dtype": "DT_FLOAT", "tensorShape": {"dim": [{"size": "128"}, {"size": "512"}]}}}, "dtype": {"type": "DT_FLOAT"}}}, {"name": "StatefulPartitionedCall/functional_2_1/lstm_6_1/while/body/_12/functional_2_1/lstm_6_1/while/lstm_cell_1/add_1/ReadVariableOp", "op": "Const", "input": ["^StatefulPartitionedCall/functional_2_1/lstm_6_1/while/enter/_22", "^Func/StatefulPartitionedCall/functional_2_1/lstm_6_1/while/body/_12/input_control_node/_111"], "attr": {"value": {"tensor": {"dtype": "DT_FLOAT", "tensorShape": {"dim": [{"size": "512"}]}}}, "dtype": {"type": "DT_FLOAT"}}}, {"name": "StatefulPartitionedCall/functional_2_1/lstm_6_1/strided_slice_3", "op": "StridedSlice", "input": ["StatefulPartitionedCall/functional_2_1/lstm_6_1/TensorArrayV2Stack/TensorListStack", "StatefulPartitionedCall/functional_2_1/lstm_6_1/strided_slice_3/stack", "StatefulPartitionedCall/functional_2_1/lstm_6_1/strided_slice_3/stack_1", "StatefulPartitionedCall/functional_2_1/lstm_6_1/strided_slice_3/stack_2"], "attr": {"shrink_axis_mask": {"i": "1"}, "Index": {"type": "DT_INT32"}, "new_axis_mask": {"i": "0"}, "begin_mask": {"i": "0"}, "end_mask": {"i": "0"}, "T": {"type": "DT_FLOAT"}, "ellipsis_mask": {"i": "0"}}}, {"name": "StatefulPartitionedCall/functional_2_1/lstm_6_1/while/body/_12/functional_2_1/lstm_6_1/while/add_1", "op": "AddV2", "input": ["StatefulPartitionedCall/functional_2_1/lstm_6_1/while/StatefulPartitionedCall/functional_2_1/lstm_6_1/while/loop_counter_switch/_32:1", "StatefulPartitionedCall/functional_2_1/lstm_6_1/while/body/_12/functional_2_1/lstm_6_1/while/add_1/y"], "attr": {"T": {"type": "DT_INT32"}}}, {"name": "StatefulPartitionedCall/functional_2_1/lstm_6_1/while/body/_12/functional_2_1/lstm_6_1/while/add", "op": "AddV2", "input": ["StatefulPartitionedCall/functional_2_1/lstm_6_1/while/StatefulPartitionedCall/functional_2_1/lstm_6_1/time_switch/_34:1", "StatefulPartitionedCall/functional_2_1/lstm_6_1/while/body/_12/functional_2_1/lstm_6_1/while/add/y"], "attr": {"T": {"type": "DT_INT32"}}}, {"name": "StatefulPartitionedCall/functional_2_1/lstm_6_1/while/body/_12/functional_2_1/lstm_6_1/while/TensorArrayV2Read/TensorListGetItem", "op": "TensorListGetItem", "input": ["StatefulPartitionedCall/functional_2_1/lstm_6_1/while/StatefulPartitionedCall/functional_2_1/lstm_6_1/TensorArrayUnstack/TensorListFromTensor_switch/_38:1", "StatefulPartitionedCall/functional_2_1/lstm_6_1/while/StatefulPartitionedCall/functional_2_1/lstm_6_1/time_switch/_34:1", "StatefulPartitionedCall/functional_2_1/lstm_6_1/while/body/_12/functional_2_1/lstm_6_1/while/TensorArrayV2Read/TensorListGetItem/element_shape"], "attr": {"element_dtype": {"type": "DT_FLOAT"}}}, {"name": "StatefulPartitionedCall/functional_2_1/lstm_6_1/while/body/_12/functional_2_1/lstm_6_1/while/lstm_cell_1/MatMul_1", "op": "MatMul", "input": ["StatefulPartitionedCall/functional_2_1/lstm_6_1/while/StatefulPartitionedCall/functional_2_1/lstm_6_1/zeros_switch/_36:1", "StatefulPartitionedCall/functional_2_1/lstm_6_1/while/body/_12/functional_2_1/lstm_6_1/while/lstm_cell_1/Cast_1/ReadVariableOp"], "device": "/device:CPU:0", "attr": {"grad_a": {"b": false}, "transpose_a": {"b": false}, "T": {"type": "DT_FLOAT"}, "grad_b": {"b": false}, "transpose_b": {"b": false}}}, {"name": "Func/StatefulPartitionedCall/functional_2_1/lstm_6_1/while/body/_12/output_control_node/_132", "op": "NoOp", "input": ["^StatefulPartitionedCall/functional_2_1/lstm_6_1/while/body/_12/functional_2_1/lstm_6_1/while/lstm_cell_1/Cast/ReadVariableOp", "^StatefulPartitionedCall/functional_2_1/lstm_6_1/while/body/_12/functional_2_1/lstm_6_1/while/lstm_cell_1/Cast_1/ReadVariableOp", "^StatefulPartitionedCall/functional_2_1/lstm_6_1/while/body/_12/functional_2_1/lstm_6_1/while/lstm_cell_1/add_1/ReadVariableOp"], "attr": {"_has_manual_control_dependencies": {"b": true}}}, {"name": "StatefulPartitionedCall/functional_2_1/lstm_6_1/while/body/_12/functional_2_1/lstm_6_1/while/NoOp", "op": "NoOp", "input": ["^StatefulPartitionedCall/functional_2_1/lstm_6_1/while/body/_12/functional_2_1/lstm_6_1/while/lstm_cell_1/Cast/ReadVariableOp", "^StatefulPartitionedCall/functional_2_1/lstm_6_1/while/body/_12/functional_2_1/lstm_6_1/while/lstm_cell_1/Cast_1/ReadVariableOp", "^StatefulPartitionedCall/functional_2_1/lstm_6_1/while/body/_12/functional_2_1/lstm_6_1/while/lstm_cell_1/add_1/ReadVariableOp"], "attr": {"_has_manual_control_dependencies": {"b": true}}}, {"name": "StatefulPartitionedCall/functional_2_1/repeat_vector_3_1/Shape", "op": "Shape", "input": ["StatefulPartitionedCall/functional_2_1/lstm_6_1/strided_slice_3"], "attr": {"T": {"type": "DT_FLOAT"}, "out_type": {"type": "DT_INT32"}}, "experimentalType": {"typeId": "TFT_PRODUCT", "args": [{"typeId": "TFT_SHAPE_TENSOR", "args": [{"typeId": "TFT_INT32"}]}]}}, {"name": "StatefulPartitionedCall/functional_2_1/lstm_6_1/while/body/_12/functional_2_1/lstm_6_1/while/lstm_cell_1/add", "op": "AddV2", "input": ["StatefulPartitionedCall/functional_2_1/lstm_6_1/while/body/_12/functional_2_1/lstm_6_1/while/lstm_cell_1/add_1/ReadVariableOp", "StatefulPartitionedCall/functional_2_1/lstm_6_1/while/body/_12/functional_2_1/lstm_6_1/while/lstm_cell_1/MatMul_1"], "attr": {"T": {"type": "DT_FLOAT"}}}, {"name": "StatefulPartitionedCall/functional_2_1/lstm_6_1/while/next_iteration/_54", "op": "NextIteration", "input": ["StatefulPartitionedCall/functional_2_1/lstm_6_1/while/StatefulPartitionedCall/functional_2_1/lstm_6_1/TensorArrayUnstack/TensorListFromTensor_switch/_38:1", "^Func/StatefulPartitionedCall/functional_2_1/lstm_6_1/while/body/_12/output_control_node/_132", "^Func/StatefulPartitionedCall/functional_2_1/lstm_6_1/while/body/_12/input_control_node/_111"], "attr": {"T": {"type": "DT_VARIANT"}}}, {"name": "StatefulPartitionedCall/functional_2_1/lstm_6_1/while/next_iteration/_49", "op": "NextIteration", "input": ["StatefulPartitionedCall/functional_2_1/lstm_6_1/while/StatefulPartitionedCall/functional_2_1/lstm_6_1/Max_switch/_33:1", "^Func/StatefulPartitionedCall/functional_2_1/lstm_6_1/while/body/_12/output_control_node/_132", "^StatefulPartitionedCall/functional_2_1/lstm_6_1/while/body/_12/functional_2_1/lstm_6_1/while/NoOp", "^Func/StatefulPartitionedCall/functional_2_1/lstm_6_1/while/body/_12/input_control_node/_111"], "attr": {"T": {"type": "DT_INT32"}}}, {"name": "StatefulPartitionedCall/functional_2_1/lstm_6_1/while/next_iteration/_48", "op": "NextIteration", "input": ["StatefulPartitionedCall/functional_2_1/lstm_6_1/while/body/_12/functional_2_1/lstm_6_1/while/add_1", "^Func/StatefulPartitionedCall/functional_2_1/lstm_6_1/while/body/_12/output_control_node/_132", "^StatefulPartitionedCall/functional_2_1/lstm_6_1/while/body/_12/functional_2_1/lstm_6_1/while/NoOp"], "attr": {"T": {"type": "DT_INT32"}}}, {"name": "StatefulPartitionedCall/functional_2_1/lstm_6_1/while/next_iteration/_50", "op": "NextIteration", "input": ["StatefulPartitionedCall/functional_2_1/lstm_6_1/while/body/_12/functional_2_1/lstm_6_1/while/add", "^Func/StatefulPartitionedCall/functional_2_1/lstm_6_1/while/body/_12/output_control_node/_132", "^StatefulPartitionedCall/functional_2_1/lstm_6_1/while/body/_12/functional_2_1/lstm_6_1/while/NoOp"], "attr": {"T": {"type": "DT_INT32"}}}, {"name": "StatefulPartitionedCall/functional_2_1/repeat_vector_3_1/strided_slice", "op": "StridedSlice", "input": ["StatefulPartitionedCall/functional_2_1/repeat_vector_3_1/Shape", "StatefulPartitionedCall/functional_2_1/repeat_vector_3_1/strided_slice/stack", "StatefulPartitionedCall/functional_2_1/repeat_vector_3_1/strided_slice/stack_1", "StatefulPartitionedCall/functional_2_1/repeat_vector_3_1/strided_slice/stack_2"], "attr": {"shrink_axis_mask": {"i": "1"}, "new_axis_mask": {"i": "0"}, "Index": {"type": "DT_INT32"}, "begin_mask": {"i": "0"}, "end_mask": {"i": "0"}, "T": {"type": "DT_INT32"}, "ellipsis_mask": {"i": "0"}}}, {"name": "StatefulPartitionedCall/functional_2_1/lstm_6_1/while/body/_12/functional_2_1/lstm_6_1/while/lstm_cell_1/add_1", "op": "_FusedMatMul", "input": ["StatefulPartitionedCall/functional_2_1/lstm_6_1/while/body/_12/functional_2_1/lstm_6_1/while/TensorArrayV2Read/TensorListGetItem", "StatefulPartitionedCall/functional_2_1/lstm_6_1/while/body/_12/functional_2_1/lstm_6_1/while/lstm_cell_1/Cast/ReadVariableOp", "StatefulPartitionedCall/functional_2_1/lstm_6_1/while/body/_12/functional_2_1/lstm_6_1/while/lstm_cell_1/add"], "device": "/device:CPU:0", "attr": {"transpose_a": {"b": false}, "transpose_b": {"b": false}, "fused_ops": {"list": {"s": ["Qmlhc0FkZA=="]}}, "num_args": {"i": "1"}, "leakyrelu_alpha": {"f": 0.2}, "epsilon": {"f": 0.0}, "T": {"type": "DT_FLOAT"}}}, {"name": "StatefulPartitionedCall/functional_2_1/repeat_vector_3_1/Reshape/shape", "op": "Pack", "input": ["StatefulPartitionedCall/functional_2_1/repeat_vector_3_1/strided_slice", "StatefulPartitionedCall/functional_2_1/repeat_vector_3_1/Reshape/shape/1", "StatefulPartitionedCall/functional_2_1/repeat_vector_3_1/Reshape/shape/2"], "attr": {"N": {"i": "3"}, "axis": {"i": "0"}, "T": {"type": "DT_INT32"}}}, {"name": "StatefulPartitionedCall/functional_2_1/lstm_6_1/while/body/_12/functional_2_1/lstm_6_1/while/lstm_cell_1/split", "op": "Split", "input": ["StatefulPartitionedCall/functional_2_1/lstm_6_1/while/body/_12/functional_2_1/lstm_6_1/while/lstm_cell_1/split/split_dim", "StatefulPartitionedCall/functional_2_1/lstm_6_1/while/body/_12/functional_2_1/lstm_6_1/while/lstm_cell_1/add_1"], "attr": {"num_split": {"i": "4"}, "T": {"type": "DT_FLOAT"}}}, {"name": "StatefulPartitionedCall/functional_2_1/repeat_vector_3_1/Reshape", "op": "Reshape", "input": ["StatefulPartitionedCall/functional_2_1/lstm_6_1/strided_slice_3", "StatefulPartitionedCall/functional_2_1/repeat_vector_3_1/Reshape/shape"], "attr": {"T": {"type": "DT_FLOAT"}, "Tshape": {"type": "DT_INT32"}}}, {"name": "StatefulPartitionedCall/functional_2_1/lstm_6_1/while/body/_12/functional_2_1/lstm_6_1/while/lstm_cell_1/Sigmoid", "op": "Sigmoid", "input": ["StatefulPartitionedCall/functional_2_1/lstm_6_1/while/body/_12/functional_2_1/lstm_6_1/while/lstm_cell_1/split"], "attr": {"T": {"type": "DT_FLOAT"}}}, {"name": "StatefulPartitionedCall/functional_2_1/lstm_6_1/while/body/_12/functional_2_1/lstm_6_1/while/lstm_cell_1/Sigmoid_1", "op": "Sigmoid", "input": ["StatefulPartitionedCall/functional_2_1/lstm_6_1/while/body/_12/functional_2_1/lstm_6_1/while/lstm_cell_1/split:1"], "attr": {"T": {"type": "DT_FLOAT"}}}, {"name": "StatefulPartitionedCall/functional_2_1/lstm_6_1/while/body/_12/functional_2_1/lstm_6_1/while/lstm_cell_1/Relu", "op": "Relu", "input": ["StatefulPartitionedCall/functional_2_1/lstm_6_1/while/body/_12/functional_2_1/lstm_6_1/while/lstm_cell_1/split:2"], "attr": {"T": {"type": "DT_FLOAT"}}}, {"name": "StatefulPartitionedCall/functional_2_1/lstm_6_1/while/body/_12/functional_2_1/lstm_6_1/while/lstm_cell_1/Sigmoid_2", "op": "Sigmoid", "input": ["StatefulPartitionedCall/functional_2_1/lstm_6_1/while/body/_12/functional_2_1/lstm_6_1/while/lstm_cell_1/split:3"], "attr": {"T": {"type": "DT_FLOAT"}}}, {"name": "StatefulPartitionedCall/functional_2_1/repeat_vector_3_1/Repeat/ExpandDims", "op": "ExpandDims", "input": ["StatefulPartitionedCall/functional_2_1/repeat_vector_3_1/Reshape", "StatefulPartitionedCall/functional_2_1/repeat_vector_3_1/Repeat/ExpandDims/dim"], "attr": {"Tdim": {"type": "DT_INT32"}, "T": {"type": "DT_FLOAT"}}}, {"name": "StatefulPartitionedCall/functional_2_1/repeat_vector_3_1/Repeat/Shape", "op": "Shape", "input": ["StatefulPartitionedCall/functional_2_1/repeat_vector_3_1/Reshape"], "attr": {"T": {"type": "DT_FLOAT"}, "out_type": {"type": "DT_INT32"}}, "experimentalType": {"typeId": "TFT_PRODUCT", "args": [{"typeId": "TFT_SHAPE_TENSOR", "args": [{"typeId": "TFT_INT32"}]}]}}, {"name": "StatefulPartitionedCall/functional_2_1/lstm_6_1/while/body/_12/functional_2_1/lstm_6_1/while/lstm_cell_1/mul", "op": "Mul", "input": ["StatefulPartitionedCall/functional_2_1/lstm_6_1/while/body/_12/functional_2_1/lstm_6_1/while/lstm_cell_1/Sigmoid_1", "StatefulPartitionedCall/functional_2_1/lstm_6_1/while/StatefulPartitionedCall/functional_2_1/lstm_6_1/zeros_1_switch/_37:1"], "attr": {"T": {"type": "DT_FLOAT"}}}, {"name": "StatefulPartitionedCall/functional_2_1/lstm_6_1/while/body/_12/functional_2_1/lstm_6_1/while/lstm_cell_1/mul_1", "op": "Mul", "input": ["StatefulPartitionedCall/functional_2_1/lstm_6_1/while/body/_12/functional_2_1/lstm_6_1/while/lstm_cell_1/Sigmoid", "StatefulPartitionedCall/functional_2_1/lstm_6_1/while/body/_12/functional_2_1/lstm_6_1/while/lstm_cell_1/Relu"], "attr": {"T": {"type": "DT_FLOAT"}}}, {"name": "StatefulPartitionedCall/functional_2_1/repeat_vector_3_1/Repeat/Tile", "op": "Tile", "input": ["StatefulPartitionedCall/functional_2_1/repeat_vector_3_1/Repeat/ExpandDims", "StatefulPartitionedCall/functional_2_1/repeat_vector_3_1/Repeat/Tile/multiples"], "attr": {"T": {"type": "DT_FLOAT"}, "Tmultiples": {"type": "DT_INT32"}}}, {"name": "StatefulPartitionedCall/functional_2_1/repeat_vector_3_1/Repeat/strided_slice", "op": "StridedSlice", "input": ["StatefulPartitionedCall/functional_2_1/repeat_vector_3_1/Repeat/Shape", "StatefulPartitionedCall/functional_2_1/repeat_vector_3_1/Repeat/strided_slice/stack", "StatefulPartitionedCall/functional_2_1/repeat_vector_3_1/Repeat/strided_slice/stack_1", "StatefulPartitionedCall/functional_2_1/repeat_vector_3_1/Repeat/strided_slice/stack_2"], "attr": {"shrink_axis_mask": {"i": "0"}, "new_axis_mask": {"i": "0"}, "Index": {"type": "DT_INT32"}, "begin_mask": {"i": "1"}, "end_mask": {"i": "0"}, "T": {"type": "DT_INT32"}, "ellipsis_mask": {"i": "0"}}}, {"name": "StatefulPartitionedCall/functional_2_1/repeat_vector_3_1/Repeat/strided_slice_1", "op": "StridedSlice", "input": ["StatefulPartitionedCall/functional_2_1/repeat_vector_3_1/Repeat/Shape", "StatefulPartitionedCall/functional_2_1/repeat_vector_3_1/Repeat/strided_slice_1/stack", "StatefulPartitionedCall/functional_2_1/repeat_vector_3_1/Repeat/strided_slice_1/stack_1", "StatefulPartitionedCall/functional_2_1/repeat_vector_3_1/Repeat/strided_slice_1/stack_2"], "attr": {"shrink_axis_mask": {"i": "1"}, "new_axis_mask": {"i": "0"}, "Index": {"type": "DT_INT32"}, "begin_mask": {"i": "0"}, "end_mask": {"i": "0"}, "T": {"type": "DT_INT32"}, "ellipsis_mask": {"i": "0"}}}, {"name": "StatefulPartitionedCall/functional_2_1/repeat_vector_3_1/Repeat/strided_slice_2", "op": "StridedSlice", "input": ["StatefulPartitionedCall/functional_2_1/repeat_vector_3_1/Repeat/Shape", "StatefulPartitionedCall/functional_2_1/repeat_vector_3_1/Repeat/strided_slice_2/stack", "StatefulPartitionedCall/functional_2_1/repeat_vector_3_1/Repeat/strided_slice_2/stack_1", "StatefulPartitionedCall/functional_2_1/repeat_vector_3_1/Repeat/strided_slice_2/stack_2"], "attr": {"shrink_axis_mask": {"i": "0"}, "new_axis_mask": {"i": "0"}, "Index": {"type": "DT_INT32"}, "begin_mask": {"i": "0"}, "end_mask": {"i": "1"}, "T": {"type": "DT_INT32"}, "ellipsis_mask": {"i": "0"}}}, {"name": "StatefulPartitionedCall/functional_2_1/lstm_6_1/while/body/_12/functional_2_1/lstm_6_1/while/lstm_cell_1/add_2", "op": "AddV2", "input": ["StatefulPartitionedCall/functional_2_1/lstm_6_1/while/body/_12/functional_2_1/lstm_6_1/while/lstm_cell_1/mul", "StatefulPartitionedCall/functional_2_1/lstm_6_1/while/body/_12/functional_2_1/lstm_6_1/while/lstm_cell_1/mul_1"], "attr": {"T": {"type": "DT_FLOAT"}}}, {"name": "StatefulPartitionedCall/functional_2_1/repeat_vector_3_1/Repeat/mul", "op": "Mul", "input": ["StatefulPartitionedCall/functional_2_1/repeat_vector_3_1/Repeat/Reshape", "StatefulPartitionedCall/functional_2_1/repeat_vector_3_1/Repeat/strided_slice_1"], "attr": {"T": {"type": "DT_INT32"}}}, {"name": "StatefulPartitionedCall/functional_2_1/lstm_6_1/while/body/_12/functional_2_1/lstm_6_1/while/lstm_cell_1/Relu_1", "op": "Relu", "input": ["StatefulPartitionedCall/functional_2_1/lstm_6_1/while/body/_12/functional_2_1/lstm_6_1/while/lstm_cell_1/add_2"], "attr": {"T": {"type": "DT_FLOAT"}}}, {"name": "StatefulPartitionedCall/functional_2_1/lstm_6_1/while/next_iteration/_53", "op": "NextIteration", "input": ["StatefulPartitionedCall/functional_2_1/lstm_6_1/while/body/_12/functional_2_1/lstm_6_1/while/lstm_cell_1/add_2", "^Func/StatefulPartitionedCall/functional_2_1/lstm_6_1/while/body/_12/output_control_node/_132", "^StatefulPartitionedCall/functional_2_1/lstm_6_1/while/body/_12/functional_2_1/lstm_6_1/while/NoOp"], "attr": {"T": {"type": "DT_FLOAT"}}}, {"name": "ConstantFolding/StatefulPartitionedCall/functional_2_1/repeat_vector_3_1/Repeat/concat/values_1_const_axis", "op": "Const", "input": ["^StatefulPartitionedCall/functional_2_1/repeat_vector_3_1/Repeat/mul"], "attr": {"value": {"tensor": {"dtype": "DT_INT32", "tensorShape": {}}}, "dtype": {"type": "DT_INT32"}}}, {"name": "StatefulPartitionedCall/functional_2_1/lstm_6_1/while/body/_12/functional_2_1/lstm_6_1/while/lstm_cell_1/mul_2", "op": "Mul", "input": ["StatefulPartitionedCall/functional_2_1/lstm_6_1/while/body/_12/functional_2_1/lstm_6_1/while/lstm_cell_1/Sigmoid_2", "StatefulPartitionedCall/functional_2_1/lstm_6_1/while/body/_12/functional_2_1/lstm_6_1/while/lstm_cell_1/Relu_1"], "attr": {"T": {"type": "DT_FLOAT"}}}, {"name": "StatefulPartitionedCall/functional_2_1/repeat_vector_3_1/Repeat/concat/values_1", "op": "ExpandDims", "input": ["StatefulPartitionedCall/functional_2_1/repeat_vector_3_1/Repeat/mul", "ConstantFolding/StatefulPartitionedCall/functional_2_1/repeat_vector_3_1/Repeat/concat/values_1_const_axis"], "attr": {"Tdim": {"type": "DT_INT32"}, "T": {"type": "DT_INT32"}}}, {"name": "StatefulPartitionedCall/functional_2_1/lstm_6_1/while/body/_12/functional_2_1/lstm_6_1/while/TensorArrayV2Write/TensorListSetItem", "op": "TensorListSetItem", "input": ["StatefulPartitionedCall/functional_2_1/lstm_6_1/while/StatefulPartitionedCall/functional_2_1/lstm_6_1/TensorArrayV2_1_switch/_35:1", "StatefulPartitionedCall/functional_2_1/lstm_6_1/while/body/_12/functional_2_1/lstm_6_1/while/TensorArrayV2Write/TensorListSetItem/index", "StatefulPartitionedCall/functional_2_1/lstm_6_1/while/body/_12/functional_2_1/lstm_6_1/while/lstm_cell_1/mul_2"], "attr": {"element_dtype": {"type": "DT_FLOAT"}, "resize_if_index_out_of_bounds": {"b": false}}, "experimentalType": {"typeId": "TFT_PRODUCT", "args": [{"typeId": "TFT_ARRAY", "args": [{"typeId": "TFT_TENSOR", "args": [{"typeId": "TFT_FLOAT"}]}]}]}}, {"name": "StatefulPartitionedCall/functional_2_1/lstm_6_1/while/next_iteration/_52", "op": "NextIteration", "input": ["StatefulPartitionedCall/functional_2_1/lstm_6_1/while/body/_12/functional_2_1/lstm_6_1/while/lstm_cell_1/mul_2", "^Func/StatefulPartitionedCall/functional_2_1/lstm_6_1/while/body/_12/output_control_node/_132", "^StatefulPartitionedCall/functional_2_1/lstm_6_1/while/body/_12/functional_2_1/lstm_6_1/while/NoOp"], "attr": {"T": {"type": "DT_FLOAT"}}}, {"name": "StatefulPartitionedCall/functional_2_1/repeat_vector_3_1/Repeat/concat", "op": "ConcatV2", "input": ["StatefulPartitionedCall/functional_2_1/repeat_vector_3_1/Repeat/strided_slice", "StatefulPartitionedCall/functional_2_1/repeat_vector_3_1/Repeat/concat/values_1", "StatefulPartitionedCall/functional_2_1/repeat_vector_3_1/Repeat/strided_slice_2", "StatefulPartitionedCall/functional_2_1/repeat_vector_3_1/Repeat/concat/axis"], "attr": {"N": {"i": "3"}, "T": {"type": "DT_INT32"}, "Tidx": {"type": "DT_INT32"}}}, {"name": "StatefulPartitionedCall/functional_2_1/lstm_6_1/while/next_iteration/_51", "op": "NextIteration", "input": ["StatefulPartitionedCall/functional_2_1/lstm_6_1/while/body/_12/functional_2_1/lstm_6_1/while/TensorArrayV2Write/TensorListSetItem", "^Func/StatefulPartitionedCall/functional_2_1/lstm_6_1/while/body/_12/output_control_node/_132", "^StatefulPartitionedCall/functional_2_1/lstm_6_1/while/body/_12/functional_2_1/lstm_6_1/while/NoOp"], "attr": {"T": {"type": "DT_VARIANT"}}}, {"name": "StatefulPartitionedCall/functional_2_1/repeat_vector_3_1/Repeat/Reshape_1", "op": "Reshape", "input": ["StatefulPartitionedCall/functional_2_1/repeat_vector_3_1/Repeat/Tile", "StatefulPartitionedCall/functional_2_1/repeat_vector_3_1/Repeat/concat"], "attr": {"T": {"type": "DT_FLOAT"}, "Tshape": {"type": "DT_INT32"}}}, {"name": "StatefulPartitionedCall/functional_2_1/lstm_7_1/transpose", "op": "Transpose", "input": ["StatefulPartitionedCall/functional_2_1/repeat_vector_3_1/Repeat/Reshape_1", "StatefulPartitionedCall/functional_2_1/lstm_7_1/transpose/perm"], "attr": {"Tperm": {"type": "DT_INT32"}, "T": {"type": "DT_FLOAT"}}}, {"name": "StatefulPartitionedCall/functional_2_1/lstm_7_1/Shape", "op": "Shape", "input": ["StatefulPartitionedCall/functional_2_1/repeat_vector_3_1/Repeat/Reshape_1"], "attr": {"T": {"type": "DT_FLOAT"}, "out_type": {"type": "DT_INT32"}}, "experimentalType": {"typeId": "TFT_PRODUCT", "args": [{"typeId": "TFT_SHAPE_TENSOR", "args": [{"typeId": "TFT_INT32"}]}]}}, {"name": "StatefulPartitionedCall/functional_2_1/lstm_7_1/TensorArrayUnstack/TensorListFromTensor", "op": "TensorListFromTensor", "input": ["StatefulPartitionedCall/functional_2_1/lstm_7_1/transpose", "StatefulPartitionedCall/functional_2_1/lstm_7_1/TensorArrayUnstack/TensorListFromTensor/element_shape"], "attr": {"shape_type": {"type": "DT_INT32"}, "_has_manual_control_dependencies": {"b": true}, "element_dtype": {"type": "DT_FLOAT"}}, "experimentalType": {"typeId": "TFT_PRODUCT", "args": [{"typeId": "TFT_ARRAY", "args": [{"typeId": "TFT_TENSOR", "args": [{"typeId": "TFT_FLOAT"}]}]}]}}, {"name": "StatefulPartitionedCall/functional_2_1/lstm_7_1/strided_slice", "op": "StridedSlice", "input": ["StatefulPartitionedCall/functional_2_1/lstm_7_1/Shape", "StatefulPartitionedCall/functional_2_1/lstm_7_1/strided_slice/stack", "StatefulPartitionedCall/functional_2_1/lstm_7_1/strided_slice/stack_1", "StatefulPartitionedCall/functional_2_1/lstm_7_1/strided_slice/stack_2"], "attr": {"shrink_axis_mask": {"i": "1"}, "Index": {"type": "DT_INT32"}, "new_axis_mask": {"i": "0"}, "begin_mask": {"i": "0"}, "T": {"type": "DT_INT32"}, "end_mask": {"i": "0"}, "ellipsis_mask": {"i": "0"}}}, {"name": "StatefulPartitionedCall/functional_2_1/lstm_7_1/zeros/packed", "op": "Pack", "input": ["StatefulPartitionedCall/functional_2_1/lstm_7_1/strided_slice", "StatefulPartitionedCall/functional_2_1/lstm_7_1/zeros/packed/1"], "attr": {"N": {"i": "2"}, "axis": {"i": "0"}, "T": {"type": "DT_INT32"}}}, {"name": "StatefulPartitionedCall/functional_2_1/lstm_7_1/zeros_1/packed", "op": "Pack", "input": ["StatefulPartitionedCall/functional_2_1/lstm_7_1/strided_slice", "StatefulPartitionedCall/functional_2_1/lstm_7_1/zeros_1/packed/1"], "attr": {"N": {"i": "2"}, "axis": {"i": "0"}, "T": {"type": "DT_INT32"}}}, {"name": "StatefulPartitionedCall/functional_2_1/lstm_7_1/zeros", "op": "Fill", "input": ["StatefulPartitionedCall/functional_2_1/lstm_7_1/zeros/packed", "StatefulPartitionedCall/functional_2_1/lstm_7_1/zeros/Const"], "attr": {"_has_manual_control_dependencies": {"b": true}, "T": {"type": "DT_FLOAT"}, "index_type": {"type": "DT_INT32"}}}, {"name": "StatefulPartitionedCall/functional_2_1/lstm_7_1/zeros_1", "op": "Fill", "input": ["StatefulPartitionedCall/functional_2_1/lstm_7_1/zeros_1/packed", "StatefulPartitionedCall/functional_2_1/lstm_7_1/zeros_1/Const"], "attr": {"_has_manual_control_dependencies": {"b": true}, "T": {"type": "DT_FLOAT"}, "index_type": {"type": "DT_INT32"}}}, {"name": "StatefulPartitionedCall/functional_2_1/lstm_7_1/while/LoopControlInputs/_67", "op": "NoOp", "input": ["^StatefulPartitionedCall/functional_2_1/lstm_7_1/TensorArrayUnstack/TensorListFromTensor", "^StatefulPartitionedCall/functional_2_1/lstm_7_1/TensorArrayV2_1", "^StatefulPartitionedCall/functional_2_1/lstm_7_1/zeros", "^StatefulPartitionedCall/functional_2_1/lstm_7_1/zeros_1"], "attr": {"_has_manual_control_dependencies": {"b": true}}}, {"name": "StatefulPartitionedCall/functional_2_1/lstm_7_1/while/enter/_62", "op": "Enter", "input": ["StatefulPartitionedCall/functional_2_1/lstm_7_1/zeros_1", "^StatefulPartitionedCall/functional_2_1/lstm_7_1/while/LoopControlInputs/_67"], "attr": {"is_constant": {"b": false}, "frame_name": {"s": "U3RhdGVmdWxQYXJ0aXRpb25lZENhbGwvZnVuY3Rpb25hbF8yXzEvbHN0bV83XzEvd2hpbGU="}, "T": {"type": "DT_FLOAT"}, "parallel_iterations": {"i": "32"}}}, {"name": "StatefulPartitionedCall/functional_2_1/lstm_7_1/while/enter/_63", "op": "Enter", "input": ["StatefulPartitionedCall/functional_2_1/lstm_7_1/TensorArrayUnstack/TensorListFromTensor", "^StatefulPartitionedCall/functional_2_1/lstm_7_1/while/LoopControlInputs/_67"], "attr": {"is_constant": {"b": false}, "frame_name": {"s": "U3RhdGVmdWxQYXJ0aXRpb25lZENhbGwvZnVuY3Rpb25hbF8yXzEvbHN0bV83XzEvd2hpbGU="}, "T": {"type": "DT_VARIANT"}, "parallel_iterations": {"i": "32"}}}, {"name": "StatefulPartitionedCall/functional_2_1/lstm_7_1/while/enter/_58", "op": "Enter", "input": ["StatefulPartitionedCall/functional_2_1/lstm_7_1/Max", "^StatefulPartitionedCall/functional_2_1/lstm_7_1/while/LoopControlInputs/_67"], "attr": {"is_constant": {"b": false}, "frame_name": {"s": "U3RhdGVmdWxQYXJ0aXRpb25lZENhbGwvZnVuY3Rpb25hbF8yXzEvbHN0bV83XzEvd2hpbGU="}, "T": {"type": "DT_INT32"}, "parallel_iterations": {"i": "32"}}}, {"name": "StatefulPartitionedCall/functional_2_1/lstm_7_1/while/enter/_60", "op": "Enter", "input": ["StatefulPartitionedCall/functional_2_1/lstm_7_1/TensorArrayV2_1", "^StatefulPartitionedCall/functional_2_1/lstm_7_1/while/LoopControlInputs/_67"], "attr": {"is_constant": {"b": false}, "frame_name": {"s": "U3RhdGVmdWxQYXJ0aXRpb25lZENhbGwvZnVuY3Rpb25hbF8yXzEvbHN0bV83XzEvd2hpbGU="}, "T": {"type": "DT_VARIANT"}, "parallel_iterations": {"i": "32"}}}, {"name": "StatefulPartitionedCall/functional_2_1/lstm_7_1/while/enter/_57", "op": "Enter", "input": ["StatefulPartitionedCall/functional_2_1/lstm_7_1/while/loop_counter", "^StatefulPartitionedCall/functional_2_1/lstm_7_1/while/LoopControlInputs/_67"], "attr": {"is_constant": {"b": false}, "frame_name": {"s": "U3RhdGVmdWxQYXJ0aXRpb25lZENhbGwvZnVuY3Rpb25hbF8yXzEvbHN0bV83XzEvd2hpbGU="}, "T": {"type": "DT_INT32"}, "parallel_iterations": {"i": "32"}}}, {"name": "StatefulPartitionedCall/functional_2_1/lstm_7_1/while/enter/_61", "op": "Enter", "input": ["StatefulPartitionedCall/functional_2_1/lstm_7_1/zeros", "^StatefulPartitionedCall/functional_2_1/lstm_7_1/while/LoopControlInputs/_67"], "attr": {"is_constant": {"b": false}, "frame_name": {"s": "U3RhdGVmdWxQYXJ0aXRpb25lZENhbGwvZnVuY3Rpb25hbF8yXzEvbHN0bV83XzEvd2hpbGU="}, "T": {"type": "DT_FLOAT"}, "parallel_iterations": {"i": "32"}}}, {"name": "StatefulPartitionedCall/functional_2_1/lstm_7_1/while/enter/_59", "op": "Enter", "input": ["StatefulPartitionedCall/functional_2_1/lstm_7_1/time", "^StatefulPartitionedCall/functional_2_1/lstm_7_1/while/LoopControlInputs/_67"], "attr": {"is_constant": {"b": false}, "frame_name": {"s": "U3RhdGVmdWxQYXJ0aXRpb25lZENhbGwvZnVuY3Rpb25hbF8yXzEvbHN0bV83XzEvd2hpbGU="}, "T": {"type": "DT_INT32"}, "parallel_iterations": {"i": "32"}}}, {"name": "StatefulPartitionedCall/functional_2_1/lstm_7_1/while/enter/_64", "op": "Enter", "input": ["Func/StatefulPartitionedCall/input/_4", "^StatefulPartitionedCall/functional_2_1/lstm_7_1/while/LoopControlInputs/_67"], "attr": {"is_constant": {"b": true}, "frame_name": {"s": "U3RhdGVmdWxQYXJ0aXRpb25lZENhbGwvZnVuY3Rpb25hbF8yXzEvbHN0bV83XzEvd2hpbGU="}, "T": {"type": "DT_FLOAT"}, "_has_manual_control_dependencies": {"b": true}, "parallel_iterations": {"i": "32"}}}, {"name": "StatefulPartitionedCall/functional_2_1/lstm_7_1/while/enter/_65", "op": "Enter", "input": ["Func/StatefulPartitionedCall/input/_5", "^StatefulPartitionedCall/functional_2_1/lstm_7_1/while/LoopControlInputs/_67"], "attr": {"is_constant": {"b": true}, "_has_manual_control_dependencies": {"b": true}, "T": {"type": "DT_FLOAT"}, "frame_name": {"s": "U3RhdGVmdWxQYXJ0aXRpb25lZENhbGwvZnVuY3Rpb25hbF8yXzEvbHN0bV83XzEvd2hpbGU="}, "parallel_iterations": {"i": "32"}}}, {"name": "StatefulPartitionedCall/functional_2_1/lstm_7_1/while/enter/_66", "op": "Enter", "input": ["Func/StatefulPartitionedCall/input/_6", "^StatefulPartitionedCall/functional_2_1/lstm_7_1/while/LoopControlInputs/_67"], "attr": {"is_constant": {"b": true}, "_has_manual_control_dependencies": {"b": true}, "T": {"type": "DT_FLOAT"}, "frame_name": {"s": "U3RhdGVmdWxQYXJ0aXRpb25lZENhbGwvZnVuY3Rpb25hbF8yXzEvbHN0bV83XzEvd2hpbGU="}, "parallel_iterations": {"i": "32"}}}, {"name": "StatefulPartitionedCall/functional_2_1/lstm_7_1/while/merge/_73", "op": "Merge", "input": ["StatefulPartitionedCall/functional_2_1/lstm_7_1/while/enter/_62", "StatefulPartitionedCall/functional_2_1/lstm_7_1/while/next_iteration/_97"], "attr": {"N": {"i": "2"}, "_has_manual_control_dependencies": {"b": true}, "T": {"type": "DT_FLOAT"}}}, {"name": "StatefulPartitionedCall/functional_2_1/lstm_7_1/while/merge/_74", "op": "Merge", "input": ["StatefulPartitionedCall/functional_2_1/lstm_7_1/while/enter/_63", "StatefulPartitionedCall/functional_2_1/lstm_7_1/while/next_iteration/_98"], "attr": {"N": {"i": "2"}, "_has_manual_control_dependencies": {"b": true}, "T": {"type": "DT_VARIANT"}}}, {"name": "StatefulPartitionedCall/functional_2_1/lstm_7_1/while/merge/_69", "op": "Merge", "input": ["StatefulPartitionedCall/functional_2_1/lstm_7_1/while/enter/_58", "StatefulPartitionedCall/functional_2_1/lstm_7_1/while/next_iteration/_93"], "attr": {"N": {"i": "2"}, "_has_manual_control_dependencies": {"b": true}, "T": {"type": "DT_INT32"}}}, {"name": "StatefulPartitionedCall/functional_2_1/lstm_7_1/while/merge/_71", "op": "Merge", "input": ["StatefulPartitionedCall/functional_2_1/lstm_7_1/while/enter/_60", "StatefulPartitionedCall/functional_2_1/lstm_7_1/while/next_iteration/_95"], "attr": {"N": {"i": "2"}, "_has_manual_control_dependencies": {"b": true}, "T": {"type": "DT_VARIANT"}}}, {"name": "StatefulPartitionedCall/functional_2_1/lstm_7_1/while/merge/_68", "op": "Merge", "input": ["StatefulPartitionedCall/functional_2_1/lstm_7_1/while/enter/_57", "StatefulPartitionedCall/functional_2_1/lstm_7_1/while/next_iteration/_92"], "attr": {"N": {"i": "2"}, "T": {"type": "DT_INT32"}}}, {"name": "StatefulPartitionedCall/functional_2_1/lstm_7_1/while/merge/_72", "op": "Merge", "input": ["StatefulPartitionedCall/functional_2_1/lstm_7_1/while/enter/_61", "StatefulPartitionedCall/functional_2_1/lstm_7_1/while/next_iteration/_96"], "attr": {"N": {"i": "2"}, "_has_manual_control_dependencies": {"b": true}, "T": {"type": "DT_FLOAT"}}}, {"name": "StatefulPartitionedCall/functional_2_1/lstm_7_1/while/merge/_70", "op": "Merge", "input": ["StatefulPartitionedCall/functional_2_1/lstm_7_1/while/enter/_59", "StatefulPartitionedCall/functional_2_1/lstm_7_1/while/next_iteration/_94"], "attr": {"N": {"i": "2"}, "_has_manual_control_dependencies": {"b": true}, "T": {"type": "DT_INT32"}}}, {"name": "Func/StatefulPartitionedCall/functional_2_1/lstm_7_1/while/cond/_55/input_control_node/_133", "op": "NoOp", "input": ["^StatefulPartitionedCall/functional_2_1/lstm_7_1/while/enter/_64", "^StatefulPartitionedCall/functional_2_1/lstm_7_1/while/enter/_65", "^StatefulPartitionedCall/functional_2_1/lstm_7_1/while/enter/_66", "^StatefulPartitionedCall/functional_2_1/lstm_7_1/while/merge/_68", "^StatefulPartitionedCall/functional_2_1/lstm_7_1/while/merge/_69", "^StatefulPartitionedCall/functional_2_1/lstm_7_1/while/merge/_70", "^StatefulPartitionedCall/functional_2_1/lstm_7_1/while/merge/_71", "^StatefulPartitionedCall/functional_2_1/lstm_7_1/while/merge/_72", "^StatefulPartitionedCall/functional_2_1/lstm_7_1/while/merge/_73", "^StatefulPartitionedCall/functional_2_1/lstm_7_1/while/merge/_74"], "attr": {"_has_manual_control_dependencies": {"b": true}}}, {"name": "StatefulPartitionedCall/functional_2_1/lstm_7_1/while/cond/_55/functional_2_1/lstm_7_1/while/Less_1", "op": "Less", "input": ["StatefulPartitionedCall/functional_2_1/lstm_7_1/while/merge/_68", "StatefulPartitionedCall/functional_2_1/lstm_7_1/while/merge/_69", "^Func/StatefulPartitionedCall/functional_2_1/lstm_7_1/while/cond/_55/input_control_node/_133"], "attr": {"T": {"type": "DT_INT32"}}}, {"name": "StatefulPartitionedCall/functional_2_1/lstm_7_1/while/cond/_55/functional_2_1/lstm_7_1/while/Less/y", "op": "Const", "input": ["^Func/StatefulPartitionedCall/functional_2_1/lstm_7_1/while/cond/_55/input_control_node/_133"], "attr": {"value": {"tensor": {"dtype": "DT_INT32", "tensorShape": {}}}, "dtype": {"type": "DT_INT32"}}}, {"name": "StatefulPartitionedCall/functional_2_1/lstm_7_1/while/cond/_55/functional_2_1/lstm_7_1/while/Less", "op": "Less", "input": ["StatefulPartitionedCall/functional_2_1/lstm_7_1/while/merge/_70", "StatefulPartitionedCall/functional_2_1/lstm_7_1/while/cond/_55/functional_2_1/lstm_7_1/while/Less/y"], "attr": {"T": {"type": "DT_INT32"}}}, {"name": "StatefulPartitionedCall/functional_2_1/lstm_7_1/while/cond/_55/functional_2_1/lstm_7_1/while/LogicalAnd", "op": "LogicalAnd", "input": ["StatefulPartitionedCall/functional_2_1/lstm_7_1/while/cond/_55/functional_2_1/lstm_7_1/while/Less_1", "StatefulPartitionedCall/functional_2_1/lstm_7_1/while/cond/_55/functional_2_1/lstm_7_1/while/Less"]}, {"name": "StatefulPartitionedCall/functional_2_1/lstm_7_1/while/LoopCond/_75", "op": "LoopCond", "input": ["StatefulPartitionedCall/functional_2_1/lstm_7_1/while/cond/_55/functional_2_1/lstm_7_1/while/LogicalAnd"]}, {"name": "StatefulPartitionedCall/functional_2_1/lstm_7_1/while/StatefulPartitionedCall/functional_2_1/lstm_7_1/Max_switch/_77", "op": "Switch", "input": ["StatefulPartitionedCall/functional_2_1/lstm_7_1/while/merge/_69", "StatefulPartitionedCall/functional_2_1/lstm_7_1/while/LoopCond/_75"], "attr": {"_has_manual_control_dependencies": {"b": true}, "T": {"type": "DT_INT32"}}}, {"name": "StatefulPartitionedCall/functional_2_1/lstm_7_1/while/StatefulPartitionedCall/functional_2_1/lstm_7_1/TensorArrayV2_1_switch/_79", "op": "Switch", "input": ["StatefulPartitionedCall/functional_2_1/lstm_7_1/while/merge/_71", "StatefulPartitionedCall/functional_2_1/lstm_7_1/while/LoopCond/_75"], "attr": {"_has_manual_control_dependencies": {"b": true}, "T": {"type": "DT_VARIANT"}}}, {"name": "StatefulPartitionedCall/functional_2_1/lstm_7_1/while/StatefulPartitionedCall/functional_2_1/lstm_7_1/while/loop_counter_switch/_76", "op": "Switch", "input": ["StatefulPartitionedCall/functional_2_1/lstm_7_1/while/merge/_68", "StatefulPartitionedCall/functional_2_1/lstm_7_1/while/LoopCond/_75"], "attr": {"T": {"type": "DT_INT32"}}}, {"name": "StatefulPartitionedCall/functional_2_1/lstm_7_1/while/StatefulPartitionedCall/functional_2_1/lstm_7_1/TensorArrayUnstack/TensorListFromTensor_switch/_82", "op": "Switch", "input": ["StatefulPartitionedCall/functional_2_1/lstm_7_1/while/merge/_74", "StatefulPartitionedCall/functional_2_1/lstm_7_1/while/LoopCond/_75"], "attr": {"_has_manual_control_dependencies": {"b": true}, "T": {"type": "DT_VARIANT"}}}, {"name": "StatefulPartitionedCall/functional_2_1/lstm_7_1/while/StatefulPartitionedCall/functional_2_1/lstm_7_1/time_switch/_78", "op": "Switch", "input": ["StatefulPartitionedCall/functional_2_1/lstm_7_1/while/merge/_70", "StatefulPartitionedCall/functional_2_1/lstm_7_1/while/LoopCond/_75"], "attr": {"_has_manual_control_dependencies": {"b": true}, "T": {"type": "DT_INT32"}}}, {"name": "StatefulPartitionedCall/functional_2_1/lstm_7_1/while/StatefulPartitionedCall/functional_2_1/lstm_7_1/zeros_switch/_80", "op": "Switch", "input": ["StatefulPartitionedCall/functional_2_1/lstm_7_1/while/merge/_72", "StatefulPartitionedCall/functional_2_1/lstm_7_1/while/LoopCond/_75"], "attr": {"_has_manual_control_dependencies": {"b": true}, "T": {"type": "DT_FLOAT"}}}, {"name": "StatefulPartitionedCall/functional_2_1/lstm_7_1/while/StatefulPartitionedCall/functional_2_1/lstm_7_1/zeros_1_switch/_81", "op": "Switch", "input": ["StatefulPartitionedCall/functional_2_1/lstm_7_1/while/merge/_73", "StatefulPartitionedCall/functional_2_1/lstm_7_1/while/LoopCond/_75"], "attr": {"_has_manual_control_dependencies": {"b": true}, "T": {"type": "DT_FLOAT"}}}, {"name": "StatefulPartitionedCall/functional_2_1/lstm_7_1/while/exit/_85", "op": "Exit", "input": ["StatefulPartitionedCall/functional_2_1/lstm_7_1/while/StatefulPartitionedCall/functional_2_1/lstm_7_1/Max_switch/_77"], "attr": {"_has_manual_control_dependencies": {"b": true}, "T": {"type": "DT_INT32"}}}, {"name": "StatefulPartitionedCall/functional_2_1/lstm_7_1/while/exit/_87", "op": "Exit", "input": ["StatefulPartitionedCall/functional_2_1/lstm_7_1/while/StatefulPartitionedCall/functional_2_1/lstm_7_1/TensorArrayV2_1_switch/_79"], "attr": {"_has_manual_control_dependencies": {"b": true}, "T": {"type": "DT_VARIANT"}}}, {"name": "StatefulPartitionedCall/functional_2_1/lstm_7_1/while/exit/_84", "op": "Exit", "input": ["StatefulPartitionedCall/functional_2_1/lstm_7_1/while/StatefulPartitionedCall/functional_2_1/lstm_7_1/while/loop_counter_switch/_76"], "attr": {"_has_manual_control_dependencies": {"b": true}, "T": {"type": "DT_INT32"}}}, {"name": "StatefulPartitionedCall/functional_2_1/lstm_7_1/while/loop_body_control/_83", "op": "Identity", "input": ["StatefulPartitionedCall/functional_2_1/lstm_7_1/while/StatefulPartitionedCall/functional_2_1/lstm_7_1/while/loop_counter_switch/_76:1"], "attr": {"_has_manual_control_dependencies": {"b": true}, "T": {"type": "DT_INT32"}}}, {"name": "StatefulPartitionedCall/functional_2_1/lstm_7_1/while/exit/_90", "op": "Exit", "input": ["StatefulPartitionedCall/functional_2_1/lstm_7_1/while/StatefulPartitionedCall/functional_2_1/lstm_7_1/TensorArrayUnstack/TensorListFromTensor_switch/_82"], "attr": {"_has_manual_control_dependencies": {"b": true}, "T": {"type": "DT_VARIANT"}}}, {"name": "StatefulPartitionedCall/functional_2_1/lstm_7_1/while/exit/_86", "op": "Exit", "input": ["StatefulPartitionedCall/functional_2_1/lstm_7_1/while/StatefulPartitionedCall/functional_2_1/lstm_7_1/time_switch/_78"], "attr": {"_has_manual_control_dependencies": {"b": true}, "T": {"type": "DT_INT32"}}}, {"name": "StatefulPartitionedCall/functional_2_1/lstm_7_1/while/exit/_88", "op": "Exit", "input": ["StatefulPartitionedCall/functional_2_1/lstm_7_1/while/StatefulPartitionedCall/functional_2_1/lstm_7_1/zeros_switch/_80"], "attr": {"_has_manual_control_dependencies": {"b": true}, "T": {"type": "DT_FLOAT"}}}, {"name": "StatefulPartitionedCall/functional_2_1/lstm_7_1/while/exit/_89", "op": "Exit", "input": ["StatefulPartitionedCall/functional_2_1/lstm_7_1/while/StatefulPartitionedCall/functional_2_1/lstm_7_1/zeros_1_switch/_81"], "attr": {"_has_manual_control_dependencies": {"b": true}, "T": {"type": "DT_FLOAT"}}}, {"name": "StatefulPartitionedCall/functional_2_1/lstm_7_1/TensorArrayV2Stack/TensorListStack", "op": "TensorListStack", "input": ["StatefulPartitionedCall/functional_2_1/lstm_7_1/while/exit/_87", "StatefulPartitionedCall/functional_2_1/lstm_7_1/TensorArrayV2Stack/TensorListStack/element_shape"], "attr": {"num_elements": {"i": "50"}, "element_dtype": {"type": "DT_FLOAT"}}}, {"name": "Func/StatefulPartitionedCall/functional_2_1/lstm_7_1/while/body/_56/input_control_node/_145", "op": "NoOp", "input": ["^StatefulPartitionedCall/functional_2_1/lstm_7_1/while/StatefulPartitionedCall/functional_2_1/lstm_7_1/Max_switch/_77", "^StatefulPartitionedCall/functional_2_1/lstm_7_1/while/StatefulPartitionedCall/functional_2_1/lstm_7_1/TensorArrayUnstack/TensorListFromTensor_switch/_82", "^StatefulPartitionedCall/functional_2_1/lstm_7_1/while/StatefulPartitionedCall/functional_2_1/lstm_7_1/TensorArrayV2_1_switch/_79", "^StatefulPartitionedCall/functional_2_1/lstm_7_1/while/StatefulPartitionedCall/functional_2_1/lstm_7_1/time_switch/_78", "^StatefulPartitionedCall/functional_2_1/lstm_7_1/while/loop_body_control/_83", "^StatefulPartitionedCall/functional_2_1/lstm_7_1/while/StatefulPartitionedCall/functional_2_1/lstm_7_1/zeros_1_switch/_81", "^StatefulPartitionedCall/functional_2_1/lstm_7_1/while/StatefulPartitionedCall/functional_2_1/lstm_7_1/zeros_switch/_80", "^StatefulPartitionedCall/functional_2_1/lstm_7_1/while/enter/_64", "^StatefulPartitionedCall/functional_2_1/lstm_7_1/while/enter/_65", "^StatefulPartitionedCall/functional_2_1/lstm_7_1/while/enter/_66"], "attr": {"_has_manual_control_dependencies": {"b": true}}}, {"name": "StatefulPartitionedCall/functional_2_1/time_distributed_1_1/strided_slice_1", "op": "StridedSlice", "input": ["StatefulPartitionedCall/functional_2_1/lstm_7_1/TensorArrayV2Stack/TensorListStack", "StatefulPartitionedCall/functional_2_1/time_distributed_1_1/strided_slice_1/stack", "StatefulPartitionedCall/functional_2_1/time_distributed_1_1/strided_slice_1/stack_1", "StatefulPartitionedCall/functional_2_1/time_distributed_1_1/strided_slice_1/stack_2"], "attr": {"shrink_axis_mask": {"i": "1"}, "new_axis_mask": {"i": "0"}, "Index": {"type": "DT_INT32"}, "begin_mask": {"i": "0"}, "T": {"type": "DT_FLOAT"}, "end_mask": {"i": "0"}, "ellipsis_mask": {"i": "0"}}}, {"name": "StatefulPartitionedCall/functional_2_1/time_distributed_1_1/strided_slice_2", "op": "StridedSlice", "input": ["StatefulPartitionedCall/functional_2_1/lstm_7_1/TensorArrayV2Stack/TensorListStack", "StatefulPartitionedCall/functional_2_1/time_distributed_1_1/strided_slice_2/stack", "StatefulPartitionedCall/functional_2_1/time_distributed_1_1/strided_slice_2/stack_1", "StatefulPartitionedCall/functional_2_1/time_distributed_1_1/strided_slice_2/stack_2"], "attr": {"shrink_axis_mask": {"i": "1"}, "Index": {"type": "DT_INT32"}, "new_axis_mask": {"i": "0"}, "begin_mask": {"i": "0"}, "end_mask": {"i": "0"}, "T": {"type": "DT_FLOAT"}, "ellipsis_mask": {"i": "0"}}}, {"name": "StatefulPartitionedCall/functional_2_1/time_distributed_1_1/strided_slice_3", "op": "StridedSlice", "input": ["StatefulPartitionedCall/functional_2_1/lstm_7_1/TensorArrayV2Stack/TensorListStack", "StatefulPartitionedCall/functional_2_1/time_distributed_1_1/strided_slice_3/stack", "StatefulPartitionedCall/functional_2_1/time_distributed_1_1/strided_slice_3/stack_1", "StatefulPartitionedCall/functional_2_1/time_distributed_1_1/strided_slice_3/stack_2"], "attr": {"shrink_axis_mask": {"i": "1"}, "new_axis_mask": {"i": "0"}, "Index": {"type": "DT_INT32"}, "begin_mask": {"i": "0"}, "end_mask": {"i": "0"}, "T": {"type": "DT_FLOAT"}, "ellipsis_mask": {"i": "0"}}}, {"name": "StatefulPartitionedCall/functional_2_1/time_distributed_1_1/strided_slice_4", "op": "StridedSlice", "input": ["StatefulPartitionedCall/functional_2_1/lstm_7_1/TensorArrayV2Stack/TensorListStack", "StatefulPartitionedCall/functional_2_1/time_distributed_1_1/strided_slice_4/stack", "StatefulPartitionedCall/functional_2_1/time_distributed_1_1/strided_slice_4/stack_1", "StatefulPartitionedCall/functional_2_1/time_distributed_1_1/strided_slice_4/stack_2"], "attr": {"shrink_axis_mask": {"i": "1"}, "Index": {"type": "DT_INT32"}, "new_axis_mask": {"i": "0"}, "begin_mask": {"i": "0"}, "end_mask": {"i": "0"}, "T": {"type": "DT_FLOAT"}, "ellipsis_mask": {"i": "0"}}}, {"name": "StatefulPartitionedCall/functional_2_1/time_distributed_1_1/strided_slice_5", "op": "StridedSlice", "input": ["StatefulPartitionedCall/functional_2_1/lstm_7_1/TensorArrayV2Stack/TensorListStack", "StatefulPartitionedCall/functional_2_1/time_distributed_1_1/strided_slice_5/stack", "StatefulPartitionedCall/functional_2_1/time_distributed_1_1/strided_slice_5/stack_1", "StatefulPartitionedCall/functional_2_1/time_distributed_1_1/strided_slice_5/stack_2"], "attr": {"shrink_axis_mask": {"i": "1"}, "Index": {"type": "DT_INT32"}, "new_axis_mask": {"i": "0"}, "begin_mask": {"i": "0"}, "end_mask": {"i": "0"}, "T": {"type": "DT_FLOAT"}, "ellipsis_mask": {"i": "0"}}}, {"name": "StatefulPartitionedCall/functional_2_1/time_distributed_1_1/strided_slice_6", "op": "StridedSlice", "input": ["StatefulPartitionedCall/functional_2_1/lstm_7_1/TensorArrayV2Stack/TensorListStack", "StatefulPartitionedCall/functional_2_1/time_distributed_1_1/strided_slice_6/stack", "StatefulPartitionedCall/functional_2_1/time_distributed_1_1/strided_slice_6/stack_1", "StatefulPartitionedCall/functional_2_1/time_distributed_1_1/strided_slice_6/stack_2"], "attr": {"shrink_axis_mask": {"i": "1"}, "Index": {"type": "DT_INT32"}, "new_axis_mask": {"i": "0"}, "begin_mask": {"i": "0"}, "end_mask": {"i": "0"}, "T": {"type": "DT_FLOAT"}, "ellipsis_mask": {"i": "0"}}}, {"name": "StatefulPartitionedCall/functional_2_1/time_distributed_1_1/strided_slice_7", "op": "StridedSlice", "input": ["StatefulPartitionedCall/functional_2_1/lstm_7_1/TensorArrayV2Stack/TensorListStack", "StatefulPartitionedCall/functional_2_1/time_distributed_1_1/strided_slice_7/stack", "StatefulPartitionedCall/functional_2_1/time_distributed_1_1/strided_slice_7/stack_1", "StatefulPartitionedCall/functional_2_1/time_distributed_1_1/strided_slice_7/stack_2"], "attr": {"shrink_axis_mask": {"i": "1"}, "new_axis_mask": {"i": "0"}, "Index": {"type": "DT_INT32"}, "begin_mask": {"i": "0"}, "end_mask": {"i": "0"}, "T": {"type": "DT_FLOAT"}, "ellipsis_mask": {"i": "0"}}}, {"name": "StatefulPartitionedCall/functional_2_1/time_distributed_1_1/strided_slice_8", "op": "StridedSlice", "input": ["StatefulPartitionedCall/functional_2_1/lstm_7_1/TensorArrayV2Stack/TensorListStack", "StatefulPartitionedCall/functional_2_1/time_distributed_1_1/strided_slice_8/stack", "StatefulPartitionedCall/functional_2_1/time_distributed_1_1/strided_slice_8/stack_1", "StatefulPartitionedCall/functional_2_1/time_distributed_1_1/strided_slice_8/stack_2"], "attr": {"shrink_axis_mask": {"i": "1"}, "Index": {"type": "DT_INT32"}, "new_axis_mask": {"i": "0"}, "begin_mask": {"i": "0"}, "T": {"type": "DT_FLOAT"}, "end_mask": {"i": "0"}, "ellipsis_mask": {"i": "0"}}}, {"name": "StatefulPartitionedCall/functional_2_1/time_distributed_1_1/strided_slice_9", "op": "StridedSlice", "input": ["StatefulPartitionedCall/functional_2_1/lstm_7_1/TensorArrayV2Stack/TensorListStack", "StatefulPartitionedCall/functional_2_1/time_distributed_1_1/strided_slice_9/stack", "StatefulPartitionedCall/functional_2_1/time_distributed_1_1/strided_slice_9/stack_1", "StatefulPartitionedCall/functional_2_1/time_distributed_1_1/strided_slice_9/stack_2"], "attr": {"shrink_axis_mask": {"i": "1"}, "new_axis_mask": {"i": "0"}, "Index": {"type": "DT_INT32"}, "begin_mask": {"i": "0"}, "T": {"type": "DT_FLOAT"}, "end_mask": {"i": "0"}, "ellipsis_mask": {"i": "0"}}}, {"name": "StatefulPartitionedCall/functional_2_1/time_distributed_1_1/strided_slice_10", "op": "StridedSlice", "input": ["StatefulPartitionedCall/functional_2_1/lstm_7_1/TensorArrayV2Stack/TensorListStack", "StatefulPartitionedCall/functional_2_1/time_distributed_1_1/strided_slice_10/stack", "StatefulPartitionedCall/functional_2_1/time_distributed_1_1/strided_slice_10/stack_1", "StatefulPartitionedCall/functional_2_1/time_distributed_1_1/strided_slice_10/stack_2"], "attr": {"shrink_axis_mask": {"i": "1"}, "Index": {"type": "DT_INT32"}, "new_axis_mask": {"i": "0"}, "begin_mask": {"i": "0"}, "T": {"type": "DT_FLOAT"}, "end_mask": {"i": "0"}, "ellipsis_mask": {"i": "0"}}}, {"name": "StatefulPartitionedCall/functional_2_1/time_distributed_1_1/strided_slice_11", "op": "StridedSlice", "input": ["StatefulPartitionedCall/functional_2_1/lstm_7_1/TensorArrayV2Stack/TensorListStack", "StatefulPartitionedCall/functional_2_1/time_distributed_1_1/strided_slice_11/stack", "StatefulPartitionedCall/functional_2_1/time_distributed_1_1/strided_slice_11/stack_1", "StatefulPartitionedCall/functional_2_1/time_distributed_1_1/strided_slice_11/stack_2"], "attr": {"shrink_axis_mask": {"i": "1"}, "Index": {"type": "DT_INT32"}, "new_axis_mask": {"i": "0"}, "begin_mask": {"i": "0"}, "end_mask": {"i": "0"}, "T": {"type": "DT_FLOAT"}, "ellipsis_mask": {"i": "0"}}}, {"name": "StatefulPartitionedCall/functional_2_1/time_distributed_1_1/strided_slice_12", "op": "StridedSlice", "input": ["StatefulPartitionedCall/functional_2_1/lstm_7_1/TensorArrayV2Stack/TensorListStack", "StatefulPartitionedCall/functional_2_1/time_distributed_1_1/strided_slice_12/stack", "StatefulPartitionedCall/functional_2_1/time_distributed_1_1/strided_slice_12/stack_1", "StatefulPartitionedCall/functional_2_1/time_distributed_1_1/strided_slice_12/stack_2"], "attr": {"shrink_axis_mask": {"i": "1"}, "Index": {"type": "DT_INT32"}, "new_axis_mask": {"i": "0"}, "begin_mask": {"i": "0"}, "end_mask": {"i": "0"}, "T": {"type": "DT_FLOAT"}, "ellipsis_mask": {"i": "0"}}}, {"name": "StatefulPartitionedCall/functional_2_1/time_distributed_1_1/strided_slice_13", "op": "StridedSlice", "input": ["StatefulPartitionedCall/functional_2_1/lstm_7_1/TensorArrayV2Stack/TensorListStack", "StatefulPartitionedCall/functional_2_1/time_distributed_1_1/strided_slice_13/stack", "StatefulPartitionedCall/functional_2_1/time_distributed_1_1/strided_slice_13/stack_1", "StatefulPartitionedCall/functional_2_1/time_distributed_1_1/strided_slice_13/stack_2"], "attr": {"shrink_axis_mask": {"i": "1"}, "Index": {"type": "DT_INT32"}, "new_axis_mask": {"i": "0"}, "begin_mask": {"i": "0"}, "T": {"type": "DT_FLOAT"}, "end_mask": {"i": "0"}, "ellipsis_mask": {"i": "0"}}}, {"name": "StatefulPartitionedCall/functional_2_1/time_distributed_1_1/strided_slice_14", "op": "StridedSlice", "input": ["StatefulPartitionedCall/functional_2_1/lstm_7_1/TensorArrayV2Stack/TensorListStack", "StatefulPartitionedCall/functional_2_1/time_distributed_1_1/strided_slice_14/stack", "StatefulPartitionedCall/functional_2_1/time_distributed_1_1/strided_slice_14/stack_1", "StatefulPartitionedCall/functional_2_1/time_distributed_1_1/strided_slice_14/stack_2"], "attr": {"shrink_axis_mask": {"i": "1"}, "new_axis_mask": {"i": "0"}, "Index": {"type": "DT_INT32"}, "begin_mask": {"i": "0"}, "T": {"type": "DT_FLOAT"}, "end_mask": {"i": "0"}, "ellipsis_mask": {"i": "0"}}}, {"name": "StatefulPartitionedCall/functional_2_1/time_distributed_1_1/strided_slice_15", "op": "StridedSlice", "input": ["StatefulPartitionedCall/functional_2_1/lstm_7_1/TensorArrayV2Stack/TensorListStack", "StatefulPartitionedCall/functional_2_1/time_distributed_1_1/strided_slice_15/stack", "StatefulPartitionedCall/functional_2_1/time_distributed_1_1/strided_slice_15/stack_1", "StatefulPartitionedCall/functional_2_1/time_distributed_1_1/strided_slice_15/stack_2"], "attr": {"shrink_axis_mask": {"i": "1"}, "Index": {"type": "DT_INT32"}, "new_axis_mask": {"i": "0"}, "begin_mask": {"i": "0"}, "T": {"type": "DT_FLOAT"}, "end_mask": {"i": "0"}, "ellipsis_mask": {"i": "0"}}}, {"name": "StatefulPartitionedCall/functional_2_1/time_distributed_1_1/strided_slice_16", "op": "StridedSlice", "input": ["StatefulPartitionedCall/functional_2_1/lstm_7_1/TensorArrayV2Stack/TensorListStack", "StatefulPartitionedCall/functional_2_1/time_distributed_1_1/strided_slice_16/stack", "StatefulPartitionedCall/functional_2_1/time_distributed_1_1/strided_slice_16/stack_1", "StatefulPartitionedCall/functional_2_1/time_distributed_1_1/strided_slice_16/stack_2"], "attr": {"shrink_axis_mask": {"i": "1"}, "Index": {"type": "DT_INT32"}, "new_axis_mask": {"i": "0"}, "begin_mask": {"i": "0"}, "T": {"type": "DT_FLOAT"}, "end_mask": {"i": "0"}, "ellipsis_mask": {"i": "0"}}}, {"name": "StatefulPartitionedCall/functional_2_1/time_distributed_1_1/strided_slice_17", "op": "StridedSlice", "input": ["StatefulPartitionedCall/functional_2_1/lstm_7_1/TensorArrayV2Stack/TensorListStack", "StatefulPartitionedCall/functional_2_1/time_distributed_1_1/strided_slice_17/stack", "StatefulPartitionedCall/functional_2_1/time_distributed_1_1/strided_slice_17/stack_1", "StatefulPartitionedCall/functional_2_1/time_distributed_1_1/strided_slice_17/stack_2"], "attr": {"shrink_axis_mask": {"i": "1"}, "new_axis_mask": {"i": "0"}, "Index": {"type": "DT_INT32"}, "begin_mask": {"i": "0"}, "T": {"type": "DT_FLOAT"}, "end_mask": {"i": "0"}, "ellipsis_mask": {"i": "0"}}}, {"name": "StatefulPartitionedCall/functional_2_1/time_distributed_1_1/strided_slice_18", "op": "StridedSlice", "input": ["StatefulPartitionedCall/functional_2_1/lstm_7_1/TensorArrayV2Stack/TensorListStack", "StatefulPartitionedCall/functional_2_1/time_distributed_1_1/strided_slice_18/stack", "StatefulPartitionedCall/functional_2_1/time_distributed_1_1/strided_slice_18/stack_1", "StatefulPartitionedCall/functional_2_1/time_distributed_1_1/strided_slice_18/stack_2"], "attr": {"shrink_axis_mask": {"i": "1"}, "Index": {"type": "DT_INT32"}, "new_axis_mask": {"i": "0"}, "begin_mask": {"i": "0"}, "end_mask": {"i": "0"}, "T": {"type": "DT_FLOAT"}, "ellipsis_mask": {"i": "0"}}}, {"name": "StatefulPartitionedCall/functional_2_1/time_distributed_1_1/strided_slice_19", "op": "StridedSlice", "input": ["StatefulPartitionedCall/functional_2_1/lstm_7_1/TensorArrayV2Stack/TensorListStack", "StatefulPartitionedCall/functional_2_1/t…
rListGetItem", "StatefulPartitionedCall/functional_2_1/lstm_7_1/while/body/_56/functional_2_1/lstm_7_1/while/lstm_cell_1/Cast/ReadVariableOp", "StatefulPartitionedCall/functional_2_1/lstm_7_1/while/body/_56/functional_2_1/lstm_7_1/while/lstm_cell_1/add"], "device": "/device:CPU:0", "attr": {"transpose_a": {"b": false}, "transpose_b": {"b": false}, "fused_ops": {"list": {"s": ["Qmlhc0FkZA=="]}}, "num_args": {"i": "1"}, "leakyrelu_alpha": {"f": 0.2}, "epsilon": {"f": 0.0}, "T": {"type": "DT_FLOAT"}}}, {"name": "Identity", "op": "Identity", "input": ["StatefulPartitionedCall/functional_2_1/time_distributed_1_1/transpose_1", "^StatefulPartitionedCall/functional_2_1/lstm_6_1/while/exit/_45", "^StatefulPartitionedCall/functional_2_1/lstm_6_1/while/exit/_44", "^StatefulPartitionedCall/functional_2_1/lstm_6_1/while/exit/_40", "^StatefulPartitionedCall/functional_2_1/lstm_6_1/while/exit/_41", "^StatefulPartitionedCall/functional_2_1/lstm_6_1/while/exit/_42", "^StatefulPartitionedCall/functional_2_1/lstm_6_1/while/exit/_46", "^StatefulPartitionedCall/functional_2_1/lstm_6_1/while/exit/_43", "^StatefulPartitionedCall/functional_2_1/lstm_7_1/while/exit/_84", "^StatefulPartitionedCall/functional_2_1/lstm_7_1/while/exit/_85", "^StatefulPartitionedCall/functional_2_1/lstm_7_1/while/exit/_90", "^StatefulPartitionedCall/functional_2_1/lstm_7_1/while/exit/_86", "^StatefulPartitionedCall/functional_2_1/lstm_7_1/while/exit/_87", "^StatefulPartitionedCall/functional_2_1/lstm_7_1/while/exit/_88", "^StatefulPartitionedCall/functional_2_1/lstm_7_1/while/exit/_89"], "attr": {"T": {"type": "DT_FLOAT"}}}, {"name": "StatefulPartitionedCall/functional_2_1/lstm_7_1/while/body/_56/functional_2_1/lstm_7_1/while/lstm_cell_1/split", "op": "Split", "input": ["StatefulPartitionedCall/functional_2_1/lstm_7_1/while/body/_56/functional_2_1/lstm_7_1/while/lstm_cell_1/split/split_dim", "StatefulPartitionedCall/functional_2_1/lstm_7_1/while/body/_56/functional_2_1/lstm_7_1/while/lstm_cell_1/add_1"], "attr": {"num_split": {"i": "4"}, "T": {"type": "DT_FLOAT"}}}, {"name": "StatefulPartitionedCall/functional_2_1/lstm_7_1/while/body/_56/functional_2_1/lstm_7_1/while/lstm_cell_1/Sigmoid", "op": "Sigmoid", "input": ["StatefulPartitionedCall/functional_2_1/lstm_7_1/while/body/_56/functional_2_1/lstm_7_1/while/lstm_cell_1/split"], "attr": {"T": {"type": "DT_FLOAT"}}}, {"name": "StatefulPartitionedCall/functional_2_1/lstm_7_1/while/body/_56/functional_2_1/lstm_7_1/while/lstm_cell_1/Sigmoid_1", "op": "Sigmoid", "input": ["StatefulPartitionedCall/functional_2_1/lstm_7_1/while/body/_56/functional_2_1/lstm_7_1/while/lstm_cell_1/split:1"], "attr": {"T": {"type": "DT_FLOAT"}}}, {"name": "StatefulPartitionedCall/functional_2_1/lstm_7_1/while/body/_56/functional_2_1/lstm_7_1/while/lstm_cell_1/Relu", "op": "Relu", "input": ["StatefulPartitionedCall/functional_2_1/lstm_7_1/while/body/_56/functional_2_1/lstm_7_1/while/lstm_cell_1/split:2"], "attr": {"T": {"type": "DT_FLOAT"}}}, {"name": "StatefulPartitionedCall/functional_2_1/lstm_7_1/while/body/_56/functional_2_1/lstm_7_1/while/lstm_cell_1/Sigmoid_2", "op": "Sigmoid", "input": ["StatefulPartitionedCall/functional_2_1/lstm_7_1/while/body/_56/functional_2_1/lstm_7_1/while/lstm_cell_1/split:3"], "attr": {"T": {"type": "DT_FLOAT"}}}, {"name": "StatefulPartitionedCall/functional_2_1/lstm_7_1/while/body/_56/functional_2_1/lstm_7_1/while/lstm_cell_1/mul", "op": "Mul", "input": ["StatefulPartitionedCall/functional_2_1/lstm_7_1/while/body/_56/functional_2_1/lstm_7_1/while/lstm_cell_1/Sigmoid_1", "StatefulPartitionedCall/functional_2_1/lstm_7_1/while/StatefulPartitionedCall/functional_2_1/lstm_7_1/zeros_1_switch/_81:1"], "attr": {"T": {"type": "DT_FLOAT"}}}, {"name": "StatefulPartitionedCall/functional_2_1/lstm_7_1/while/body/_56/functional_2_1/lstm_7_1/while/lstm_cell_1/mul_1", "op": "Mul", "input": ["StatefulPartitionedCall/functional_2_1/lstm_7_1/while/body/_56/functional_2_1/lstm_7_1/while/lstm_cell_1/Sigmoid", "StatefulPartitionedCall/functional_2_1/lstm_7_1/while/body/_56/functional_2_1/lstm_7_1/while/lstm_cell_1/Relu"], "attr": {"T": {"type": "DT_FLOAT"}}}, {"name": "StatefulPartitionedCall/functional_2_1/lstm_7_1/while/body/_56/functional_2_1/lstm_7_1/while/lstm_cell_1/add_2", "op": "AddV2", "input": ["StatefulPartitionedCall/functional_2_1/lstm_7_1/while/body/_56/functional_2_1/lstm_7_1/while/lstm_cell_1/mul", "StatefulPartitionedCall/functional_2_1/lstm_7_1/while/body/_56/functional_2_1/lstm_7_1/while/lstm_cell_1/mul_1"], "attr": {"T": {"type": "DT_FLOAT"}}}, {"name": "StatefulPartitionedCall/functional_2_1/lstm_7_1/while/body/_56/functional_2_1/lstm_7_1/while/lstm_cell_1/Relu_1", "op": "Relu", "input": ["StatefulPartitionedCall/functional_2_1/lstm_7_1/while/body/_56/functional_2_1/lstm_7_1/while/lstm_cell_1/add_2"], "attr": {"T": {"type": "DT_FLOAT"}}}, {"name": "StatefulPartitionedCall/functional_2_1/lstm_7_1/while/next_iteration/_97", "op": "NextIteration", "input": ["StatefulPartitionedCall/functional_2_1/lstm_7_1/while/body/_56/functional_2_1/lstm_7_1/while/lstm_cell_1/add_2", "^Func/StatefulPartitionedCall/functional_2_1/lstm_7_1/while/body/_56/output_control_node/_166", "^StatefulPartitionedCall/functional_2_1/lstm_7_1/while/body/_56/functional_2_1/lstm_7_1/while/NoOp"], "attr": {"T": {"type": "DT_FLOAT"}}}, {"name": "StatefulPartitionedCall/functional_2_1/lstm_7_1/while/body/_56/functional_2_1/lstm_7_1/while/lstm_cell_1/mul_2", "op": "Mul", "input": ["StatefulPartitionedCall/functional_2_1/lstm_7_1/while/body/_56/functional_2_1/lstm_7_1/while/lstm_cell_1/Sigmoid_2", "StatefulPartitionedCall/functional_2_1/lstm_7_1/while/body/_56/functional_2_1/lstm_7_1/while/lstm_cell_1/Relu_1"], "attr": {"T": {"type": "DT_FLOAT"}}}, {"name": "StatefulPartitionedCall/functional_2_1/lstm_7_1/while/body/_56/functional_2_1/lstm_7_1/while/TensorArrayV2Write/TensorListSetItem", "op": "TensorListSetItem", "input": ["StatefulPartitionedCall/functional_2_1/lstm_7_1/while/StatefulPartitionedCall/functional_2_1/lstm_7_1/TensorArrayV2_1_switch/_79:1", "Func/StatefulPartitionedCall/functional_2_1/lstm_7_1/while/body/_56/input/_148", "StatefulPartitionedCall/functional_2_1/lstm_7_1/while/body/_56/functional_2_1/lstm_7_1/while/lstm_cell_1/mul_2"], "attr": {"element_dtype": {"type": "DT_FLOAT"}, "resize_if_index_out_of_bounds": {"b": false}}, "experimentalType": {"typeId": "TFT_PRODUCT", "args": [{"typeId": "TFT_ARRAY", "args": [{"typeId": "TFT_TENSOR", "args": [{"typeId": "TFT_FLOAT"}]}]}]}}, {"name": "StatefulPartitionedCall/functional_2_1/lstm_7_1/while/next_iteration/_96", "op": "NextIteration", "input": ["StatefulPartitionedCall/functional_2_1/lstm_7_1/while/body/_56/functional_2_1/lstm_7_1/while/lstm_cell_1/mul_2", "^Func/StatefulPartitionedCall/functional_2_1/lstm_7_1/while/body/_56/output_control_node/_166", "^StatefulPartitionedCall/functional_2_1/lstm_7_1/while/body/_56/functional_2_1/lstm_7_1/while/NoOp"], "attr": {"T": {"type": "DT_FLOAT"}}}, {"name": "StatefulPartitionedCall/functional_2_1/lstm_7_1/while/next_iteration/_95", "op": "NextIteration", "input": ["StatefulPartitionedCall/functional_2_1/lstm_7_1/while/body/_56/functional_2_1/lstm_7_1/while/TensorArrayV2Write/TensorListSetItem", "^Func/StatefulPartitionedCall/functional_2_1/lstm_7_1/while/body/_56/output_control_node/_166", "^StatefulPartitionedCall/functional_2_1/lstm_7_1/while/body/_56/functional_2_1/lstm_7_1/while/NoOp"], "attr": {"T": {"type": "DT_VARIANT"}}}], "library": {}, "versions": {"producer": 1994}}, "weightsManifest": [{"paths": ["group1-shard1of1.bin"], "weights": [{"name": "StatefulPartitionedCall/functional_2_1/time_distributed_1_1/strided_slice_1/stack", "shape": [1], "dtype": "int32"}, {"name": "StatefulPartitionedCall/functional_2_1/time_distributed_1_1/strided_slice_1/stack_1", "shape": [1], "dtype": "int32"}, {"name": "StatefulPartitionedCall/functional_2_1/time_distributed_1_1/strided_slice_1/stack_2", "shape": [1], "dtype": "int32"}, {"name": "StatefulPartitionedCall/functional_2_1/time_distributed_1_1/Cast/ReadVariableOp", "shape": [128, 3], "dtype": "float32"}, {"name": "StatefulPartitionedCall/functional_2_1/time_distributed_1_1/BiasAdd/ReadVariableOp", "shape": [3], "dtype": "float32"}, {"name": "StatefulPartitionedCall/functional_2_1/time_distributed_1_1/strided_slice_2/stack", "shape": [1], "dtype": "int32"}, {"name": "StatefulPartitionedCall/functional_2_1/time_distributed_1_1/strided_slice_2/stack_1", "shape": [1], "dtype": "int32"}, {"name": "StatefulPartitionedCall/functional_2_1/time_distributed_1_1/strided_slice_2/stack_2", "shape": [1], "dtype": "int32"}, {"name": "StatefulPartitionedCall/functional_2_1/time_distributed_1_1/Cast_1/ReadVariableOp", "shape": [128, 3], "dtype": "float32"}, {"name": "StatefulPartitionedCall/functional_2_1/time_distributed_1_1/BiasAdd_1/ReadVariableOp", "shape": [3], "dtype": "float32"}, {"name": "StatefulPartitionedCall/functional_2_1/time_distributed_1_1/strided_slice_3/stack", "shape": [1], "dtype": "int32"}, {"name": "StatefulPartitionedCall/functional_2_1/time_distributed_1_1/strided_slice_3/stack_1", "shape": [1], "dtype": "int32"}, {"name": "StatefulPartitionedCall/functional_2_1/time_distributed_1_1/strided_slice_3/stack_2", "shape": [1], "dtype": "int32"}, {"name": "StatefulPartitionedCall/functional_2_1/time_distributed_1_1/Cast_2/ReadVariableOp", "shape": [128, 3], "dtype": "float32"}, {"name": "StatefulPartitionedCall/functional_2_1/time_distributed_1_1/BiasAdd_2/ReadVariableOp", "shape": [3], "dtype": "float32"}, {"name": "StatefulPartitionedCall/functional_2_1/time_distributed_1_1/strided_slice_4/stack", "shape": [1], "dtype": "int32"}, {"name": "StatefulPartitionedCall/functional_2_1/time_distributed_1_1/strided_slice_4/stack_1", "shape": [1], "dtype": "int32"}, {"name": "StatefulPartitionedCall/functional_2_1/time_distributed_1_1/strided_slice_4/stack_2", "shape": [1], "dtype": "int32"}, {"name": "StatefulPartitionedCall/functional_2_1/time_distributed_1_1/Cast_3/ReadVariableOp", "shape": [128, 3], "dtype": "float32"}, {"name": "StatefulPartitionedCall/functional_2_1/time_distributed_1_1/BiasAdd_3/ReadVariableOp", "shape": [3], "dtype": "float32"}, {"name": "StatefulPartitionedCall/functional_2_1/time_distributed_1_1/strided_slice_5/stack", "shape": [1], "dtype": "int32"}, {"name": "StatefulPartitionedCall/functional_2_1/time_distributed_1_1/strided_slice_5/stack_1", "shape": [1], "dtype": "int32"}, {"name": "StatefulPartitionedCall/functional_2_1/time_distributed_1_1/strided_slice_5/stack_2", "shape": [1], "dtype": "int32"}, {"name": "StatefulPartitionedCall/functional_2_1/time_distributed_1_1/Cast_4/ReadVariableOp", "shape": [128, 3], "dtype": "float32"}, {"name": "StatefulPartitionedCall/functional_2_1/time_distributed_1_1/BiasAdd_4/ReadVariableOp", "shape": [3], "dtype": "float32"}, {"name": "StatefulPartitionedCall/functional_2_1/time_distributed_1_1/strided_slice_6/stack", "shape": [1], "dtype": "int32"}, {"name": "StatefulPartitionedCall/functional_2_1/time_distributed_1_1/strided_slice_6/stack_1", "shape": [1], "dtype": "int32"}, {"name": "StatefulPartitionedCall/functional_2_1/time_distributed_1_1/strided_slice_6/stack_2", "shape": [1], "dtype": "int32"}, {"name": "StatefulPartitionedCall/functional_2_1/time_distributed_1_1/Cast_5/ReadVariableOp", "shape": [128, 3], "dtype": "float32"}, {"name": "StatefulPartitionedCall/functional_2_1/time_distributed_1_1/BiasAdd_5/ReadVariableOp", "shape": [3], "dtype": "float32"}, {"name": "StatefulPartitionedCall/functional_2_1/time_distributed_1_1/strided_slice_7/stack", "shape": [1], "dtype": "int32"}, {"name": "StatefulPartitionedCall/functional_2_1/time_distributed_1_1/strided_slice_7/stack_1", "shape": [1], "dtype": "int32"}, {"name": "StatefulPartitionedCall/functional_2_1/time_distributed_1_1/strided_slice_7/stack_2", "shape": [1], "dtype": "int32"}, {"name": "StatefulPartitionedCall/functional_2_1/time_distributed_1_1/Cast_6/ReadVariableOp", "shape": [128, 3], "dtype": "float32"}, {"name": "StatefulPartitionedCall/functional_2_1/time_distributed_1_1/BiasAdd_6/ReadVariableOp", "shape": [3], "dtype": "float32"}, {"name": "StatefulPartitionedCall/functional_2_1/time_distributed_1_1/strided_slice_8/stack", "shape": [1], "dtype": "int32"}, {"name": "StatefulPartitionedCall/functional_2_1/time_distributed_1_1/strided_slice_8/stack_1", "shape": [1], "dtype": "int32"}, {"name": "StatefulPartitionedCall/functional_2_1/time_distributed_1_1/strided_slice_8/stack_2", "shape": [1], "dtype": "int32"}, {"name": "StatefulPartitionedCall/functional_2_1/time_distributed_1_1/Cast_7/ReadVariableOp", "shape": [128, 3], "dtype": "float32"}, {"name": "StatefulPartitionedCall/functional_2_1/time_distributed_1_1/BiasAdd_7/ReadVariableOp", "shape": [3], "dtype": "float32"}, {"name": "StatefulPartitionedCall/functional_2_1/time_distributed_1_1/strided_slice_9/stack", "shape": [1], "dtype": "int32"}, {"name": "StatefulPartitionedCall/functional_2_1/time_distributed_1_1/strided_slice_9/stack_1", "shape": [1], "dtype": "int32"}, {"name": "StatefulPartitionedCall/functional_2_1/time_distributed_1_1/strided_slice_9/stack_2", "shape": [1], "dtype": "int32"}, {"name": "StatefulPartitionedCall/functional_2_1/time_distributed_1_1/Cast_8/ReadVariableOp", "shape": [128, 3], "dtype": "float32"}, {"name": "StatefulPartitionedCall/functional_2_1/time_distributed_1_1/BiasAdd_8/ReadVariableOp", "shape": [3], "dtype": "float32"}, {"name": "StatefulPartitionedCall/functional_2_1/time_distributed_1_1/strided_slice_10/stack", "shape": [1], "dtype": "int32"}, {"name": "StatefulPartitionedCall/functional_2_1/time_distributed_1_1/strided_slice_10/stack_1", "shape": [1], "dtype": "int32"}, {"name": "StatefulPartitionedCall/functional_2_1/time_distributed_1_1/strided_slice_10/stack_2", "shape": [1], "dtype": "int32"}, {"name": "StatefulPartitionedCall/functional_2_1/time_distributed_1_1/Cast_9/ReadVariableOp", "shape": [128, 3], "dtype": "float32"}, {"name": "StatefulPartitionedCall/functional_2_1/time_distributed_1_1/BiasAdd_9/ReadVariableOp", "shape": [3], "dtype": "float32"}, {"name": "StatefulPartitionedCall/functional_2_1/time_distributed_1_1/strided_slice_11/stack", "shape": [1], "dtype": "int32"}, {"name": "StatefulPartitionedCall/functional_2_1/time_distributed_1_1/strided_slice_11/stack_1", "shape": [1], "dtype": "int32"}, {"name": "StatefulPartitionedCall/functional_2_1/time_distributed_1_1/strided_slice_11/stack_2", "shape": [1], "dtype": "int32"}, {"name": "StatefulPartitionedCall/functional_2_1/time_distributed_1_1/Cast_10/ReadVariableOp", "shape": [128, 3], "dtype": "float32"}, {"name": "StatefulPartitionedCall/functional_2_1/time_distributed_1_1/BiasAdd_10/ReadVariableOp", "shape": [3], "dtype": "float32"}, {"name": "StatefulPartitionedCall/functional_2_1/time_distributed_1_1/strided_slice_12/stack", "shape": [1], "dtype": "int32"}, {"name": "StatefulPartitionedCall/functional_2_1/time_distributed_1_1/strided_slice_12/stack_1", "shape": [1], "dtype": "int32"}, {"name": "StatefulPartitionedCall/functional_2_1/time_distributed_1_1/strided_slice_12/stack_2", "shape": [1], "dtype": "int32"}, {"name": "StatefulPartitionedCall/functional_2_1/time_distributed_1_1/Cast_11/ReadVariableOp", "shape": [128, 3], "dtype": "float32"}, {"name": "StatefulPartitionedCall/functional_2_1/time_distributed_1_1/BiasAdd_11/ReadVariableOp", "shape": [3], "dtype": "float32"}, {"name": "StatefulPartitionedCall/functional_2_1/time_distributed_1_1/strided_slice_13/stack", "shape": [1], "dtype": "int32"}, {"name": "StatefulPartitionedCall/functional_2_1/time_distributed_1_1/strided_slice_13/stack_1", "shape": [1], "dtype": "int32"}, {"name": "StatefulPartitionedCall/functional_2_1/time_distributed_1_1/strided_slice_13/stack_2", "shape": [1], "dtype": "int32"}, {"name": "StatefulPartitionedCall/functional_2_1/time_distributed_1_1/Cast_12/ReadVariableOp", "shape": [128, 3], "dtype": "float32"}, {"name": "StatefulPartitionedCall/functional_2_1/time_distributed_1_1/BiasAdd_12/ReadVariableOp", "shape": [3], "dtype": "float32"}, {"name": "StatefulPartitionedCall/functional_2_1/time_distributed_1_1/strided_slice_14/stack", "shape": [1], "dtype": "int32"}, {"name": "StatefulPartitionedCall/functional_2_1/time_distributed_1_1/strided_slice_14/stack_1", "shape": [1], "dtype": "int32"}, {"name": "StatefulPartitionedCall/functional_2_1/time_distributed_1_1/strided_slice_14/stack_2", "shape": [1], "dtype": "int32"}, {"name": "StatefulPartitionedCall/functional_2_1/time_distributed_1_1/Cast_13/ReadVariableOp", "shape": [128, 3], "dtype": "float32"}, {"name": "StatefulPartitionedCall/functional_2_1/time_distributed_1_1/BiasAdd_13/ReadVariableOp", "shape": [3], "dtype": "float32"}, {"name": "StatefulPartitionedCall/functional_2_1/time_distributed_1_1/strided_slice_15/stack", "shape": [1], "dtype": "int32"}, {"name": "StatefulPartitionedCall/functional_2_1/time_distributed_1_1/strided_slice_15/stack_1", "shape": [1], "dtype": "int32"}, {"name": "StatefulPartitionedCall/functional_2_1/time_distributed_1_1/strided_slice_15/stack_2", "shape": [1], "dtype": "int32"}, {"name": "StatefulPartitionedCall/functional_2_1/time_distributed_1_1/Cast_14/ReadVariableOp", "shape": [128, 3], "dtype": "float32"}, {"name": "StatefulPartitionedCall/functional_2_1/time_distributed_1_1/BiasAdd_14/ReadVariableOp", "shape": [3], "dtype": "float32"}, {"name": "StatefulPartitionedCall/functional_2_1/time_distributed_1_1/strided_slice_16/stack", "shape": [1], "dtype": "int32"}, {"name": "StatefulPartitionedCall/functional_2_1/time_distributed_1_1/strided_slice_16/stack_1", "shape": [1], "dtype": "int32"}, {"name": "StatefulPartitionedCall/functional_2_1/time_distributed_1_1/strided_slice_16/stack_2", "shape": [1], "dtype": "int32"}, {"name": "StatefulPartitionedCall/functional_2_1/time_distributed_1_1/Cast_15/ReadVariableOp", "shape": [128, 3], "dtype": "float32"}, {"name": "StatefulPartitionedCall/functional_2_1/time_distributed_1_1/BiasAdd_15/ReadVariableOp", "shape": [3], "dtype": "float32"}, {"name": "StatefulPartitionedCall/functional_2_1/time_distributed_1_1/strided_slice_17/stack", "shape": [1], "dtype": "int32"}, {"name": "StatefulPartitionedCall/functional_2_1/time_distributed_1_1/strided_slice_17/stack_1", "shape": [1], "dtype": "int32"}, {"name": "StatefulPartitionedCall/functional_2_1/time_distributed_1_1/strided_slice_17/stack_2", "shape": [1], "dtype": "int32"}, {"name": "StatefulPartitionedCall/functional_2_1/time_distributed_1_1/Cast_16/ReadVariableOp", "shape": [128, 3], "dtype": "float32"}, {"name": "StatefulPartitionedCall/functional_2_1/time_distributed_1_1/BiasAdd_16/ReadVariableOp", "shape": [3], "dtype": "float32"}, {"name": "StatefulPartitionedCall/functional_2_1/time_distributed_1_1/strided_slice_18/stack", "shape": [1], "dtype": "int32"}, {"name": "StatefulPartitionedCall/functional_2_1/time_distributed_1_1/strided_slice_18/stack_1", "shape": [1], "dtype": "int32"}, {"name": "StatefulPartitionedCall/functional_2_1/time_distributed_1_1/strided_slice_18/stack_2", "shape": [1], "dtype": "int32"}, {"name": "StatefulPartitionedCall/functional_2_1/time_distributed_1_1/Cast_17/ReadVariableOp", "shape": [128, 3], "dtype": "float32"}, {"name": "StatefulPartitionedCall/functional_2_1/time_distributed_1_1/BiasAdd_17/ReadVariableOp", "shape": [3], "dtype": "float32"}, {"name": "StatefulPartitionedCall/functional_2_1/time_distributed_1_1/strided_slice_19/stack", "shape": [1], "dtype": "int32"}, {"name": "StatefulPartitionedCall/functional_2_1/time_distributed_1_1/strided_slice_19/stack_1", "shape": [1], "dtype": "int32"}, {"name": "StatefulPartitionedCall/functional_2_1/time_distributed_1_1/strided_slice_19/stack_2", "shape": [1], "dtype": "int32"}, {"name": "StatefulPartitionedCall/functional_2_1/time_distributed_1_1/Cast_18/ReadVariableOp", "shape": [128, 3], "dtype": "float32"}, {"name": "StatefulPartitionedCall/functional_2_1/time_distributed_1_1/BiasAdd_18/ReadVariableOp", "shape": [3], "dtype": "float32"}, {"name": "StatefulPartitionedCall/functional_2_1/time_distributed_1_1/strided_slice_20/stack", "shape": [1], "dtype": "int32"}, {"name": "StatefulPartitionedCall/functional_2_1/time_distributed_1_1/strided_slice_20/stack_1", "shape": [1], "dtype": "int32"}, {"name": "StatefulPartitionedCall/functional_2_1/time_distributed_1_1/strided_slice_20/stack_2", "shape": [1], "dtype": "int32"}, {"name": "StatefulPartitionedCall/functional_2_1/time_distributed_1_1/Cast_19/ReadVariableOp", "shape": [128, 3], "dtype": "float32"}, {"name": "StatefulPartitionedCall/functional_2_1/time_distributed_1_1/BiasAdd_19/ReadVariableOp", "shape": [3], "dtype": "float32"}, {"name": "StatefulPartitionedCall/functional_2_1/time_distributed_1_1/strided_slice_21/stack", "shape": [1], "dtype": "int32"}, {"name": "StatefulPartitionedCall/functional_2_1/time_distributed_1_1/strided_slice_21/stack_1", "shape": [1], "dtype": "int32"}, {"name": "StatefulPartitionedCall/functional_2_1/time_distributed_1_1/strided_slice_21/stack_2", "shape": [1], "dtype": "int32"}, {"name": "StatefulPartitionedCall/functional_2_1/time_distributed_1_1/Cast_20/ReadVariableOp", "shape": [128, 3], "dtype": "float32"}, {"name": "StatefulPartitionedCall/functional_2_1/time_distributed_1_1/BiasAdd_20/ReadVariableOp", "shape": [3], "dtype": "float32"}, {"name": "StatefulPartitionedCall/functional_2_1/time_distributed_1_1/strided_slice_22/stack", "shape": [1], "dtype": "int32"}, {"name": "StatefulPartitionedCall/functional_2_1/time_distributed_1_1/strided_slice_22/stack_1", "shape": [1], "dtype": "int32"}, {"name": "StatefulPartitionedCall/functional_2_1/time_distributed_1_1/strided_slice_22/stack_2", "shape": [1], "dtype": "int32"}, {"name": "StatefulPartitionedCall/functional_2_1/time_distributed_1_1/Cast_21/ReadVariableOp", "shape": [128, 3], "dtype": "float32"}, {"name": "StatefulPartitionedCall/functional_2_1/time_distributed_1_1/BiasAdd_21/ReadVariableOp", "shape": [3], "dtype": "float32"}, {"name": "StatefulPartitionedCall/functional_2_1/time_distributed_1_1/strided_slice_23/stack", "shape": [1], "dtype": "int32"}, {"name": "StatefulPartitionedCall/functional_2_1/time_distributed_1_1/strided_slice_23/stack_1", "shape": [1], "dtype": "int32"}, {"name": "StatefulPartitionedCall/functional_2_1/time_distributed_1_1/strided_slice_23/stack_2", "shape": [1], "dtype": "int32"}, {"name": "StatefulPartitionedCall/functional_2_1/time_distributed_1_1/Cast_22/ReadVariableOp", "shape": [128, 3], "dtype": "float32"}, {"name": "StatefulPartitionedCall/functional_2_1/time_distributed_1_1/BiasAdd_22/ReadVariableOp", "shape": [3], "dtype": "float32"}, {"name": "StatefulPartitionedCall/functional_2_1/time_distributed_1_1/strided_slice_24/stack", "shape": [1], "dtype": "int32"}, {"name": "StatefulPartitionedCall/functional_2_1/time_distributed_1_1/strided_slice_24/stack_1", "shape": [1], "dtype": "int32"}, {"name": "StatefulPartitionedCall/functional_2_1/time_distributed_1_1/strided_slice_24/stack_2", "shape": [1], "dtype": "int32"}, {"name": "StatefulPartitionedCall/functional_2_1/time_distributed_1_1/Cast_23/ReadVariableOp", "shape": [128, 3], "dtype": "float32"}, {"name": "StatefulPartitionedCall/functional_2_1/time_distributed_1_1/BiasAdd_23/ReadVariableOp", "shape": [3], "dtype": "float32"}, {"name": "StatefulPartitionedCall/functional_2_1/time_distributed_1_1/strided_slice_25/stack", "shape": [1], "dtype": "int32"}, {"name": "StatefulPartitionedCall/functional_2_1/time_distributed_1_1/strided_slice_25/stack_1", "shape": [1], "dtype": "int32"}, {"name": "StatefulPartitionedCall/functional_2_1/time_distributed_1_1/strided_slice_25/stack_2", "shape": [1], "dtype": "int32"}, {"name": "StatefulPartitionedCall/functional_2_1/time_distributed_1_1/Cast_24/ReadVariableOp", "shape": [128, 3], "dtype": "float32"}, {"name": "StatefulPartitionedCall/functional_2_1/time_distributed_1_1/BiasAdd_24/ReadVariableOp", "shape": [3], "dtype": "float32"}, {"name": "StatefulPartitionedCall/functional_2_1/time_distributed_1_1/strided_slice_26/stack", "shape": [1], "dtype": "int32"}, {"name": "StatefulPartitionedCall/functional_2_1/time_distributed_1_1/strided_slice_26/stack_1", "shape": [1], "dtype": "int32"}, {"name": "StatefulPartitionedCall/functional_2_1/time_distributed_1_1/strided_slice_26/stack_2", "shape": [1], "dtype": "int32"}, {"name": "StatefulPartitionedCall/functional_2_1/time_distributed_1_1/Cast_25/ReadVariableOp", "shape": [128, 3], "dtype": "float32"}, {"name": "StatefulPartitionedCall/functional_2_1/time_distributed_1_1/BiasAdd_25/ReadVariableOp", "shape": [3], "dtype": "float32"}, {"name": "StatefulPartitionedCall/functional_2_1/time_distributed_1_1/strided_slice_27/stack", "shape": [1], "dtype": "int32"}, {"name": "StatefulPartitionedCall/functional_2_1/time_distributed_1_1/strided_slice_27/stack_1", "shape": [1], "dtype": "int32"}, {"name": "StatefulPartitionedCall/functional_2_1/time_distributed_1_1/strided_slice_27/stack_2", "shape": [1], "dtype": "int32"}, {"name": "StatefulPartitionedCall/functional_2_1/time_distributed_1_1/Cast_26/ReadVariableOp", "shape": [128, 3], "dtype": "float32"}, {"name": "StatefulPartitionedCall/functional_2_1/time_distributed_1_1/BiasAdd_26/ReadVariableOp", "shape": [3], "dtype": "float32"}, {"name": "StatefulPartitionedCall/functional_2_1/time_distributed_1_1/strided_slice_28/stack", "shape": [1], "dtype": "int32"}, {"name": "StatefulPartitionedCall/functional_2_1/time_distributed_1_1/strided_slice_28/stack_1", "shape": [1], "dtype": "int32"}, {"name": "StatefulPartitionedCall/functional_2_1/time_distributed_1_1/strided_slice_28/stack_2", "shape": [1], "dtype": "int32"}, {"name": "StatefulPartitionedCall/functional_2_1/time_distributed_1_1/Cast_27/ReadVariableOp", "shape": [128, 3], "dtype": "float32"}, {"name": "StatefulPartitionedCall/functional_2_1/time_distributed_1_1/BiasAdd_27/ReadVariableOp", "shape": [3], "dtype": "float32"}, {"name": "StatefulPartitionedCall/functional_2_1/time_distributed_1_1/strided_slice_29/stack", "shape": [1], "dtype": "int32"}, {"name": "StatefulPartitionedCall/functional_2_1/time_distributed_1_1/strided_slice_29/stack_1", "shape": [1], "dtype": "int32"}, {"name": "StatefulPartitionedCall/functional_2_1/time_distributed_1_1/strided_slice_29/stack_2", "shape": [1], "dtype": "int32"}, {"name": "StatefulPartitionedCall/functional_2_1/time_distributed_1_1/Cast_28/ReadVariableOp", "shape": [128, 3], "dtype": "float32"}, {"name": "StatefulPartitionedCall/functional_2_1/time_distributed_1_1/BiasAdd_28/ReadVariableOp", "shape": [3], "dtype": "float32"}, {"name": "StatefulPartitionedCall/functional_2_1/time_distributed_1_1/strided_slice_30/stack", "shape": [1], "dtype": "int32"}, {"name": "StatefulPartitionedCall/functional_2_1/time_distributed_1_1/strided_slice_30/stack_1", "shape": [1], "dtype": "int32"}, {"name": "StatefulPartitionedCall/functional_2_1/time_distributed_1_1/strided_slice_30/stack_2", "shape": [1], "dtype": "int32"}, {"name": "StatefulPartitionedCall/functional_2_1/time_distributed_1_1/Cast_29/ReadVariableOp", "shape": [128, 3], "dtype": "float32"}, {"name": "StatefulPartitionedCall/functional_2_1/time_distributed_1_1/BiasAdd_29/ReadVariableOp", "shape": [3], "dtype": "float32"}, {"name": "StatefulPartitionedCall/functional_2_1/time_distributed_1_1/strided_slice_31/stack", "shape": [1], "dtype": "int32"}, {"name": "StatefulPartitionedCall/functional_2_1/time_distributed_1_1/strided_slice_31/stack_1", "shape": [1], "dtype": "int32"}, {"name": "StatefulPartitionedCall/functional_2_1/time_distributed_1_1/strided_slice_31/stack_2", "shape": [1], "dtype": "int32"}, {"name": "StatefulPartitionedCall/functional_2_1/time_distributed_1_1/Cast_30/ReadVariableOp", "shape": [128, 3], "dtype": "float32"}, {"name": "StatefulPartitionedCall/functional_2_1/time_distributed_1_1/BiasAdd_30/ReadVariableOp", "shape": [3], "dtype": "float32"}, {"name": "StatefulPartitionedCall/functional_2_1/time_distributed_1_1/strided_slice_32/stack", "shape": [1], "dtype": "int32"}, {"name": "StatefulPartitionedCall/functional_2_1/time_distributed_1_1/strided_slice_32/stack_1", "shape": [1], "dtype": "int32"}, {"name": "StatefulPartitionedCall/functional_2_1/time_distributed_1_1/strided_slice_32/stack_2", "shape": [1], "dtype": "int32"}, {"name": "StatefulPartitionedCall/functional_2_1/time_distributed_1_1/Cast_31/ReadVariableOp", "shape": [128, 3], "dtype": "float32"}, {"name": "StatefulPartitionedCall/functional_2_1/time_distributed_1_1/BiasAdd_31/ReadVariableOp", "shape": [3], "dtype": "float32"}, {"name": "StatefulPartitionedCall/functional_2_1/time_distributed_1_1/strided_slice_33/stack", "shape": [1], "dtype": "int32"}, {"name": "StatefulPartitionedCall/functional_2_1/time_distributed_1_1/strided_slice_33/stack_1", "shape": [1], "dtype": "int32"}, {"name": "StatefulPartitionedCall/functional_2_1/time_distributed_1_1/strided_slice_33/stack_2", "shape": [1], "dtype": "int32"}, {"name": "StatefulPartitionedCall/functional_2_1/time_distributed_1_1/Cast_32/ReadVariableOp", "shape": [128, 3], "dtype": "float32"}, {"name": "StatefulPartitionedCall/functional_2_1/time_distributed_1_1/BiasAdd_32/ReadVariableOp", "shape": [3], "dtype": "float32"}, {"name": "StatefulPartitionedCall/functional_2_1/time_distributed_1_1/strided_slice_34/stack", "shape": [1], "dtype": "int32"}, {"name": "StatefulPartitionedCall/functional_2_1/time_distributed_1_1/strided_slice_34/stack_1", "shape": [1], "dtype": "int32"}, {"name": "StatefulPartitionedCall/functional_2_1/time_distributed_1_1/strided_slice_34/stack_2", "shape": [1], "dtype": "int32"}, {"name": "StatefulPartitionedCall/functional_2_1/time_distributed_1_1/Cast_33/ReadVariableOp", "shape": [128, 3], "dtype": "float32"}, {"name": "StatefulPartitionedCall/functional_2_1/time_distributed_1_1/BiasAdd_33/ReadVariableOp", "shape": [3], "dtype": "float32"}, {"name": "StatefulPartitionedCall/functional_2_1/time_distributed_1_1/strided_slice_35/stack", "shape": [1], "dtype": "int32"}, {"name": "StatefulPartitionedCall/functional_2_1/time_distributed_1_1/strided_slice_35/stack_1", "shape": [1], "dtype": "int32"}, {"name": "StatefulPartitionedCall/functional_2_1/time_distributed_1_1/strided_slice_35/stack_2", "shape": [1], "dtype": "int32"}, {"name": "StatefulPartitionedCall/functional_2_1/time_distributed_1_1/Cast_34/ReadVariableOp", "shape": [128, 3], "dtype": "float32"}, {"name": "StatefulPartitionedCall/functional_2_1/time_distributed_1_1/BiasAdd_34/ReadVariableOp", "shape": [3], "dtype": "float32"}, {"name": "StatefulPartitionedCall/functional_2_1/time_distributed_1_1/strided_slice_36/stack", "shape": [1], "dtype": "int32"}, {"name": "StatefulPartitionedCall/functional_2_1/time_distributed_1_1/strided_slice_36/stack_1", "shape": [1], "dtype": "int32"}, {"name": "StatefulPartitionedCall/functional_2_1/time_distributed_1_1/strided_slice_36/stack_2", "shape": [1], "dtype": "int32"}, {"name": "StatefulPartitionedCall/functional_2_1/time_distributed_1_1/Cast_35/ReadVariableOp", "shape": [128, 3], "dtype": "float32"}, {"name": "StatefulPartitionedCall/functional_2_1/time_distributed_1_1/BiasAdd_35/ReadVariableOp", "shape": [3], "dtype": "float32"}, {"name": "StatefulPartitionedCall/functional_2_1/time_distributed_1_1/strided_slice_37/stack", "shape": [1], "dtype": "int32"}, {"name": "StatefulPartitionedCall/functional_2_1/time_distributed_1_1/strided_slice_37/stack_1", "shape": [1], "dtype": "int32"}, {"name": "StatefulPartitionedCall/functional_2_1/time_distributed_1_1/strided_slice_37/stack_2", "shape": [1], "dtype": "int32"}, {"name": "StatefulPartitionedCall/functional_2_1/time_distributed_1_1/Cast_36/ReadVariableOp", "shape": [128, 3], "dtype": "float32"}, {"name": "StatefulPartitionedCall/functional_2_1/time_distributed_1_1/BiasAdd_36/ReadVariableOp", "shape": [3], "dtype": "float32"}, {"name": "StatefulPartitionedCall/functional_2_1/time_distributed_1_1/strided_slice_38/stack", "shape": [1], "dtype": "int32"}, {"name": "StatefulPartitionedCall/functional_2_1/time_distributed_1_1/strided_slice_38/stack_1", "shape": [1], "dtype": "int32"}, {"name": "StatefulPartitionedCall/functional_2_1/time_distributed_1_1/strided_slice_38/stack_2", "shape": [1], "dtype": "int32"}, {"name": "StatefulPartitionedCall/functional_2_1/time_distributed_1_1/Cast_37/ReadVariableOp", "shape": [128, 3], "dtype": "float32"}, {"name": "StatefulPartitionedCall/functional_2_1/time_distributed_1_1/BiasAdd_37/ReadVariableOp", "shape": [3], "dtype": "float32"}, {"name": "StatefulPartitionedCall/functional_2_1/time_distributed_1_1/strided_slice_39/stack", "shape": [1], "dtype": "int32"}, {"name": "StatefulPartitionedCall/functional_2_1/time_distributed_1_1/strided_slice_39/stack_1", "shape": [1], "dtype": "int32"}, {"name": "StatefulPartitionedCall/functional_2_1/time_distributed_1_1/strided_slice_39/stack_2", "shape": [1], "dtype": "int32"}, {"name": "StatefulPartitionedCall/functional_2_1/time_distributed_1_1/Cast_38/ReadVariableOp", "shape": [128, 3], "dtype": "float32"}, {"name": "StatefulPartitionedCall/functional_2_1/time_distributed_1_1/BiasAdd_38/ReadVariableOp", "shape": [3], "dtype": "float32"}, {"name": "StatefulPartitionedCall/functional_2_1/time_distributed_1_1/strided_slice_40/stack", "shape": [1], "dtype": "int32"}, {"name": "StatefulPartitionedCall/functional_2_1/time_distributed_1_1/strided_slice_40/stack_1", "shape": [1], "dtype": "int32"}, {"name": "StatefulPartitionedCall/functional_2_1/time_distributed_1_1/strided_slice_40/stack_2", "shape": [1], "dtype": "int32"}, {"name": "StatefulPartitionedCall/functional_2_1/time_distributed_1_1/Cast_39/ReadVariableOp", "shape": [128, 3], "dtype": "float32"}, {"name": "StatefulPartitionedCall/functional_2_1/time_distributed_1_1/BiasAdd_39/ReadVariableOp", "shape": [3], "dtype": "float32"}, {"name": "StatefulPartitionedCall/functional_2_1/time_distributed_1_1/strided_slice_41/stack", "shape": [1], "dtype": "int32"}, {"name": "StatefulPartitionedCall/functional_2_1/time_distributed_1_1/strided_slice_41/stack_1", "shape": [1], "dtype": "int32"}, {"name": "StatefulPartitionedCall/functional_2_1/time_distributed_1_1/strided_slice_41/stack_2", "shape": [1], "dtype": "int32"}, {"name": "StatefulPartitionedCall/functional_2_1/time_distributed_1_1/Cast_40/ReadVariableOp", "shape": [128, 3], "dtype": "float32"}, {"name": "StatefulPartitionedCall/functional_2_1/time_distributed_1_1/BiasAdd_40/ReadVariableOp", "shape": [3], "dtype": "float32"}, {"name": "StatefulPartitionedCall/functional_2_1/time_distributed_1_1/strided_slice_42/stack", "shape": [1], "dtype": "int32"}, {"name": "StatefulPartitionedCall/functional_2_1/time_distributed_1_1/strided_slice_42/stack_1", "shape": [1], "dtype": "int32"}, {"name": "StatefulPartitionedCall/functional_2_1/time_distributed_1_1/strided_slice_42/stack_2", "shape": [1], "dtype": "int32"}, {"name": "StatefulPartitionedCall/functional_2_1/time_distributed_1_1/Cast_41/ReadVariableOp", "shape": [128, 3], "dtype": "float32"}, {"name": "StatefulPartitionedCall/functional_2_1/time_distributed_1_1/BiasAdd_41/ReadVariableOp", "shape": [3], "dtype": "float32"}, {"name": "StatefulPartitionedCall/functional_2_1/time_distributed_1_1/strided_slice_43/stack", "shape": [1], "dtype": "int32"}, {"name": "StatefulPartitionedCall/functional_2_1/time_distributed_1_1/strided_slice_43/stack_1", "shape": [1], "dtype": "int32"}, {"name": "StatefulPartitionedCall/functional_2_1/time_distributed_1_1/strided_slice_43/stack_2", "shape": [1], "dtype": "int32"}, {"name": "StatefulPartitionedCall/functional_2_1/time_distributed_1_1/Cast_42/ReadVariableOp", "shape": [128, 3], "dtype": "float32"}, {"name": "StatefulPartitionedCall/functional_2_1/time_distributed_1_1/BiasAdd_42/ReadVariableOp", "shape": [3], "dtype": "float32"}, {"name": "StatefulPartitionedCall/functional_2_1/time_distributed_1_1/strided_slice_44/stack", "shape": [1], "dtype": "int32"}, {"name": "StatefulPartitionedCall/functional_2_1/time_distributed_1_1/strided_slice_44/stack_1", "shape": [1], "dtype": "int32"}, {"name": "StatefulPartitionedCall/functional_2_1/time_distributed_1_1/strided_slice_44/stack_2", "shape": [1], "dtype": "int32"}, {"name": "StatefulPartitionedCall/functional_2_1/time_distributed_1_1/Cast_43/ReadVariableOp", "shape": [128, 3], "dtype": "float32"}, {"name": "StatefulPartitionedCall/functional_2_1/time_distributed_1_1/BiasAdd_43/ReadVariableOp", "shape": [3], "dtype": "float32"}, {"name": "StatefulPartitionedCall/functional_2_1/time_distributed_1_1/strided_slice_45/stack", "shape": [1], "dtype": "int32"}, {"name": "StatefulPartitionedCall/functional_2_1/time_distributed_1_1/strided_slice_45/stack_1", "shape": [1], "dtype": "int32"}, {"name": "StatefulPartitionedCall/functional_2_1/time_distributed_1_1/strided_slice_45/stack_2", "shape": [1], "dtype": "int32"}, {"name": "StatefulPartitionedCall/functional_2_1/time_distributed_1_1/Cast_44/ReadVariableOp", "shape": [128, 3], "dtype": "float32"}, {"name": "StatefulPartitionedCall/functional_2_1/time_distributed_1_1/BiasAdd_44/ReadVariableOp", "shape": [3], "dtype": "float32"}, {"name": "StatefulPartitionedCall/functional_2_1/time_distributed_1_1/strided_slice_46/stack", "shape": [1], "dtype": "int32"}, {"name": "StatefulPartitionedCall/functional_2_1/time_distributed_1_1/strided_slice_46/stack_1", "shape": [1], "dtype": "int32"}, {"name": "StatefulPartitionedCall/functional_2_1/time_distributed_1_1/strided_slice_46/stack_2", "shape": [1], "dtype": "int32"}, {"name": "StatefulPartitionedCall/functional_2_1/time_distributed_1_1/Cast_45/ReadVariableOp", "shape": [128, 3], "dtype": "float32"}, {"name": "StatefulPartitionedCall/functional_2_1/time_distributed_1_1/BiasAdd_45/ReadVariableOp", "shape": [3], "dtype": "float32"}, {"name": "StatefulPartitionedCall/functional_2_1/time_distributed_1_1/strided_slice_47/stack", "shape": [1], "dtype": "int32"}, {"name": "StatefulPartitionedCall/functional_2_1/time_distributed_1_1/strided_slice_47/stack_1", "shape": [1], "dtype": "int32"}, {"name": "StatefulPartitionedCall/functional_2_1/time_distributed_1_1/strided_slice_47/stack_2", "shape": [1], "dtype": "int32"}, {"name": "StatefulPartitionedCall/functional_2_1/time_distributed_1_1/Cast_46/ReadVariableOp", "shape": [128, 3], "dtype": "float32"}, {"name": "StatefulPartitionedCall/functional_2_1/time_distributed_1_1/BiasAdd_46/ReadVariableOp", "shape": [3], "dtype": "float32"}, {"name": "StatefulPartitionedCall/functional_2_1/time_distributed_1_1/strided_slice_48/stack", "shape": [1], "dtype": "int32"}, {"name": "StatefulPartitionedCall/functional_2_1/time_distributed_1_1/strided_slice_48/stack_1", "shape": [1], "dtype": "int32"}, {"name": "StatefulPartitionedCall/functional_2_1/time_distributed_1_1/strided_slice_48/stack_2", "shape": [1], "dtype": "int32"}, {"name": "StatefulPartitionedCall/functional_2_1/time_distributed_1_1/Cast_47/ReadVariableOp", "shape": [128, 3], "dtype": "float32"}, {"name": "StatefulPartitionedCall/functional_2_1/time_distributed_1_1/BiasAdd_47/ReadVariableOp", "shape": [3], "dtype": "float32"}, {"name": "StatefulPartitionedCall/functional_2_1/time_distributed_1_1/strided_slice_49/stack", "shape": [1], "dtype": "int32"}, {"name": "StatefulPartitionedCall/functional_2_1/time_distributed_1_1/strided_slice_49/stack_1", "shape": [1], "dtype": "int32"}, {"name": "StatefulPartitionedCall/functional_2_1/time_distributed_1_1/strided_slice_49/stack_2", "shape": [1], "dtype": "int32"}, {"name": "StatefulPartitionedCall/functional_2_1/time_distributed_1_1/Cast_48/ReadVariableOp", "shape": [128, 3], "dtype": "float32"}, {"name": "StatefulPartitionedCall/functional_2_1/time_distributed_1_1/BiasAdd_48/ReadVariableOp", "shape": [3], "dtype": "float32"}, {"name": "StatefulPartitionedCall/functional_2_1/lstm_7_1/TensorArrayV2Stack/TensorListStack/element_shape", "shape": [2], "dtype": "int32"}, {"name": "StatefulPartitionedCall/functional_2_1/time_distributed_1_1/strided_slice_50/stack", "shape": [1], "dtype": "int32"}, {"name": "StatefulPartitionedCall/functional_2_1/time_distributed_1_1/strided_slice_50/stack_1", "shape": [1], "dtype": "int32"}, {"name": "StatefulPartitionedCall/functional_2_1/time_distributed_1_1/strided_slice_50/stack_2", "shape": [1], "dtype": "int32"}, {"name": "StatefulPartitionedCall/functional_2_1/time_distributed_1_1/Cast_49/ReadVariableOp", "shape": [128, 3], "dtype": "float32"}, {"name": "StatefulPartitionedCall/functional_2_1/time_distributed_1_1/BiasAdd_49/ReadVariableOp", "shape": [3], "dtype": "float32"}, {"name": "StatefulPartitionedCall/functional_2_1/time_distributed_1_1/transpose_1/perm", "shape": [3], "dtype": "int32"}, {"name": "StatefulPartitionedCall/functional_2_1/lstm_7_1/Max", "shape": [], "dtype": "int32"}, {"name": "StatefulPartitionedCall/functional_2_1/lstm_7_1/while/loop_counter", "shape": [], "dtype": "int32"}, {"name": "StatefulPartitionedCall/functional_2_1/lstm_7_1/time", "shape": [], "dtype": "int32"}, {"name": "Func/StatefulPartitionedCall/input/_4", "shape": [128, 512], "dtype": "float32"}, {"name": "Func/StatefulPartitionedCall/input/_5", "shape": [128, 512], "dtype": "float32"}, {"name": "Func/StatefulPartitionedCall/input/_6", "shape": [512], "dtype": "float32"}, {"name": "StatefulPartitionedCall/functional_2_1/lstm_7_1/transpose/perm", "shape": [3], "dtype": "int32"}, {"name": "StatefulPartitionedCall/functional_2_1/lstm_7_1/TensorArrayUnstack/TensorListFromTensor/element_shape", "shape": [2], "dtype": "int32"}, {"name": "StatefulPartitionedCall/functional_2_1/lstm_7_1/TensorArrayV2_1/element_shape", "shape": [2], "dtype": "int32"}, {"name": "StatefulPartitionedCall/functional_2_1/lstm_7_1/TensorArrayV2_1/num_elements", "shape": [], "dtype": "int32"}, {"name": "StatefulPartitionedCall/functional_2_1/lstm_7_1/zeros/packed/1", "shape": [], "dtype": "int32"}, {"name": "StatefulPartitionedCall/functional_2_1/lstm_7_1/zeros/Const", "shape": [], "dtype": "float32"}, {"name": "StatefulPartitionedCall/functional_2_1/repeat_vector_3_1/Repeat/ExpandDims/dim", "shape": [], "dtype": "int32"}, {"name": "StatefulPartitionedCall/functional_2_1/repeat_vector_3_1/Repeat/Tile/multiples", "shape": [4], "dtype": "int32"}, {"name": "StatefulPartitionedCall/functional_2_1/repeat_vector_3_1/Repeat/strided_slice/stack", "shape": [1], "dtype": "int32"}, {"name": "StatefulPartitionedCall/functional_2_1/repeat_vector_3_1/Repeat/strided_slice/stack_1", "shape": [1], "dtype": "int32"}, {"name": "StatefulPartitionedCall/functional_2_1/repeat_vector_3_1/Repeat/strided_slice/stack_2", "shape": [1], "dtype": "int32"}, {"name": "StatefulPartitionedCall/functional_2_1/repeat_vector_3_1/Repeat/Reshape", "shape": [], "dtype": "int32"}, {"name": "StatefulPartitionedCall/functional_2_1/repeat_vector_3_1/Repeat/strided_slice_1/stack", "shape": [1], "dtype": "int32"}, {"name": "StatefulPartitionedCall/functional_2_1/repeat_vector_3_1/Repeat/strided_slice_1/stack_1", "shape": [1], "dtype": "int32"}, {"name": "StatefulPartitionedCall/functional_2_1/repeat_vector_3_1/Repeat/strided_slice_1/stack_2", "shape": [1], "dtype": "int32"}, {"name": "StatefulPartitionedCall/functional_2_1/lstm_6_1/Max", "shape": [], "dtype": "int32"}, {"name": "StatefulPartitionedCall/functional_2_1/lstm_6_1/while/loop_counter", "shape": [], "dtype": "int32"}, {"name": "StatefulPartitionedCall/functional_2_1/lstm_6_1/time", "shape": [], "dtype": "int32"}, {"name": "Func/StatefulPartitionedCall/input/_1", "shape": [3, 512], "dtype": "float32"}, {"name": "Func/StatefulPartitionedCall/input/_2", "shape": [128, 512], "dtype": "float32"}, {"name": "Func/StatefulPartitionedCall/input/_3", "shape": [512], "dtype": "float32"}, {"name": "StatefulPartitionedCall/functional_2_1/lstm_6_1/transpose/perm", "shape": [3], "dtype": "int32"}, {"name": "StatefulPartitionedCall/functional_2_1/lstm_6_1/TensorArrayUnstack/TensorListFromTensor/element_shape", "shape": [2], "dtype": "int32"}, {"name": "StatefulPartitionedCall/functional_2_1/lstm_6_1/TensorArrayV2_1/element_shape", "shape": [2], "dtype": "int32"}, {"name": "StatefulPartitionedCall/functional_2_1/lstm_6_1/TensorArrayV2_1/num_elements", "shape": [], "dtype": "int32"}, {"name": "StatefulPartitionedCall/functional_2_1/lstm_6_1/zeros/packed/1", "shape": [], "dtype": "int32"}, {"name": "StatefulPartitionedCall/functional_2_1/lstm_6_1/zeros/Const", "shape": [], "dtype": "float32"}, {"name": "StatefulPartitionedCall/functional_2_1/lstm_6_1/strided_slice/stack", "shape": [1], "dtype": "int32"}, {"name": "StatefulPartitionedCall/functional_2_1/lstm_6_1/strided_slice/stack_1", "shape": [1], "dtype": "int32"}, {"name": "StatefulPartitionedCall/functional_2_1/lstm_6_1/strided_slice/stack_2", "shape": [1], "dtype": "int32"}, {"name": "StatefulPartitionedCall/functional_2_1/lstm_6_1/zeros_1/packed/1", "shape": [], "dtype": "int32"}, {"name": "StatefulPartitionedCall/functional_2_1/lstm_6_1/zeros_1/Const", "shape": [], "dtype": "float32"}, {"name": "StatefulPartitionedCall/functional_2_1/lstm_6_1/TensorArrayV2Stack/TensorListStack/element_shape", "shape": [2], "dtype": "int32"}, {"name": "StatefulPartitionedCall/functional_2_1/lstm_6_1/strided_slice_3/stack", "shape": [1], "dtype": "int32"}, {"name": "StatefulPartitionedCall/functional_2_1/lstm_6_1/strided_slice_3/stack_1", "shape": [1], "dtype": "int32"}, {"name": "StatefulPartitionedCall/functional_2_1/lstm_6_1/strided_slice_3/stack_2", "shape": [1], "dtype": "int32"}, {"name": "StatefulPartitionedCall/functional_2_1/repeat_vector_3_1/strided_slice/stack", "shape": [1], "dtype": "int32"}, {"name": "StatefulPartitionedCall/functional_2_1/repeat_vector_3_1/strided_slice/stack_1", "shape": [1], "dtype": "int32"}, {"name": "StatefulPartitionedCall/functional_2_1/repeat_vector_3_1/strided_slice/stack_2", "shape": [1], "dtype": "int32"}, {"name": "StatefulPartitionedCall/functional_2_1/repeat_vector_3_1/Reshape/shape/1", "shape": [], "dtype": "int32"}, {"name": "StatefulPartitionedCall/functional_2_1/repeat_vector_3_1/Reshape/shape/2", "shape": [], "dtype": "int32"}, {"name": "StatefulPartitionedCall/functional_2_1/repeat_vector_3_1/Repeat/strided_slice_2/stack", "shape": [1], "dtype": "int32"}, {"name": "StatefulPartitionedCall/functional_2_1/repeat_vector_3_1/Repeat/strided_slice_2/stack_1", "shape": [1], "dtype": "int32"}, {"name": "StatefulPartitionedCall/functional_2_1/repeat_vector_3_1/Repeat/strided_slice_2/stack_2", "shape": [1], "dtype": "int32"}, {"name": "StatefulPartitionedCall/functional_2_1/repeat_vector_3_1/Repeat/concat/axis", "shape": [], "dtype": "int32"}, {"name": "StatefulPartitionedCall/functional_2_1/lstm_7_1/strided_slice/stack", "shape": [1], "dtype": "int32"}, {"name": "StatefulPartitionedCall/functional_2_1/lstm_7_1/strided_slice/stack_1", "shape": [1], "dtype": "int32"}, {"name": "StatefulPartitionedCall/functional_2_1/lstm_7_1/strided_slice/stack_2", "shape": [1], "dtype": "int32"}, {"name": "StatefulPartitionedCall/functional_2_1/lstm_7_1/zeros_1/packed/1", "shape": [], "dtype": "int32"}, {"name": "StatefulPartitionedCall/functional_2_1/lstm_7_1/zeros_1/Const", "shape": [], "dtype": "float32"}, {"name": "StatefulPartitionedCall/functional_2_1/lstm_6_1/while/cond/_11/functional_2_1/lstm_6_1/while/Less/y", "shape": [], "dtype": "int32"}, {"name": "StatefulPartitionedCall/functional_2_1/lstm_6_1/while/body/_12/functional_2_1/lstm_6_1/while/TensorArrayV2Write/TensorListSetItem/index", "shape": [], "dtype": "int32"}, {"name": "StatefulPartitionedCall/functional_2_1/lstm_6_1/while/body/_12/functional_2_1/lstm_6_1/while/add_1/y", "shape": [], "dtype": "int32"}, {"name": "StatefulPartitionedCall/functional_2_1/lstm_6_1/while/body/_12/functional_2_1/lstm_6_1/while/lstm_cell_1/split/split_dim", "shape": [], "dtype": "int32"}, {"name": "StatefulPartitionedCall/functional_2_1/lstm_6_1/while/body/_12/functional_2_1/lstm_6_1/while/add/y", "shape": [], "dtype": "int32"}, {"name": "StatefulPartitionedCall/functional_2_1/lstm_6_1/while/body/_12/functional_2_1/lstm_6_1/while/TensorArrayV2Read/TensorListGetItem/element_shape", "shape": [2], "dtype": "int32"}, {"name": "StatefulPartitionedCall/functional_2_1/lstm_6_1/while/body/_12/functional_2_1/lstm_6_1/while/lstm_cell_1/Cast/ReadVariableOp", "shape": [3, 512], "dtype": "float32"}, {"name": "StatefulPartitionedCall/functional_2_1/lstm_6_1/while/body/_12/functional_2_1/lstm_6_1/while/lstm_cell_1/Cast_1/ReadVariableOp", "shape": [128, 512], "dtype": "float32"}, {"name": "StatefulPartitionedCall/functional_2_1/lstm_6_1/while/body/_12/functional_2_1/lstm_6_1/while/lstm_cell_1/add_1/ReadVariableOp", "shape": [512], "dtype": "float32"}, {"name": "ConstantFolding/StatefulPartitionedCall/functional_2_1/repeat_vector_3_1/Repeat/concat/values_1_const_axis", "shape": [], "dtype": "int32"}, {"name": "StatefulPartitionedCall/functional_2_1/lstm_7_1/while/cond/_55/functional_2_1/lstm_7_1/while/Less/y", "shape": [], "dtype": "int32"}, {"name": "StatefulPartitionedCall/functional_2_1/lstm_7_1/while/body/_56/functional_2_1/lstm_7_1/while/add_1/y", "shape": [], "dtype": "int32"}, {"name": "StatefulPartitionedCall/functional_2_1/lstm_7_1/while/body/_56/functional_2_1/lstm_7_1/while/lstm_cell_1/split/split_dim", "shape": [], "dtype": "int32"}, {"name": "StatefulPartitionedCall/functional_2_1/lstm_7_1/while/body/_56/functional_2_1/lstm_7_1/while/add/y", "shape": [], "dtype": "int32"}, {"name": "StatefulPartitionedCall/functional_2_1/lstm_7_1/while/body/_56/functional_2_1/lstm_7_1/while/TensorArrayV2Read/TensorListGetItem/element_shape", "shape": [2], "dtype": "int32"}, {"name": "StatefulPartitionedCall/functional_2_1/lstm_7_1/while/body/_56/functional_2_1/lstm_7_1/while/lstm_cell_1/Cast/ReadVariableOp", "shape": [128, 512], "dtype": "float32"}, {"name": "StatefulPartitionedCall/functional_2_1/lstm_7_1/while/body/_56/functional_2_1/lstm_7_1/while/lstm_cell_1/Cast_1/ReadVariableOp", "shape": [128, 512], "dtype": "float32"}, {"name": "StatefulPartitionedCall/functional_2_1/lstm_7_1/while/body/_56/functional_2_1/lstm_7_1/while/lstm_cell_1/add_1/ReadVariableOp", "shape": [512], "dtype": "float32"}]}]}