{"format": "graph-model", "generatedBy": "2.18.0", "convertedBy": "TensorFlow.js Converter v4.22.0", "signature": {"inputs": {"keras_tensor_18": {"name": "keras_tensor_18:0", "dtype": "DT_FLOAT", "tensorShape": {"dim": [{"size": "-1"}, {"size": "50"}, {"size": "3"}]}}}, "outputs": {"output_0": {"name": "Identity:0", "dtype": "DT_FLOAT", "tensorShape": {"dim": [{"size": "-1"}, {"size": "1"}]}}}}, "modelTopology": {"node": [{"name": "StatefulPartitionedCall/sequential_3_1/lstm_4_1/TensorArrayV2Stack/TensorListStack/element_shape", "op": "Const", "attr": {"value": {"tensor": {"dtype": "DT_INT32", "tensorShape": {"dim": [{"size": "2"}]}}}, "dtype": {"type": "DT_INT32"}}}, {"name": "StatefulPartitionedCall/sequential_3_1/lstm_4_1/strided_slice_3/stack", "op": "Const", "attr": {"value": {"tensor": {"dtype": "DT_INT32", "tensorShape": {"dim": [{"size": "1"}]}}}, "dtype": {"type": "DT_INT32"}}}, {"name": "StatefulPartitionedCall/sequential_3_1/lstm_4_1/strided_slice_3/stack_1", "op": "Const", "attr": {"value": {"tensor": {"dtype": "DT_INT32", "tensorShape": {"dim": [{"size": "1"}]}}}, "dtype": {"type": "DT_INT32"}}}, {"name": "StatefulPartitionedCall/sequential_3_1/lstm_4_1/strided_slice_3/stack_2", "op": "Const", "attr": {"value": {"tensor": {"dtype": "DT_INT32", "tensorShape": {"dim": [{"size": "1"}]}}}, "dtype": {"type": "DT_INT32"}}}, {"name": "StatefulPartitionedCall/sequential_3_1/dense_3_1/Cast/ReadVariableOp", "op": "Const", "attr": {"value": {"tensor": {"dtype": "DT_FLOAT", "tensorShape": {"dim": [{"size": "100"}, {"size": "1"}]}}}, "dtype": {"type": "DT_FLOAT"}}}, {"name": "StatefulPartitionedCall/sequential_3_1/dense_3_1/Add/ReadVariableOp", "op": "Const", "attr": {"value": {"tensor": {"dtype": "DT_FLOAT", "tensorShape": {"dim": [{"size": "1"}]}}}, "dtype": {"type": "DT_FLOAT"}}}, {"name": "StatefulPartitionedCall/sequential_3_1/lstm_4_1/Max", "op": "Const", "attr": {"value": {"tensor": {"dtype": "DT_INT32", "tensorShape": {}}}, "dtype": {"type": "DT_INT32"}}}, {"name": "StatefulPartitionedCall/sequential_3_1/lstm_4_1/while/loop_counter", "op": "Const", "attr": {"value": {"tensor": {"dtype": "DT_INT32", "tensorShape": {}}}, "_has_manual_control_dependencies": {"b": true}, "dtype": {"type": "DT_INT32"}}}, {"name": "StatefulPartitionedCall/sequential_3_1/lstm_4_1/time", "op": "Const", "attr": {"value": {"tensor": {"dtype": "DT_INT32", "tensorShape": {}}}, "_has_manual_control_dependencies": {"b": true}, "dtype": {"type": "DT_INT32"}}}, {"name": "Func/StatefulPartitionedCall/input/_6", "op": "Const", "attr": {"value": {"tensor": {"dtype": "DT_FLOAT", "tensorShape": {"dim": [{"size": "100"}, {"size": "400"}]}}}, "dtype": {"type": "DT_FLOAT"}}}, {"name": "Func/StatefulPartitionedCall/input/_7", "op": "Const", "attr": {"value": {"tensor": {"dtype": "DT_FLOAT", "tensorShape": {"dim": [{"size": "100"}, {"size": "400"}]}}}, "dtype": {"type": "DT_FLOAT"}}}, {"name": "Func/StatefulPartitionedCall/input/_8", "op": "Const", "attr": {"value": {"tensor": {"dtype": "DT_FLOAT", "tensorShape": {"dim": [{"size": "400"}]}}}, "dtype": {"type": "DT_FLOAT"}}}, {"name": "StatefulPartitionedCall/sequential_3_1/lstm_4_1/TensorArrayUnstack/TensorListFromTensor/element_shape", "op": "Const", "attr": {"value": {"tensor": {"dtype": "DT_INT32", "tensorShape": {"dim": [{"size": "2"}]}}}, "dtype": {"type": "DT_INT32"}}}, {"name": "StatefulPartitionedCall/sequential_3_1/lstm_4_1/TensorArrayV2_1/element_shape", "op": "Const", "attr": {"value": {"tensor": {"dtype": "DT_INT32", "tensorShape": {"dim": [{"size": "2"}]}}}, "dtype": {"type": "DT_INT32"}}}, {"name": "StatefulPartitionedCall/sequential_3_1/lstm_4_1/TensorArrayV2_1/num_elements", "op": "Const", "attr": {"value": {"tensor": {"dtype": "DT_INT32", "tensorShape": {}}}, "dtype": {"type": "DT_INT32"}}}, {"name": "StatefulPartitionedCall/sequential_3_1/lstm_4_1/zeros/packed/1", "op": "Const", "attr": {"value": {"tensor": {"dtype": "DT_INT32", "tensorShape": {}}}, "dtype": {"type": "DT_INT32"}}}, {"name": "StatefulPartitionedCall/sequential_3_1/lstm_4_1/zeros/Const", "op": "Const", "attr": {"value": {"tensor": {"dtype": "DT_FLOAT", "tensorShape": {}}}, "dtype": {"type": "DT_FLOAT"}}}, {"name": "StatefulPartitionedCall/sequential_3_1/lstm_3_1/Max", "op": "Const", "attr": {"value": {"tensor": {"dtype": "DT_INT32", "tensorShape": {}}}, "dtype": {"type": "DT_INT32"}}}, {"name": "StatefulPartitionedCall/sequential_3_1/lstm_3_1/while/loop_counter", "op": "Const", "attr": {"value": {"tensor": {"dtype": "DT_INT32", "tensorShape": {}}}, "_has_manual_control_dependencies": {"b": true}, "dtype": {"type": "DT_INT32"}}}, {"name": "StatefulPartitionedCall/sequential_3_1/lstm_3_1/time", "op": "Const", "attr": {"value": {"tensor": {"dtype": "DT_INT32", "tensorShape": {}}}, "_has_manual_control_dependencies": {"b": true}, "dtype": {"type": "DT_INT32"}}}, {"name": "Func/StatefulPartitionedCall/input/_3", "op": "Const", "attr": {"value": {"tensor": {"dtype": "DT_FLOAT", "tensorShape": {"dim": [{"size": "64"}, {"size": "400"}]}}}, "dtype": {"type": "DT_FLOAT"}}}, {"name": "Func/StatefulPartitionedCall/input/_4", "op": "Const", "attr": {"value": {"tensor": {"dtype": "DT_FLOAT", "tensorShape": {"dim": [{"size": "100"}, {"size": "400"}]}}}, "dtype": {"type": "DT_FLOAT"}}}, {"name": "Func/StatefulPartitionedCall/input/_5", "op": "Const", "attr": {"value": {"tensor": {"dtype": "DT_FLOAT", "tensorShape": {"dim": [{"size": "400"}]}}}, "dtype": {"type": "DT_FLOAT"}}}, {"name": "StatefulPartitionedCall/sequential_3_1/lstm_3_1/transpose/perm", "op": "Const", "attr": {"value": {"tensor": {"dtype": "DT_INT32", "tensorShape": {"dim": [{"size": "3"}]}}}, "dtype": {"type": "DT_INT32"}}}, {"name": "StatefulPartitionedCall/sequential_3_1/lstm_3_1/TensorArrayUnstack/TensorListFromTensor/element_shape", "op": "Const", "attr": {"value": {"tensor": {"dtype": "DT_INT32", "tensorShape": {"dim": [{"size": "2"}]}}}, "dtype": {"type": "DT_INT32"}}}, {"name": "StatefulPartitionedCall/sequential_3_1/lstm_3_1/TensorArrayV2_1/element_shape", "op": "Const", "attr": {"value": {"tensor": {"dtype": "DT_INT32", "tensorShape": {"dim": [{"size": "2"}]}}}, "dtype": {"type": "DT_INT32"}}}, {"name": "StatefulPartitionedCall/sequential_3_1/lstm_3_1/TensorArrayV2_1/num_elements", "op": "Const", "attr": {"value": {"tensor": {"dtype": "DT_INT32", "tensorShape": {}}}, "dtype": {"type": "DT_INT32"}}}, {"name": "StatefulPartitionedCall/sequential_3_1/lstm_3_1/zeros/packed/1", "op": "Const", "attr": {"value": {"tensor": {"dtype": "DT_INT32", "tensorShape": {}}}, "dtype": {"type": "DT_INT32"}}}, {"name": "StatefulPartitionedCall/sequential_3_1/lstm_3_1/zeros/Const", "op": "Const", "attr": {"value": {"tensor": {"dtype": "DT_FLOAT", "tensorShape": {}}}, "dtype": {"type": "DT_FLOAT"}}}, {"name": "StatefulPartitionedCall/sequential_3_1/conv1d_3_1/convolution/ExpandDims/dim", "op": "Const", "attr": {"value": {"tensor": {"dtype": "DT_INT32", "tensorShape": {}}}, "dtype": {"type": "DT_INT32"}}}, {"name": "StatefulPartitionedCall/sequential_3_1/conv1d_3_1/convolution/ExpandDims_1", "op": "Const", "attr": {"value": {"tensor": {"dtype": "DT_FLOAT", "tensorShape": {"dim": [{"size": "1"}, {"size": "3"}, {"size": "3"}, {"size": "64"}]}}}, "dtype": {"type": "DT_FLOAT"}}}, {"name": "StatefulPartitionedCall/sequential_3_1/conv1d_3_1/Squeeze", "op": "Const", "attr": {"value": {"tensor": {"dtype": "DT_FLOAT", "tensorShape": {"dim": [{"size": "64"}]}}}, "dtype": {"type": "DT_FLOAT"}}}, {"name": "StatefulPartitionedCall/sequential_3_1/max_pooling1d_3_1/MaxPool1d/ExpandDims/dim", "op": "Const", "attr": {"value": {"tensor": {"dtype": "DT_INT32", "tensorShape": {}}}, "dtype": {"type": "DT_INT32"}}}, {"name": "StatefulPartitionedCall/sequential_3_1/lstm_3_1/strided_slice/stack", "op": "Const", "attr": {"value": {"tensor": {"dtype": "DT_INT32", "tensorShape": {"dim": [{"size": "1"}]}}}, "dtype": {"type": "DT_INT32"}}}, {"name": "StatefulPartitionedCall/sequential_3_1/lstm_3_1/strided_slice/stack_1", "op": "Const", "attr": {"value": {"tensor": {"dtype": "DT_INT32", "tensorShape": {"dim": [{"size": "1"}]}}}, "dtype": {"type": "DT_INT32"}}}, {"name": "StatefulPartitionedCall/sequential_3_1/lstm_3_1/strided_slice/stack_2", "op": "Const", "attr": {"value": {"tensor": {"dtype": "DT_INT32", "tensorShape": {"dim": [{"size": "1"}]}}}, "dtype": {"type": "DT_INT32"}}}, {"name": "StatefulPartitionedCall/sequential_3_1/lstm_3_1/zeros_1/packed/1", "op": "Const", "attr": {"value": {"tensor": {"dtype": "DT_INT32", "tensorShape": {}}}, "dtype": {"type": "DT_INT32"}}}, {"name": "StatefulPartitionedCall/sequential_3_1/lstm_3_1/zeros_1/Const", "op": "Const", "attr": {"value": {"tensor": {"dtype": "DT_FLOAT", "tensorShape": {}}}, "dtype": {"type": "DT_FLOAT"}}}, {"name": "StatefulPartitionedCall/sequential_3_1/lstm_3_1/TensorArrayV2Stack/TensorListStack/element_shape", "op": "Const", "attr": {"value": {"tensor": {"dtype": "DT_INT32", "tensorShape": {"dim": [{"size": "2"}]}}}, "dtype": {"type": "DT_INT32"}}}, {"name": "StatefulPartitionedCall/sequential_3_1/lstm_3_1/transpose_1/perm", "op": "Const", "attr": {"value": {"tensor": {"dtype": "DT_INT32", "tensorShape": {"dim": [{"size": "3"}]}}}, "dtype": {"type": "DT_INT32"}}}, {"name": "StatefulPartitionedCall/sequential_3_1/lstm_4_1/strided_slice/stack", "op": "Const", "attr": {"value": {"tensor": {"dtype": "DT_INT32", "tensorShape": {"dim": [{"size": "1"}]}}}, "dtype": {"type": "DT_INT32"}}}, {"name": "StatefulPartitionedCall/sequential_3_1/lstm_4_1/strided_slice/stack_1", "op": "Const", "attr": {"value": {"tensor": {"dtype": "DT_INT32", "tensorShape": {"dim": [{"size": "1"}]}}}, "dtype": {"type": "DT_INT32"}}}, {"name": "StatefulPartitionedCall/sequential_3_1/lstm_4_1/strided_slice/stack_2", "op": "Const", "attr": {"value": {"tensor": {"dtype": "DT_INT32", "tensorShape": {"dim": [{"size": "1"}]}}}, "dtype": {"type": "DT_INT32"}}}, {"name": "StatefulPartitionedCall/sequential_3_1/lstm_4_1/zeros_1/packed/1", "op": "Const", "attr": {"value": {"tensor": {"dtype": "DT_INT32", "tensorShape": {}}}, "dtype": {"type": "DT_INT32"}}}, {"name": "StatefulPartitionedCall/sequential_3_1/lstm_4_1/zeros_1/Const", "op": "Const", "attr": {"value": {"tensor": {"dtype": "DT_FLOAT", "tensorShape": {}}}, "dtype": {"type": "DT_FLOAT"}}}, {"name": "keras_tensor_18", "op": "Placeholder", "attr": {"shape": {"shape": {"dim": [{"size": "-1"}, {"size": "50"}, {"size": "3"}]}}, "dtype": {"type": "DT_FLOAT"}}}, {"name": "StatefulPartitionedCall/sequential_3_1/lstm_4_1/TensorArrayV2_1", "op": "TensorListReserve", "input": ["StatefulPartitionedCall/sequential_3_1/lstm_4_1/TensorArrayV2_1/element_shape", "StatefulPartitionedCall/sequential_3_1/lstm_4_1/TensorArrayV2_1/num_elements"], "attr": {"shape_type": {"type": "DT_INT32"}, "element_dtype": {"type": "DT_FLOAT"}}, "experimentalType": {"typeId": "TFT_PRODUCT", "args": [{"typeId": "TFT_ARRAY", "args": [{"typeId": "TFT_TENSOR", "args": [{"typeId": "TFT_FLOAT"}]}]}]}}, {"name": "StatefulPartitionedCall/sequential_3_1/lstm_3_1/TensorArrayV2_1", "op": "TensorListReserve", "input": ["StatefulPartitionedCall/sequential_3_1/lstm_3_1/TensorArrayV2_1/element_shape", "StatefulPartitionedCall/sequential_3_1/lstm_3_1/TensorArrayV2_1/num_elements"], "attr": {"shape_type": {"type": "DT_INT32"}, "_has_manual_control_dependencies": {"b": true}, "element_dtype": {"type": "DT_FLOAT"}}, "experimentalType": {"typeId": "TFT_PRODUCT", "args": [{"typeId": "TFT_ARRAY", "args": [{"typeId": "TFT_TENSOR", "args": [{"typeId": "TFT_FLOAT"}]}]}]}}, {"name": "StatefulPartitionedCall/sequential_3_1/conv1d_3_1/convolution/ExpandDims", "op": "ExpandDims", "input": ["keras_tensor_18", "StatefulPartitionedCall/sequential_3_1/conv1d_3_1/convolution/ExpandDims/dim"], "attr": {"Tdim": {"type": "DT_INT32"}, "T": {"type": "DT_FLOAT"}}}, {"name": "StatefulPartitionedCall/sequential_3_1/conv1d_3_1/convolution", "op": "_FusedConv2D", "input": ["StatefulPartitionedCall/sequential_3_1/conv1d_3_1/convolution/ExpandDims", "StatefulPartitionedCall/sequential_3_1/conv1d_3_1/convolution/ExpandDims_1", "StatefulPartitionedCall/sequential_3_1/conv1d_3_1/Squeeze"], "device": "/device:CPU:0", "attr": {"num_host_args": {"i": "0"}, "data_format": {"s": "TkhXQw=="}, "filter_format": {"s": "SFdJTw=="}, "fused_ops": {"list": {"s": ["Qmlhc0FkZA=="]}}, "num_args": {"i": "1"}, "strides": {"list": {"i": ["1", "1", "1", "1"]}}, "TArgs": {"list": {"type": ["DT_FLOAT"]}}, "padding": {"s": "VkFMSUQ="}, "use_cudnn_on_gpu": {"b": true}, "leakyrelu_alpha": {"f": 0.2}, "epsilon": {"f": 0.0}, "T": {"type": "DT_FLOAT"}, "explicit_paddings": {"list": {}}, "dilations": {"list": {"i": ["1", "1", "1", "1"]}}}}, {"name": "StatefulPartitionedCall/sequential_3_1/conv1d_3_1/BiasAdd", "op": "Squeeze", "input": ["StatefulPartitionedCall/sequential_3_1/conv1d_3_1/convolution"], "attr": {"T": {"type": "DT_FLOAT"}, "squeeze_dims": {"list": {"i": ["-3"]}}}}, {"name": "StatefulPartitionedCall/sequential_3_1/conv1d_3_1/Relu", "op": "Relu", "input": ["StatefulPartitionedCall/sequential_3_1/conv1d_3_1/BiasAdd"], "attr": {"T": {"type": "DT_FLOAT"}}}, {"name": "StatefulPartitionedCall/sequential_3_1/max_pooling1d_3_1/MaxPool1d/ExpandDims", "op": "ExpandDims", "input": ["StatefulPartitionedCall/sequential_3_1/conv1d_3_1/Relu", "StatefulPartitionedCall/sequential_3_1/max_pooling1d_3_1/MaxPool1d/ExpandDims/dim"], "attr": {"Tdim": {"type": "DT_INT32"}, "T": {"type": "DT_FLOAT"}}}, {"name": "StatefulPartitionedCall/sequential_3_1/max_pooling1d_3_1/MaxPool1d", "op": "MaxPool", "input": ["StatefulPartitionedCall/sequential_3_1/max_pooling1d_3_1/MaxPool1d/ExpandDims"], "attr": {"ksize": {"list": {"i": ["1", "1", "2", "1"]}}, "data_format": {"s": "TkhXQw=="}, "T": {"type": "DT_FLOAT"}, "explicit_paddings": {"list": {}}, "padding": {"s": "VkFMSUQ="}, "strides": {"list": {"i": ["1", "1", "2", "1"]}}}}, {"name": "StatefulPartitionedCall/sequential_3_1/max_pooling1d_3_1/MaxPool1d/Squeeze", "op": "Squeeze", "input": ["StatefulPartitionedCall/sequential_3_1/max_pooling1d_3_1/MaxPool1d"], "attr": {"T": {"type": "DT_FLOAT"}, "squeeze_dims": {"list": {"i": ["1"]}}}}, {"name": "StatefulPartitionedCall/sequential_3_1/lstm_3_1/transpose", "op": "Transpose", "input": ["StatefulPartitionedCall/sequential_3_1/max_pooling1d_3_1/MaxPool1d/Squeeze", "StatefulPartitionedCall/sequential_3_1/lstm_3_1/transpose/perm"], "attr": {"Tperm": {"type": "DT_INT32"}, "T": {"type": "DT_FLOAT"}}}, {"name": "StatefulPartitionedCall/sequential_3_1/lstm_3_1/Shape", "op": "Shape", "input": ["StatefulPartitionedCall/sequential_3_1/max_pooling1d_3_1/MaxPool1d/Squeeze"], "attr": {"T": {"type": "DT_FLOAT"}, "out_type": {"type": "DT_INT32"}}, "experimentalType": {"typeId": "TFT_PRODUCT", "args": [{"typeId": "TFT_SHAPE_TENSOR", "args": [{"typeId": "TFT_INT32"}]}]}}, {"name": "StatefulPartitionedCall/sequential_3_1/lstm_3_1/TensorArrayUnstack/TensorListFromTensor", "op": "TensorListFromTensor", "input": ["StatefulPartitionedCall/sequential_3_1/lstm_3_1/transpose", "StatefulPartitionedCall/sequential_3_1/lstm_3_1/TensorArrayUnstack/TensorListFromTensor/element_shape"], "attr": {"shape_type": {"type": "DT_INT32"}, "_has_manual_control_dependencies": {"b": true}, "element_dtype": {"type": "DT_FLOAT"}}, "experimentalType": {"typeId": "TFT_PRODUCT", "args": [{"typeId": "TFT_ARRAY", "args": [{"typeId": "TFT_TENSOR", "args": [{"typeId": "TFT_FLOAT"}]}]}]}}, {"name": "StatefulPartitionedCall/sequential_3_1/lstm_3_1/strided_slice", "op": "StridedSlice", "input": ["StatefulPartitionedCall/sequential_3_1/lstm_3_1/Shape", "StatefulPartitionedCall/sequential_3_1/lstm_3_1/strided_slice/stack", "StatefulPartitionedCall/sequential_3_1/lstm_3_1/strided_slice/stack_1", "StatefulPartitionedCall/sequential_3_1/lstm_3_1/strided_slice/stack_2"], "attr": {"shrink_axis_mask": {"i": "1"}, "Index": {"type": "DT_INT32"}, "new_axis_mask": {"i": "0"}, "begin_mask": {"i": "0"}, "T": {"type": "DT_INT32"}, "end_mask": {"i": "0"}, "ellipsis_mask": {"i": "0"}}}, {"name": "StatefulPartitionedCall/sequential_3_1/lstm_3_1/zeros/packed", "op": "Pack", "input": ["StatefulPartitionedCall/sequential_3_1/lstm_3_1/strided_slice", "StatefulPartitionedCall/sequential_3_1/lstm_3_1/zeros/packed/1"], "attr": {"N": {"i": "2"}, "axis": {"i": "0"}, "T": {"type": "DT_INT32"}}}, {"name": "StatefulPartitionedCall/sequential_3_1/lstm_3_1/zeros_1/packed", "op": "Pack", "input": ["StatefulPartitionedCall/sequential_3_1/lstm_3_1/strided_slice", "StatefulPartitionedCall/sequential_3_1/lstm_3_1/zeros_1/packed/1"], "attr": {"N": {"i": "2"}, "axis": {"i": "0"}, "T": {"type": "DT_INT32"}}}, {"name": "StatefulPartitionedCall/sequential_3_1/lstm_3_1/zeros", "op": "Fill", "input": ["StatefulPartitionedCall/sequential_3_1/lstm_3_1/zeros/packed", "StatefulPartitionedCall/sequential_3_1/lstm_3_1/zeros/Const"], "attr": {"_has_manual_control_dependencies": {"b": true}, "T": {"type": "DT_FLOAT"}, "index_type": {"type": "DT_INT32"}}}, {"name": "StatefulPartitionedCall/sequential_3_1/lstm_3_1/zeros_1", "op": "Fill", "input": ["StatefulPartitionedCall/sequential_3_1/lstm_3_1/zeros_1/packed", "StatefulPartitionedCall/sequential_3_1/lstm_3_1/zeros_1/Const"], "attr": {"_has_manual_control_dependencies": {"b": true}, "T": {"type": "DT_FLOAT"}, "index_type": {"type": "DT_INT32"}}}, {"name": "StatefulPartitionedCall/sequential_3_1/lstm_3_1/while/LoopControlInputs/_25", "op": "NoOp", "input": ["^StatefulPartitionedCall/sequential_3_1/lstm_3_1/TensorArrayUnstack/TensorListFromTensor", "^StatefulPartitionedCall/sequential_3_1/lstm_3_1/TensorArrayV2_1", "^StatefulPartitionedCall/sequential_3_1/lstm_3_1/zeros", "^StatefulPartitionedCall/sequential_3_1/lstm_3_1/zeros_1"], "attr": {"_has_manual_control_dependencies": {"b": true}}}, {"name": "StatefulPartitionedCall/sequential_3_1/lstm_3_1/while/enter/_18", "op": "Enter", "input": ["StatefulPartitionedCall/sequential_3_1/lstm_3_1/TensorArrayV2_1", "^StatefulPartitionedCall/sequential_3_1/lstm_3_1/while/LoopControlInputs/_25"], "attr": {"is_constant": {"b": false}, "frame_name": {"s": "U3RhdGVmdWxQYXJ0aXRpb25lZENhbGwvc2VxdWVudGlhbF8zXzEvbHN0bV8zXzEvd2hpbGU="}, "T": {"type": "DT_VARIANT"}, "parallel_iterations": {"i": "32"}}}, {"name": "StatefulPartitionedCall/sequential_3_1/lstm_3_1/while/enter/_21", "op": "Enter", "input": ["StatefulPartitionedCall/sequential_3_1/lstm_3_1/TensorArrayUnstack/TensorListFromTensor", "^StatefulPartitionedCall/sequential_3_1/lstm_3_1/while/LoopControlInputs/_25"], "attr": {"is_constant": {"b": false}, "frame_name": {"s": "U3RhdGVmdWxQYXJ0aXRpb25lZENhbGwvc2VxdWVudGlhbF8zXzEvbHN0bV8zXzEvd2hpbGU="}, "T": {"type": "DT_VARIANT"}, "parallel_iterations": {"i": "32"}}}, {"name": "StatefulPartitionedCall/sequential_3_1/lstm_3_1/while/enter/_16", "op": "Enter", "input": ["StatefulPartitionedCall/sequential_3_1/lstm_3_1/Max", "^StatefulPartitionedCall/sequential_3_1/lstm_3_1/while/LoopControlInputs/_25"], "attr": {"is_constant": {"b": false}, "frame_name": {"s": "U3RhdGVmdWxQYXJ0aXRpb25lZENhbGwvc2VxdWVudGlhbF8zXzEvbHN0bV8zXzEvd2hpbGU="}, "T": {"type": "DT_INT32"}, "parallel_iterations": {"i": "32"}}}, {"name": "StatefulPartitionedCall/sequential_3_1/lstm_3_1/while/enter/_15", "op": "Enter", "input": ["StatefulPartitionedCall/sequential_3_1/lstm_3_1/while/loop_counter", "^StatefulPartitionedCall/sequential_3_1/lstm_3_1/while/LoopControlInputs/_25"], "attr": {"is_constant": {"b": false}, "frame_name": {"s": "U3RhdGVmdWxQYXJ0aXRpb25lZENhbGwvc2VxdWVudGlhbF8zXzEvbHN0bV8zXzEvd2hpbGU="}, "T": {"type": "DT_INT32"}, "parallel_iterations": {"i": "32"}}}, {"name": "StatefulPartitionedCall/sequential_3_1/lstm_3_1/while/enter/_19", "op": "Enter", "input": ["StatefulPartitionedCall/sequential_3_1/lstm_3_1/zeros", "^StatefulPartitionedCall/sequential_3_1/lstm_3_1/while/LoopControlInputs/_25"], "attr": {"is_constant": {"b": false}, "frame_name": {"s": "U3RhdGVmdWxQYXJ0aXRpb25lZENhbGwvc2VxdWVudGlhbF8zXzEvbHN0bV8zXzEvd2hpbGU="}, "T": {"type": "DT_FLOAT"}, "parallel_iterations": {"i": "32"}}}, {"name": "StatefulPartitionedCall/sequential_3_1/lstm_3_1/while/enter/_20", "op": "Enter", "input": ["StatefulPartitionedCall/sequential_3_1/lstm_3_1/zeros_1", "^StatefulPartitionedCall/sequential_3_1/lstm_3_1/while/LoopControlInputs/_25"], "attr": {"is_constant": {"b": false}, "frame_name": {"s": "U3RhdGVmdWxQYXJ0aXRpb25lZENhbGwvc2VxdWVudGlhbF8zXzEvbHN0bV8zXzEvd2hpbGU="}, "T": {"type": "DT_FLOAT"}, "parallel_iterations": {"i": "32"}}}, {"name": "StatefulPartitionedCall/sequential_3_1/lstm_3_1/while/enter/_17", "op": "Enter", "input": ["StatefulPartitionedCall/sequential_3_1/lstm_3_1/time", "^StatefulPartitionedCall/sequential_3_1/lstm_3_1/while/LoopControlInputs/_25"], "attr": {"is_constant": {"b": false}, "frame_name": {"s": "U3RhdGVmdWxQYXJ0aXRpb25lZENhbGwvc2VxdWVudGlhbF8zXzEvbHN0bV8zXzEvd2hpbGU="}, "T": {"type": "DT_INT32"}, "parallel_iterations": {"i": "32"}}}, {"name": "StatefulPartitionedCall/sequential_3_1/lstm_3_1/while/enter/_22", "op": "Enter", "input": ["Func/StatefulPartitionedCall/input/_3", "^StatefulPartitionedCall/sequential_3_1/lstm_3_1/while/LoopControlInputs/_25"], "attr": {"is_constant": {"b": true}, "_has_manual_control_dependencies": {"b": true}, "T": {"type": "DT_FLOAT"}, "frame_name": {"s": "U3RhdGVmdWxQYXJ0aXRpb25lZENhbGwvc2VxdWVudGlhbF8zXzEvbHN0bV8zXzEvd2hpbGU="}, "parallel_iterations": {"i": "32"}}}, {"name": "StatefulPartitionedCall/sequential_3_1/lstm_3_1/while/enter/_23", "op": "Enter", "input": ["Func/StatefulPartitionedCall/input/_4", "^StatefulPartitionedCall/sequential_3_1/lstm_3_1/while/LoopControlInputs/_25"], "attr": {"is_constant": {"b": true}, "_has_manual_control_dependencies": {"b": true}, "T": {"type": "DT_FLOAT"}, "frame_name": {"s": "U3RhdGVmdWxQYXJ0aXRpb25lZENhbGwvc2VxdWVudGlhbF8zXzEvbHN0bV8zXzEvd2hpbGU="}, "parallel_iterations": {"i": "32"}}}, {"name": "StatefulPartitionedCall/sequential_3_1/lstm_3_1/while/enter/_24", "op": "Enter", "input": ["Func/StatefulPartitionedCall/input/_5", "^StatefulPartitionedCall/sequential_3_1/lstm_3_1/while/LoopControlInputs/_25"], "attr": {"is_constant": {"b": true}, "_has_manual_control_dependencies": {"b": true}, "T": {"type": "DT_FLOAT"}, "frame_name": {"s": "U3RhdGVmdWxQYXJ0aXRpb25lZENhbGwvc2VxdWVudGlhbF8zXzEvbHN0bV8zXzEvd2hpbGU="}, "parallel_iterations": {"i": "32"}}}, {"name": "StatefulPartitionedCall/sequential_3_1/lstm_3_1/while/merge/_29", "op": "Merge", "input": ["StatefulPartitionedCall/sequential_3_1/lstm_3_1/while/enter/_18", "StatefulPartitionedCall/sequential_3_1/lstm_3_1/while/next_iteration/_53"], "attr": {"N": {"i": "2"}, "_has_manual_control_dependencies": {"b": true}, "T": {"type": "DT_VARIANT"}}}, {"name": "StatefulPartitionedCall/sequential_3_1/lstm_3_1/while/merge/_32", "op": "Merge", "input": ["StatefulPartitionedCall/sequential_3_1/lstm_3_1/while/enter/_21", "StatefulPartitionedCall/sequential_3_1/lstm_3_1/while/next_iteration/_56"], "attr": {"N": {"i": "2"}, "_has_manual_control_dependencies": {"b": true}, "T": {"type": "DT_VARIANT"}}}, {"name": "StatefulPartitionedCall/sequential_3_1/lstm_3_1/while/merge/_27", "op": "Merge", "input": ["StatefulPartitionedCall/sequential_3_1/lstm_3_1/while/enter/_16", "StatefulPartitionedCall/sequential_3_1/lstm_3_1/while/next_iteration/_51"], "attr": {"N": {"i": "2"}, "_has_manual_control_dependencies": {"b": true}, "T": {"type": "DT_INT32"}}}, {"name": "StatefulPartitionedCall/sequential_3_1/lstm_3_1/while/merge/_26", "op": "Merge", "input": ["StatefulPartitionedCall/sequential_3_1/lstm_3_1/while/enter/_15", "StatefulPartitionedCall/sequential_3_1/lstm_3_1/while/next_iteration/_50"], "attr": {"N": {"i": "2"}, "_has_manual_control_dependencies": {"b": true}, "T": {"type": "DT_INT32"}}}, {"name": "StatefulPartitionedCall/sequential_3_1/lstm_3_1/while/merge/_30", "op": "Merge", "input": ["StatefulPartitionedCall/sequential_3_1/lstm_3_1/while/enter/_19", "StatefulPartitionedCall/sequential_3_1/lstm_3_1/while/next_iteration/_54"], "attr": {"N": {"i": "2"}, "_has_manual_control_dependencies": {"b": true}, "T": {"type": "DT_FLOAT"}}}, {"name": "StatefulPartitionedCall/sequential_3_1/lstm_3_1/while/merge/_31", "op": "Merge", "input": ["StatefulPartitionedCall/sequential_3_1/lstm_3_1/while/enter/_20", "StatefulPartitionedCall/sequential_3_1/lstm_3_1/while/next_iteration/_55"], "attr": {"N": {"i": "2"}, "_has_manual_control_dependencies": {"b": true}, "T": {"type": "DT_FLOAT"}}}, {"name": "StatefulPartitionedCall/sequential_3_1/lstm_3_1/while/merge/_28", "op": "Merge", "input": ["StatefulPartitionedCall/sequential_3_1/lstm_3_1/while/enter/_17", "StatefulPartitionedCall/sequential_3_1/lstm_3_1/while/next_iteration/_52"], "attr": {"N": {"i": "2"}, "_has_manual_control_dependencies": {"b": true}, "T": {"type": "DT_INT32"}}}, {"name": "Func/StatefulPartitionedCall/sequential_3_1/lstm_3_1/while/cond/_13/input_control_node/_101", "op": "NoOp", "input": ["^StatefulPartitionedCall/sequential_3_1/lstm_3_1/while/enter/_22", "^StatefulPartitionedCall/sequential_3_1/lstm_3_1/while/enter/_23", "^StatefulPartitionedCall/sequential_3_1/lstm_3_1/while/enter/_24", "^StatefulPartitionedCall/sequential_3_1/lstm_3_1/while/merge/_26", "^StatefulPartitionedCall/sequential_3_1/lstm_3_1/while/merge/_27", "^StatefulPartitionedCall/sequential_3_1/lstm_3_1/while/merge/_28", "^StatefulPartitionedCall/sequential_3_1/lstm_3_1/while/merge/_29", "^StatefulPartitionedCall/sequential_3_1/lstm_3_1/while/merge/_30", "^StatefulPartitionedCall/sequential_3_1/lstm_3_1/while/merge/_31", "^StatefulPartitionedCall/sequential_3_1/lstm_3_1/while/merge/_32"], "attr": {"_has_manual_control_dependencies": {"b": true}}}, {"name": "StatefulPartitionedCall/sequential_3_1/lstm_3_1/while/cond/_13/sequential_3_1/lstm_3_1/while/Less_1", "op": "Less", "input": ["StatefulPartitionedCall/sequential_3_1/lstm_3_1/while/merge/_26", "StatefulPartitionedCall/sequential_3_1/lstm_3_1/while/merge/_27", "^Func/StatefulPartitionedCall/sequential_3_1/lstm_3_1/while/cond/_13/input_control_node/_101"], "attr": {"T": {"type": "DT_INT32"}}}, {"name": "StatefulPartitionedCall/sequential_3_1/lstm_3_1/while/cond/_13/sequential_3_1/lstm_3_1/while/Less/y", "op": "Const", "input": ["^Func/StatefulPartitionedCall/sequential_3_1/lstm_3_1/while/cond/_13/input_control_node/_101"], "attr": {"value": {"tensor": {"dtype": "DT_INT32", "tensorShape": {}}}, "dtype": {"type": "DT_INT32"}}}, {"name": "StatefulPartitionedCall/sequential_3_1/lstm_3_1/while/cond/_13/sequential_3_1/lstm_3_1/while/Less", "op": "Less", "input": ["StatefulPartitionedCall/sequential_3_1/lstm_3_1/while/merge/_28", "StatefulPartitionedCall/sequential_3_1/lstm_3_1/while/cond/_13/sequential_3_1/lstm_3_1/while/Less/y"], "attr": {"T": {"type": "DT_INT32"}}}, {"name": "StatefulPartitionedCall/sequential_3_1/lstm_3_1/while/cond/_13/sequential_3_1/lstm_3_1/while/LogicalAnd", "op": "LogicalAnd", "input": ["StatefulPartitionedCall/sequential_3_1/lstm_3_1/while/cond/_13/sequential_3_1/lstm_3_1/while/Less_1", "StatefulPartitionedCall/sequential_3_1/lstm_3_1/while/cond/_13/sequential_3_1/lstm_3_1/while/Less"]}, {"name": "StatefulPartitionedCall/sequential_3_1/lstm_3_1/while/LoopCond/_33", "op": "LoopCond", "input": ["StatefulPartitionedCall/sequential_3_1/lstm_3_1/while/cond/_13/sequential_3_1/lstm_3_1/while/LogicalAnd"]}, {"name": "StatefulPartitionedCall/sequential_3_1/lstm_3_1/while/StatefulPartitionedCall/sequential_3_1/lstm_3_1/Max_switch/_35", "op": "Switch", "input": ["StatefulPartitionedCall/sequential_3_1/lstm_3_1/while/merge/_27", "StatefulPartitionedCall/sequential_3_1/lstm_3_1/while/LoopCond/_33"], "attr": {"_has_manual_control_dependencies": {"b": true}, "T": {"type": "DT_INT32"}}}, {"name": "StatefulPartitionedCall/sequential_3_1/lstm_3_1/while/StatefulPartitionedCall/sequential_3_1/lstm_3_1/while/loop_counter_switch/_34", "op": "Switch", "input": ["StatefulPartitionedCall/sequential_3_1/lstm_3_1/while/merge/_26", "StatefulPartitionedCall/sequential_3_1/lstm_3_1/while/LoopCond/_33"], "attr": {"T": {"type": "DT_INT32"}}}, {"name": "StatefulPartitionedCall/sequential_3_1/lstm_3_1/while/StatefulPartitionedCall/sequential_3_1/lstm_3_1/zeros_1_switch/_39", "op": "Switch", "input": ["StatefulPartitionedCall/sequential_3_1/lstm_3_1/while/merge/_31", "StatefulPartitionedCall/sequential_3_1/lstm_3_1/while/LoopCond/_33"], "attr": {"_has_manual_control_dependencies": {"b": true}, "T": {"type": "DT_FLOAT"}}}, {"name": "StatefulPartitionedCall/sequential_3_1/lstm_3_1/while/StatefulPartitionedCall/sequential_3_1/lstm_3_1/TensorArrayUnstack/TensorListFromTensor_switch/_40", "op": "Switch", "input": ["StatefulPartitionedCall/sequential_3_1/lstm_3_1/while/merge/_32", "StatefulPartitionedCall/sequential_3_1/lstm_3_1/while/LoopCond/_33"], "attr": {"_has_manual_control_dependencies": {"b": true}, "T": {"type": "DT_VARIANT"}}}, {"name": "StatefulPartitionedCall/sequential_3_1/lstm_3_1/while/StatefulPartitionedCall/sequential_3_1/lstm_3_1/time_switch/_36", "op": "Switch", "input": ["StatefulPartitionedCall/sequential_3_1/lstm_3_1/while/merge/_28", "StatefulPartitionedCall/sequential_3_1/lstm_3_1/while/LoopCond/_33"], "attr": {"_has_manual_control_dependencies": {"b": true}, "T": {"type": "DT_INT32"}}}, {"name": "StatefulPartitionedCall/sequential_3_1/lstm_3_1/while/StatefulPartitionedCall/sequential_3_1/lstm_3_1/zeros_switch/_38", "op": "Switch", "input": ["StatefulPartitionedCall/sequential_3_1/lstm_3_1/while/merge/_30", "StatefulPartitionedCall/sequential_3_1/lstm_3_1/while/LoopCond/_33"], "attr": {"_has_manual_control_dependencies": {"b": true}, "T": {"type": "DT_FLOAT"}}}, {"name": "StatefulPartitionedCall/sequential_3_1/lstm_3_1/while/StatefulPartitionedCall/sequential_3_1/lstm_3_1/TensorArrayV2_1_switch/_37", "op": "Switch", "input": ["StatefulPartitionedCall/sequential_3_1/lstm_3_1/while/merge/_29", "StatefulPartitionedCall/sequential_3_1/lstm_3_1/while/LoopCond/_33"], "attr": {"_has_manual_control_dependencies": {"b": true}, "T": {"type": "DT_VARIANT"}}}, {"name": "StatefulPartitionedCall/sequential_3_1/lstm_3_1/while/exit/_43", "op": "Exit", "input": ["StatefulPartitionedCall/sequential_3_1/lstm_3_1/while/StatefulPartitionedCall/sequential_3_1/lstm_3_1/Max_switch/_35"], "attr": {"_has_manual_control_dependencies": {"b": true}, "T": {"type": "DT_INT32"}}}, {"name": "StatefulPartitionedCall/sequential_3_1/lstm_3_1/while/exit/_42", "op": "Exit", "input": ["StatefulPartitionedCall/sequential_3_1/lstm_3_1/while/StatefulPartitionedCall/sequential_3_1/lstm_3_1/while/loop_counter_switch/_34"], "attr": {"_has_manual_control_dependencies": {"b": true}, "T": {"type": "DT_INT32"}}}, {"name": "StatefulPartitionedCall/sequential_3_1/lstm_3_1/while/loop_body_control/_41", "op": "Identity", "input": ["StatefulPartitionedCall/sequential_3_1/lstm_3_1/while/StatefulPartitionedCall/sequential_3_1/lstm_3_1/while/loop_counter_switch/_34:1"], "attr": {"_has_manual_control_dependencies": {"b": true}, "T": {"type": "DT_INT32"}}}, {"name": "StatefulPartitionedCall/sequential_3_1/lstm_3_1/while/exit/_47", "op": "Exit", "input": ["StatefulPartitionedCall/sequential_3_1/lstm_3_1/while/StatefulPartitionedCall/sequential_3_1/lstm_3_1/zeros_1_switch/_39"], "attr": {"_has_manual_control_dependencies": {"b": true}, "T": {"type": "DT_FLOAT"}}}, {"name": "StatefulPartitionedCall/sequential_3_1/lstm_3_1/while/exit/_48", "op": "Exit", "input": ["StatefulPartitionedCall/sequential_3_1/lstm_3_1/while/StatefulPartitionedCall/sequential_3_1/lstm_3_1/TensorArrayUnstack/TensorListFromTensor_switch/_40"], "attr": {"_has_manual_control_dependencies": {"b": true}, "T": {"type": "DT_VARIANT"}}}, {"name": "StatefulPartitionedCall/sequential_3_1/lstm_3_1/while/exit/_44", "op": "Exit", "input": ["StatefulPartitionedCall/sequential_3_1/lstm_3_1/while/StatefulPartitionedCall/sequential_3_1/lstm_3_1/time_switch/_36"], "attr": {"_has_manual_control_dependencies": {"b": true}, "T": {"type": "DT_INT32"}}}, {"name": "StatefulPartitionedCall/sequential_3_1/lstm_3_1/while/exit/_46", "op": "Exit", "input": ["StatefulPartitionedCall/sequential_3_1/lstm_3_1/while/StatefulPartitionedCall/sequential_3_1/lstm_3_1/zeros_switch/_38"], "attr": {"_has_manual_control_dependencies": {"b": true}, "T": {"type": "DT_FLOAT"}}}, {"name": "StatefulPartitionedCall/sequential_3_1/lstm_3_1/while/exit/_45", "op": "Exit", "input": ["StatefulPartitionedCall/sequential_3_1/lstm_3_1/while/StatefulPartitionedCall/sequential_3_1/lstm_3_1/TensorArrayV2_1_switch/_37"], "attr": {"_has_manual_control_dependencies": {"b": true}, "T": {"type": "DT_VARIANT"}}}, {"name": "Func/StatefulPartitionedCall/sequential_3_1/lstm_3_1/while/body/_14/input_control_node/_113", "op": "NoOp", "input": ["^StatefulPartitionedCall/sequential_3_1/lstm_3_1/while/StatefulPartitionedCall/sequential_3_1/lstm_3_1/Max_switch/_35", "^StatefulPartitionedCall/sequential_3_1/lstm_3_1/while/StatefulPartitionedCall/sequential_3_1/lstm_3_1/TensorArrayUnstack/TensorListFromTensor_switch/_40", "^StatefulPartitionedCall/sequential_3_1/lstm_3_1/while/StatefulPartitionedCall/sequential_3_1/lstm_3_1/TensorArrayV2_1_switch/_37", "^StatefulPartitionedCall/sequential_3_1/lstm_3_1/while/StatefulPartitionedCall/sequential_3_1/lstm_3_1/time_switch/_36", "^StatefulPartitionedCall/sequential_3_1/lstm_3_1/while/loop_body_control/_41", "^StatefulPartitionedCall/sequential_3_1/lstm_3_1/while/StatefulPartitionedCall/sequential_3_1/lstm_3_1/zeros_1_switch/_39", "^StatefulPartitionedCall/sequential_3_1/lstm_3_1/while/StatefulPartitionedCall/sequential_3_1/lstm_3_1/zeros_switch/_38", "^StatefulPartitionedCall/sequential_3_1/lstm_3_1/while/enter/_22", "^StatefulPartitionedCall/sequential_3_1/lstm_3_1/while/enter/_23", "^StatefulPartitionedCall/sequential_3_1/lstm_3_1/while/enter/_24"], "attr": {"_has_manual_control_dependencies": {"b": true}}}, {"name": "StatefulPartitionedCall/sequential_3_1/lstm_3_1/TensorArrayV2Stack/TensorListStack", "op": "TensorListStack", "input": ["StatefulPartitionedCall/sequential_3_1/lstm_3_1/while/exit/_45", "StatefulPartitionedCall/sequential_3_1/lstm_3_1/TensorArrayV2Stack/TensorListStack/element_shape"], "attr": {"num_elements": {"i": "24"}, "element_dtype": {"type": "DT_FLOAT"}}}, {"name": "StatefulPartitionedCall/sequential_3_1/lstm_3_1/while/body/_14/sequential_3_1/lstm_3_1/while/add_1/y", "op": "Const", "input": ["^Func/StatefulPartitionedCall/sequential_3_1/lstm_3_1/while/body/_14/input_control_node/_113"], "attr": {"value": {"tensor": {"dtype": "DT_INT32", "tensorShape": {}}}, "dtype": {"type": "DT_INT32"}}}, {"name": "StatefulPartitionedCall/sequential_3_1/lstm_3_1/while/body/_14/sequential_3_1/lstm_3_1/while/lstm_cell_1/split/split_dim", "op": "Const", "input": ["^Func/StatefulPartitionedCall/sequential_3_1/lstm_3_1/while/body/_14/input_control_node/_113"], "attr": {"value": {"tensor": {"dtype": "DT_INT32", "tensorShape": {}}}, "dtype": {"type": "DT_INT32"}}}, {"name": "StatefulPartitionedCall/sequential_3_1/lstm_3_1/while/body/_14/sequential_3_1/lstm_3_1/while/add/y", "op": "Const", "input": ["^Func/StatefulPartitionedCall/sequential_3_1/lstm_3_1/while/body/_14/input_control_node/_113"], "attr": {"value": {"tensor": {"dtype": "DT_INT32", "tensorShape": {}}}, "dtype": {"type": "DT_INT32"}}}, {"name": "Func/StatefulPartitionedCall/sequential_3_1/lstm_3_1/while/body/_14/input/_116", "op": "Identity", "input": ["StatefulPartitionedCall/sequential_3_1/lstm_3_1/while/StatefulPartitionedCall/sequential_3_1/lstm_3_1/time_switch/_36:1", "^Func/StatefulPartitionedCall/sequential_3_1/lstm_3_1/while/body/_14/input_control_node/_113"], "attr": {"T": {"type": "DT_INT32"}}}, {"name": "StatefulPartitionedCall/sequential_3_1/lstm_3_1/while/body/_14/sequential_3_1/lstm_3_1/while/TensorArrayV2Read/TensorListGetItem/element_shape", "op": "Const", "input": ["^Func/StatefulPartitionedCall/sequential_3_1/lstm_3_1/while/body/_14/input_control_node/_113"], "attr": {"value": {"tensor": {"dtype": "DT_INT32", "tensorShape": {"dim": [{"size": "2"}]}}}, "dtype": {"type": "DT_INT32"}}}, {"name": "StatefulPartitionedCall/sequential_3_1/lstm_3_1/while/body/_14/sequential_3_1/lstm_3_1/while/lstm_cell_1/Cast/ReadVariableOp", "op": "Const", "input": ["^StatefulPartitionedCall/sequential_3_1/lstm_3_1/while/enter/_22", "^Func/StatefulPartitionedCall/sequential_3_1/lstm_3_1/while/body/_14/input_control_node/_113"], "attr": {"value": {"tensor": {"dtype": "DT_FLOAT", "tensorShape": {"dim": [{"size": "64"}, {"size": "400"}]}}}, "dtype": {"type": "DT_FLOAT"}}}, {"name": "StatefulPartitionedCall/sequential_3_1/lstm_3_1/while/body/_14/sequential_3_1/lstm_3_1/while/lstm_cell_1/Cast_1/ReadVariableOp", "op": "Const", "input": ["^StatefulPartitionedCall/sequential_3_1/lstm_3_1/while/enter/_23", "^Func/StatefulPartitionedCall/sequential_3_1/lstm_3_1/while/body/_14/input_control_node/_113"], "attr": {"value": {"tensor": {"dtype": "DT_FLOAT", "tensorShape": {"dim": [{"size": "100"}, {"size": "400"}]}}}, "dtype": {"type": "DT_FLOAT"}}}, {"name": "StatefulPartitionedCall/sequential_3_1/lstm_3_1/while/body/_14/sequential_3_1/lstm_3_1/while/lstm_cell_1/add_1/ReadVariableOp", "op": "Const", "input": ["^StatefulPartitionedCall/sequential_3_1/lstm_3_1/while/enter/_24", "^Func/StatefulPartitionedCall/sequential_3_1/lstm_3_1/while/body/_14/input_control_node/_113"], "attr": {"value": {"tensor": {"dtype": "DT_FLOAT", "tensorShape": {"dim": [{"size": "400"}]}}}, "dtype": {"type": "DT_FLOAT"}}}, {"name": "StatefulPartitionedCall/sequential_3_1/lstm_4_1/TensorArrayUnstack/TensorListFromTensor", "op": "TensorListFromTensor", "input": ["StatefulPartitionedCall/sequential_3_1/lstm_3_1/TensorArrayV2Stack/TensorListStack", "StatefulPartitionedCall/sequential_3_1/lstm_4_1/TensorArrayUnstack/TensorListFromTensor/element_shape"], "attr": {"shape_type": {"type": "DT_INT32"}, "_has_manual_control_dependencies": {"b": true}, "element_dtype": {"type": "DT_FLOAT"}}, "experimentalType": {"typeId": "TFT_PRODUCT", "args": [{"typeId": "TFT_ARRAY", "args": [{"typeId": "TFT_TENSOR", "args": [{"typeId": "TFT_FLOAT"}]}]}]}}, {"name": "StatefulPartitionedCall/sequential_3_1/lstm_3_1/transpose_1", "op": "Transpose", "input": ["StatefulPartitionedCall/sequential_3_1/lstm_3_1/TensorArrayV2Stack/TensorListStack", "StatefulPartitionedCall/sequential_3_1/lstm_3_1/transpose_1/perm"], "attr": {"Tperm": {"type": "DT_INT32"}, "T": {"type": "DT_FLOAT"}}}, {"name": "StatefulPartitionedCall/sequential_3_1/lstm_3_1/while/body/_14/sequential_3_1/lstm_3_1/while/add_1", "op": "AddV2", "input": ["StatefulPartitionedCall/sequential_3_1/lstm_3_1/while/StatefulPartitionedCall/sequential_3_1/lstm_3_1/while/loop_counter_switch/_34:1", "StatefulPartitionedCall/sequential_3_1/lstm_3_1/while/body/_14/sequential_3_1/lstm_3_1/while/add_1/y"], "attr": {"T": {"type": "DT_INT32"}}}, {"name": "StatefulPartitionedCall/sequential_3_1/lstm_3_1/while/body/_14/sequential_3_1/lstm_3_1/while/add", "op": "AddV2", "input": ["Func/StatefulPartitionedCall/sequential_3_1/lstm_3_1/while/body/_14/input/_116", "StatefulPartitionedCall/sequential_3_1/lstm_3_1/while/body/_14/sequential_3_1/lstm_3_1/while/add/y"], "attr": {"T": {"type": "DT_INT32"}}}, {"name": "StatefulPartitionedCall/sequential_3_1/lstm_3_1/while/body/_14/sequential_3_1/lstm_3_1/while/TensorArrayV2Read/TensorListGetItem", "op": "TensorListGetItem", "input": ["StatefulPartitionedCall/sequential_3_1/lstm_3_1/while/StatefulPartitionedCall/sequential_3_1/lstm_3_1/TensorArrayUnstack/TensorListFromTensor_switch/_40:1", "Func/StatefulPartitionedCall/sequential_3_1/lstm_3_1/while/body/_14/input/_116", "StatefulPartitionedCall/sequential_3_1/lstm_3_1/while/body/_14/sequential_3_1/lstm_3_1/while/TensorArrayV2Read/TensorListGetItem/element_shape"], "attr": {"element_dtype": {"type": "DT_FLOAT"}}}, {"name": "StatefulPartitionedCall/sequential_3_1/lstm_3_1/while/body/_14/sequential_3_1/lstm_3_1/while/lstm_cell_1/MatMul_1", "op": "MatMul", "input": ["StatefulPartitionedCall/sequential_3_1/lstm_3_1/while/StatefulPartitionedCall/sequential_3_1/lstm_3_1/zeros_switch/_38:1", "StatefulPartitionedCall/sequential_3_1/lstm_3_1/while/body/_14/sequential_3_1/lstm_3_1/while/lstm_cell_1/Cast_1/ReadVariableOp"], "device": "/device:CPU:0", "attr": {"transpose_a": {"b": false}, "grad_a": {"b": false}, "T": {"type": "DT_FLOAT"}, "grad_b": {"b": false}, "transpose_b": {"b": false}}}, {"name": "Func/StatefulPartitionedCall/sequential_3_1/lstm_3_1/while/body/_14/output_control_node/_134", "op": "NoOp", "input": ["^StatefulPartitionedCall/sequential_3_1/lstm_3_1/while/body/_14/sequential_3_1/lstm_3_1/while/lstm_cell_1/Cast/ReadVariableOp", "^StatefulPartitionedCall/sequential_3_1/lstm_3_1/while/body/_14/sequential_3_1/lstm_3_1/while/lstm_cell_1/Cast_1/ReadVariableOp", "^StatefulPartitionedCall/sequential_3_1/lstm_3_1/while/body/_14/sequential_3_1/lstm_3_1/while/lstm_cell_1/add_1/ReadVariableOp"], "attr": {"_has_manual_control_dependencies": {"b": true}}}, {"name": "StatefulPartitionedCall/sequential_3_1/lstm_3_1/while/body/_14/sequential_3_1/lstm_3_1/while/NoOp", "op": "NoOp", "input": ["^StatefulPartitionedCall/sequential_3_1/lstm_3_1/while/body/_14/sequential_3_1/lstm_3_1/while/lstm_cell_1/Cast/ReadVariableOp", "^StatefulPartitionedCall/sequential_3_1/lstm_3_1/while/body/_14/sequential_3_1/lstm_3_1/while/lstm_cell_1/Cast_1/ReadVariableOp", "^StatefulPartitionedCall/sequential_3_1/lstm_3_1/while/body/_14/sequential_3_1/lstm_3_1/while/lstm_cell_1/add_1/ReadVariableOp"], "attr": {"_has_manual_control_dependencies": {"b": true}}}, {"name": "StatefulPartitionedCall/sequential_3_1/lstm_4_1/Shape", "op": "Shape", "input": ["StatefulPartitionedCall/sequential_3_1/lstm_3_1/transpose_1"], "attr": {"T": {"type": "DT_FLOAT"}, "out_type": {"type": "DT_INT32"}}, "experimentalType": {"typeId": "TFT_PRODUCT", "args": [{"typeId": "TFT_SHAPE_TENSOR", "args": [{"typeId": "TFT_INT32"}]}]}}, {"name": "StatefulPartitionedCall/sequential_3_1/lstm_3_1/while/body/_14/sequential_3_1/lstm_3_1/while/lstm_cell_1/add", "op": "AddV2", "input": ["StatefulPartitionedCall/sequential_3_1/lstm_3_1/while/body/_14/sequential_3_1/lstm_3_1/while/lstm_cell_1/add_1/ReadVariableOp", "StatefulPartitionedCall/sequential_3_1/lstm_3_1/while/body/_14/sequential_3_1/lstm_3_1/while/lstm_cell_1/MatMul_1"], "attr": {"T": {"type": "DT_FLOAT"}}}, {"name": "StatefulPartitionedCall/sequential_3_1/lstm_3_1/while/next_iteration/_56", "op": "NextIteration", "input": ["StatefulPartitionedCall/sequential_3_1/lstm_3_1/while/StatefulPartitionedCall/sequential_3_1/lstm_3_1/TensorArrayUnstack/TensorListFromTensor_switch/_40:1", "^Func/StatefulPartitionedCall/sequential_3_1/lstm_3_1/while/body/_14/output_control_node/_134", "^Func/StatefulPartitionedCall/sequential_3_1/lstm_3_1/while/body/_14/input_control_node/_113"], "attr": {"T": {"type": "DT_VARIANT"}}}, {"name": "StatefulPartitionedCall/sequential_3_1/lstm_3_1/while/next_iteration/_51", "op": "NextIteration", "input": ["StatefulPartitionedCall/sequential_3_1/lstm_3_1/while/StatefulPartitionedCall/sequential_3_1/lstm_3_1/Max_switch/_35:1", "^Func/StatefulPartitionedCall/sequential_3_1/lstm_3_1/while/body/_14/output_control_node/_134", "^StatefulPartitionedCall/sequential_3_1/lstm_3_1/while/body/_14/sequential_3_1/lstm_3_1/while/NoOp", "^Func/StatefulPartitionedCall/sequential_3_1/lstm_3_1/while/body/_14/input_control_node/_113"], "attr": {"T": {"type": "DT_INT32"}}}, {"name": "StatefulPartitionedCall/sequential_3_1/lstm_3_1/while/next_iteration/_50", "op": "NextIteration", "input": ["StatefulPartitionedCall/sequential_3_1/lstm_3_1/while/body/_14/sequential_3_1/lstm_3_1/while/add_1", "^Func/StatefulPartitionedCall/sequential_3_1/lstm_3_1/while/body/_14/output_control_node/_134", "^StatefulPartitionedCall/sequential_3_1/lstm_3_1/while/body/_14/sequential_3_1/lstm_3_1/while/NoOp"], "attr": {"T": {"type": "DT_INT32"}}}, {"name": "StatefulPartitionedCall/sequential_3_1/lstm_3_1/while/next_iteration/_52", "op": "NextIteration", "input": ["StatefulPartitionedCall/sequential_3_1/lstm_3_1/while/body/_14/sequential_3_1/lstm_3_1/while/add", "^Func/StatefulPartitionedCall/sequential_3_1/lstm_3_1/while/body/_14/output_control_node/_134", "^StatefulPartitionedCall/sequential_3_1/lstm_3_1/while/body/_14/sequential_3_1/lstm_3_1/while/NoOp"], "attr": {"T": {"type": "DT_INT32"}}}, {"name": "StatefulPartitionedCall/sequential_3_1/lstm_4_1/strided_slice", "op": "StridedSlice", "input": ["StatefulPartitionedCall/sequential_3_1/lstm_4_1/Shape", "StatefulPartitionedCall/sequential_3_1/lstm_4_1/strided_slice/stack", "StatefulPartitionedCall/sequential_3_1/lstm_4_1/strided_slice/stack_1", "StatefulPartitionedCall/sequential_3_1/lstm_4_1/strided_slice/stack_2"], "attr": {"shrink_axis_mask": {"i": "1"}, "Index": {"type": "DT_INT32"}, "new_axis_mask": {"i": "0"}, "begin_mask": {"i": "0"}, "end_mask": {"i": "0"}, "T": {"type": "DT_INT32"}, "ellipsis_mask": {"i": "0"}}}, {"name": "StatefulPartitionedCall/sequential_3_1/lstm_3_1/while/body/_14/sequential_3_1/lstm_3_1/while/lstm_cell_1/add_1", "op": "_FusedMatMul", "input": ["StatefulPartitionedCall/sequential_3_1/lstm_3_1/while/body/_14/sequential_3_1/lstm_3_1/while/TensorArrayV2Read/TensorListGetItem", "StatefulPartitionedCall/sequential_3_1/lstm_3_1/while/body/_14/sequential_3_1/lstm_3_1/while/lstm_cell_1/Cast/ReadVariableOp", "StatefulPartitionedCall/sequential_3_1/lstm_3_1/while/body/_14/sequential_3_1/lstm_3_1/while/lstm_cell_1/add"], "device": "/device:CPU:0", "attr": {"transpose_a": {"b": false}, "transpose_b": {"b": false}, "fused_ops": {"list": {"s": ["Qmlhc0FkZA=="]}}, "num_args": {"i": "1"}, "leakyrelu_alpha": {"f": 0.2}, "epsilon": {"f": 0.0}, "T": {"type": "DT_FLOAT"}}}, {"name": "StatefulPartitionedCall/sequential_3_1/lstm_4_1/zeros/packed", "op": "Pack", "input": ["StatefulPartitionedCall/sequential_3_1/lstm_4_1/strided_slice", "StatefulPartitionedCall/sequential_3_1/lstm_4_1/zeros/packed/1"], "attr": {"N": {"i": "2"}, "axis": {"i": "0"}, "T": {"type": "DT_INT32"}}}, {"name": "StatefulPartitionedCall/sequential_3_1/lstm_4_1/zeros_1/packed", "op": "Pack", "input": ["StatefulPartitionedCall/sequential_3_1/lstm_4_1/strided_slice", "StatefulPartitionedCall/sequential_3_1/lstm_4_1/zeros_1/packed/1"], "attr": {"N": {"i": "2"}, "axis": {"i": "0"}, "T": {"type": "DT_INT32"}}}, {"name": "StatefulPartitionedCall/sequential_3_1/lstm_3_1/while/body/_14/sequential_3_1/lstm_3_1/while/lstm_cell_1/split", "op": "Split", "input": ["StatefulPartitionedCall/sequential_3_1/lstm_3_1/while/body/_14/sequential_3_1/lstm_3_1/while/lstm_cell_1/split/split_dim", "StatefulPartitionedCall/sequential_3_1/lstm_3_1/while/body/_14/sequential_3_1/lstm_3_1/while/lstm_cell_1/add_1"], "attr": {"num_split": {"i": "4"}, "T": {"type": "DT_FLOAT"}}}, {"name": "StatefulPartitionedCall/sequential_3_1/lstm_4_1/zeros", "op": "Fill", "input": ["StatefulPartitionedCall/sequential_3_1/lstm_4_1/zeros/packed", "StatefulPartitionedCall/sequential_3_1/lstm_4_1/zeros/Const"], "attr": {"_has_manual_control_dependencies": {"b": true}, "T": {"type": "DT_FLOAT"}, "index_type": {"type": "DT_INT32"}}}, {"name": "StatefulPartitionedCall/sequential_3_1/lstm_4_1/zeros_1", "op": "Fill", "input": ["StatefulPartitionedCall/sequential_3_1/lstm_4_1/zeros_1/packed", "StatefulPartitionedCall/sequential_3_1/lstm_4_1/zeros_1/Const"], "attr": {"T": {"type": "DT_FLOAT"}, "index_type": {"type": "DT_INT32"}}}, {"name": "StatefulPartitionedCall/sequential_3_1/lstm_3_1/while/body/_14/sequential_3_1/lstm_3_1/while/lstm_cell_1/Sigmoid", "op": "Sigmoid", "input": ["StatefulPartitionedCall/sequential_3_1/lstm_3_1/while/body/_14/sequential_3_1/lstm_3_1/while/lstm_cell_1/split"], "attr": {"T": {"type": "DT_FLOAT"}}}, {"name": "StatefulPartitionedCall/sequential_3_1/lstm_3_1/while/body/_14/sequential_3_1/lstm_3_1/while/lstm_cell_1/Sigmoid_1", "op": "Sigmoid", "input": ["StatefulPartitionedCall/sequential_3_1/lstm_3_1/while/body/_14/sequential_3_1/lstm_3_1/while/lstm_cell_1/split:1"], "attr": {"T": {"type": "DT_FLOAT"}}}, {"name": "StatefulPartitionedCall/sequential_3_1/lstm_3_1/while/body/_14/sequential_3_1/lstm_3_1/while/lstm_cell_1/Tanh", "op": "Tanh", "input": ["StatefulPartitionedCall/sequential_3_1/lstm_3_1/while/body/_14/sequential_3_1/lstm_3_1/while/lstm_cell_1/split:2"], "attr": {"T": {"type": "DT_FLOAT"}}}, {"name": "StatefulPartitionedCall/sequential_3_1/lstm_3_1/while/body/_14/sequential_3_1/lstm_3_1/while/lstm_cell_1/Sigmoid_2", "op": "Sigmoid", "input": ["StatefulPartitionedCall/sequential_3_1/lstm_3_1/while/body/_14/sequential_3_1/lstm_3_1/while/lstm_cell_1/split:3"], "attr": {"T": {"type": "DT_FLOAT"}}}, {"name": "StatefulPartitionedCall/sequential_3_1/lstm_4_1/while/LoopControlInputs/_69", "op": "NoOp", "input": ["^StatefulPartitionedCall/sequential_3_1/lstm_4_1/TensorArrayUnstack/TensorListFromTensor", "^StatefulPartitionedCall/sequential_3_1/lstm_4_1/TensorArrayV2_1", "^StatefulPartitionedCall/sequential_3_1/lstm_4_1/zeros", "^StatefulPartitionedCall/sequential_3_1/lstm_4_1/zeros_1"], "attr": {"_has_manual_control_dependencies": {"b": true}}}, {"name": "StatefulPartitionedCall/sequential_3_1/lstm_3_1/while/body/_14/sequential_3_1/lstm_3_1/while/lstm_cell_1/mul", "op": "Mul", "input": ["StatefulPartitionedCall/sequential_3_1/lstm_3_1/while/body/_14/sequential_3_1/lstm_3_1/while/lstm_cell_1/Sigmoid_1", "StatefulPartitionedCall/sequential_3_1/lstm_3_1/while/StatefulPartitionedCall/sequential_3_1/lstm_3_1/zeros_1_switch/_39:1"], "attr": {"T": {"type": "DT_FLOAT"}}}, {"name": "StatefulPartitionedCall/sequential_3_1/lstm_3_1/while/body/_14/sequential_3_1/lstm_3_1/while/lstm_cell_1/mul_1", "op": "Mul", "input": ["StatefulPartitionedCall/sequential_3_1/lstm_3_1/while/body/_14/sequential_3_1/lstm_3_1/while/lstm_cell_1/Sigmoid", "StatefulPartitionedCall/sequential_3_1/lstm_3_1/while/body/_14/sequential_3_1/lstm_3_1/while/lstm_cell_1/Tanh"], "attr": {"T": {"type": "DT_FLOAT"}}}, {"name": "StatefulPartitionedCall/sequential_3_1/lstm_4_1/while/enter/_60", "op": "Enter", "input": ["StatefulPartitionedCall/sequential_3_1/lstm_4_1/Max", "^StatefulPartitionedCall/sequential_3_1/lstm_4_1/while/LoopControlInputs/_69"], "attr": {"is_constant": {"b": false}, "frame_name": {"s": "U3RhdGVmdWxQYXJ0aXRpb25lZENhbGwvc2VxdWVudGlhbF8zXzEvbHN0bV80XzEvd2hpbGU="}, "T": {"type": "DT_INT32"}, "parallel_iterations": {"i": "32"}}}, {"name": "StatefulPartitionedCall/sequential_3_1/lstm_4_1/while/enter/_65", "op": "Enter", "input": ["StatefulPartitionedCall/sequential_3_1/lstm_4_1/TensorArrayUnstack/TensorListFromTensor", "^StatefulPartitionedCall/sequential_3_1/lstm_4_1/while/LoopControlInputs/_69"], "attr": {"is_constant": {"b": false}, "frame_name": {"s": "U3RhdGVmdWxQYXJ0aXRpb25lZENhbGwvc2VxdWVudGlhbF8zXzEvbHN0bV80XzEvd2hpbGU="}, "T": {"type": "DT_VARIANT"}, "parallel_iterations": {"i": "32"}}}, {"name": "StatefulPartitionedCall/sequential_3_1/lstm_4_1/while/enter/_62", "op": "Enter", "input": ["StatefulPartitionedCall/sequential_3_1/lstm_4_1/TensorArrayV2_1", "^StatefulPartitionedCall/sequential_3_1/lstm_4_1/while/LoopControlInputs/_69"], "attr": {"is_constant": {"b": false}, "frame_name": {"s": "U3RhdGVmdWxQYXJ0aXRpb25lZENhbGwvc2VxdWVudGlhbF8zXzEvbHN0bV80XzEvd2hpbGU="}, "T": {"type": "DT_VARIANT"}, "parallel_iterations": {"i": "32"}}}, {"name": "StatefulPartitionedCall/sequential_3_1/lstm_4_1/while/enter/_59", "op": "Enter", "input": ["StatefulPartitionedCall/sequential_3_1/lstm_4_1/while/loop_counter", "^StatefulPartitionedCall/sequential_3_1/lstm_4_1/while/LoopControlInputs/_69"], "attr": {"is_constant": {"b": false}, "frame_name": {"s": "U3RhdGVmdWxQYXJ0aXRpb25lZENhbGwvc2VxdWVudGlhbF8zXzEvbHN0bV80XzEvd2hpbGU="}, "T": {"type": "DT_INT32"}, "parallel_iterations": {"i": "32"}}}, {"name": "StatefulPartitionedCall/sequential_3_1/lstm_4_1/while/enter/_63", "op": "Enter", "input": ["StatefulPartitionedCall/sequential_3_1/lstm_4_1/zeros", "^StatefulPartitionedCall/sequential_3_1/lstm_4_1/while/LoopControlInputs/_69"], "attr": {"is_constant": {"b": false}, "frame_name": {"s": "U3RhdGVmdWxQYXJ0aXRpb25lZENhbGwvc2VxdWVudGlhbF8zXzEvbHN0bV80XzEvd2hpbGU="}, "T": {"type": "DT_FLOAT"}, "parallel_iterations": {"i": "32"}}}, {"name": "StatefulPartitionedCall/sequential_3_1/lstm_4_1/while/enter/_64", "op": "Enter", "input": ["StatefulPartitionedCall/sequential_3_1/lstm_4_1/zeros_1", "^StatefulPartitionedCall/sequential_3_1/lstm_4_1/while/LoopControlInputs/_69"], "attr": {"is_constant": {"b": false}, "frame_name": {"s": "U3RhdGVmdWxQYXJ0aXRpb25lZENhbGwvc2VxdWVudGlhbF8zXzEvbHN0bV80XzEvd2hpbGU="}, "T": {"type": "DT_FLOAT"}, "parallel_iterations": {"i": "32"}}}, {"name": "StatefulPartitionedCall/sequential_3_1/lstm_4_1/while/enter/_61", "op": "Enter", "input": ["StatefulPartitionedCall/sequential_3_1/lstm_4_1/time", "^StatefulPartitionedCall/sequential_3_1/lstm_4_1/while/LoopControlInputs/_69"], "attr": {"is_constant": {"b": false}, "frame_name": {"s": "U3RhdGVmdWxQYXJ0aXRpb25lZENhbGwvc2VxdWVudGlhbF8zXzEvbHN0bV80XzEvd2hpbGU="}, "T": {"type": "DT_INT32"}, "parallel_iterations": {"i": "32"}}}, {"name": "StatefulPartitionedCall/sequential_3_1/lstm_4_1/while/enter/_66", "op": "Enter", "input": ["Func/StatefulPartitionedCall/input/_6", "^StatefulPartitionedCall/sequential_3_1/lstm_4_1/while/LoopControlInputs/_69"], "attr": {"is_constant": {"b": true}, "_has_manual_control_dependencies": {"b": true}, "T": {"type": "DT_FLOAT"}, "frame_name": {"s": "U3RhdGVmdWxQYXJ0aXRpb25lZENhbGwvc2VxdWVudGlhbF8zXzEvbHN0bV80XzEvd2hpbGU="}, "parallel_iterations": {"i": "32"}}}, {"name": "StatefulPartitionedCall/sequential_3_1/lstm_4_1/while/enter/_67", "op": "Enter", "input": ["Func/StatefulPartitionedCall/input/_7", "^StatefulPartitionedCall/sequential_3_1/lstm_4_1/while/LoopControlInputs/_69"], "attr": {"is_constant": {"b": true}, "frame_name": {"s": "U3RhdGVmdWxQYXJ0aXRpb25lZENhbGwvc2VxdWVudGlhbF8zXzEvbHN0bV80XzEvd2hpbGU="}, "T": {"type": "DT_FLOAT"}, "parallel_iterations": {"i": "32"}}}, {"name": "StatefulPartitionedCall/sequential_3_1/lstm_4_1/while/enter/_68", "op": "Enter", "input": ["Func/StatefulPartitionedCall/input/_8", "^StatefulPartitionedCall/sequential_3_1/lstm_4_1/while/LoopControlInputs/_69"], "attr": {"is_constant": {"b": true}, "frame_name": {"s": "U3RhdGVmdWxQYXJ0aXRpb25lZENhbGwvc2VxdWVudGlhbF8zXzEvbHN0bV80XzEvd2hpbGU="}, "T": {"type": "DT_FLOAT"}, "_has_manual_control_dependencies": {"b": true}, "parallel_iterations": {"i": "32"}}}, {"name": "StatefulPartitionedCall/sequential_3_1/lstm_3_1/while/body/_14/sequential_3_1/lstm_3_1/while/lstm_cell_1/add_2", "op": "AddV2", "input": ["StatefulPartitionedCall/sequential_3_1/lstm_3_1/while/body/_14/sequential_3_1/lstm_3_1/while/lstm_cell_1/mul", "StatefulPartitionedCall/sequential_3_1/lstm_3_1/while/body/_14/sequential_3_1/lstm_3_1/while/lstm_cell_1/mul_1"], "attr": {"T": {"type": "DT_FLOAT"}}}, {"name": "StatefulPartitionedCall/sequential_3_1/lstm_4_1/while/merge/_71", "op": "Merge", "input": ["StatefulPartitionedCall/sequential_3_1/lstm_4_1/while/enter/_60", "StatefulPartitionedCall/sequential_3_1/lstm_4_1/while/next_iteration/_95"], "attr": {"N": {"i": "2"}, "_has_manual_control_dependencies": {"b": true}, "T": {"type": "DT_INT32"}}}, {"name": "StatefulPartitionedCall/sequential_3_1/lstm_4_1/while/merge/_76", "op": "Merge", "input": ["StatefulPartitionedCall/sequential_3_1/lstm_4_1/while/enter/_65", "StatefulPartitionedCall/sequential_3_1/lstm_4_1/while/next_iteration/_100"], "attr": {"N": {"i": "2"}, "T": {"type": "DT_VARIANT"}}}, {"name": "StatefulPartitionedCall/sequential_3_1/lstm_4_1/while/merge/_73", "op": "Merge", "input": ["StatefulPartitionedCall/sequential_3_1/lstm_4_1/while/enter/_62", "StatefulPartitionedCall/sequential_3_1/lstm_4_1/while/next_iteration/_97"], "attr": {"N": {"i": "2"}, "T": {"type": "DT_VARIANT"}}}, {"name": "StatefulPartitionedCall/sequential_3_1/lstm_4_1/while/merge/_70", "op": "Merge", "input": ["StatefulPartitionedCall/sequential_3_1/lstm_4_1/while/enter/_59", "StatefulPartitionedCall/sequential_3_1/lstm_4_1/while/next_iteration/_94"], "attr": {"N": {"i": "2"}, "_has_manual_control_dependencies": {"b": true}, "T": {"type": "DT_INT32"}}}, {"name": "StatefulPartitionedCall/sequential_3_1/lstm_4_1/while/merge/_74", "op": "Merge", "input": ["StatefulPartitionedCall/sequential_3_1/lstm_4_1/while/enter/_63", "StatefulPartitionedCall/sequential_3_1/lstm_4_1/while/next_iteration/_98"], "attr": {"N": {"i": "2"}, "T": {"type": "DT_FLOAT"}}}, {"name": "StatefulPartitionedCall/sequential_3_1/lstm_4_1/while/merge/_75", "op": "Merge", "input": ["StatefulPartitionedCall/sequential_3_1/lstm_4_1/while/enter/_64", "StatefulPartitionedCall/sequential_3_1/lstm_4_1/while/next_iteration/_99"], "attr": {"N": {"i": "2"}, "T": {"type": "DT_FLOAT"}}}, {"name": "StatefulPartitionedCall/sequential_3_1/lstm_4_1/while/merge/_72", "op": "Merge", "input": ["StatefulPartitionedCall/sequential_3_1/lstm_4_1/while/enter/_61", "StatefulPartitionedCall/sequential_3_1/lstm_4_1/while/next_iteration/_96"], "attr": {"N": {"i": "2"}, "T": {"type": "DT_INT32"}}}, {"name": "StatefulPartitionedCall/sequential_3_1/lstm_3_1/while/body/_14/sequential_3_1/lstm_3_1/while/lstm_cell_1/Tanh_1", "op": "Tanh", "input": ["StatefulPartitionedCall/sequential_3_1/lstm_3_1/while/body/_14/sequential_3_1/lstm_3_1/while/lstm_cell_1/add_2"], "attr": {"T": {"type": "DT_FLOAT"}}}, {"name": "StatefulPartitionedCall/sequential_3_1/lstm_3_1/while/next_iteration/_55", "op": "NextIteration", "input": ["StatefulPartitionedCall/sequential_3_1/lstm_3_1/while/body/_14/sequential_3_1/lstm_3_1/while/lstm_cell_1/add_2", "^Func/StatefulPartitionedCall/sequential_3_1/lstm_3_1/while/body/_14/output_control_node/_134", "^StatefulPartitionedCall/sequential_3_1/lstm_3_1/while/body/_14/sequential_3_1/lstm_3_1/while/NoOp"], "attr": {"T": {"type": "DT_FLOAT"}}}, {"name": "Func/StatefulPartitionedCall/sequential_3_1/lstm_4_1/while/cond/_57/input_control_node/_135", "op": "NoOp", "input": ["^StatefulPartitionedCall/sequential_3_1/lstm_4_1/while/enter/_66", "^StatefulPartitionedCall/sequential_3_1/lstm_4_1/while/enter/_67", "^StatefulPartitionedCall/sequential_3_1/lstm_4_1/while/enter/_68", "^StatefulPartitionedCall/sequential_3_1/lstm_4_1/while/merge/_70", "^StatefulPartitionedCall/sequential_3_1/lstm_4_1/while/merge/_71", "^StatefulPartitionedCall/sequential_3_1/lstm_4_1/while/merge/_72", "^StatefulPartitionedCall/sequential_3_1/lstm_4_1/while/merge/_73", "^StatefulPartitionedCall/sequential_3_1/lstm_4_1/while/merge/_74", "^StatefulPartitionedCall/sequential_3_1/lstm_4_1/while/merge/_75", "^StatefulPartitionedCall/sequential_3_1/lstm_4_1/while/merge/_76"], "attr": {"_has_manual_control_dependencies": {"b": true}}}, {"name": "StatefulPartitionedCall/sequential_3_1/lstm_3_1/while/body/_14/sequential_3_1/lstm_3_1/while/lstm_cell_1/mul_2", "op": "Mul", "input": ["StatefulPartitionedCall/sequential_3_1/lstm_3_1/while/body/_14/sequential_3_1/lstm_3_1/while/lstm_cell_1/Sigmoid_2", "StatefulPartitionedCall/sequential_3_1/lstm_3_1/while/body/_14/sequential_3_1/lstm_3_1/while/lstm_cell_1/Tanh_1"], "attr": {"T": {"type": "DT_FLOAT"}}}, {"name": "StatefulPartitionedCall/sequential_3_1/lstm_4_1/while/cond/_57/sequential_3_1/lstm_4_1/while/Less_1", "op": "Less", "input": ["StatefulPartitionedCall/sequential_3_1/lstm_4_1/while/merge/_70", "StatefulPartitionedCall/sequential_3_1/lstm_4_1/while/merge/_71", "^Func/StatefulPartitionedCall/sequential_3_1/lstm_4_1/while/cond/_57/input_control_node/_135"], "attr": {"T": {"type": "DT_INT32"}}}, {"name": "StatefulPartitionedCall/sequential_3_1/lstm_4_1/while/cond/_57/sequential_3_1/lstm_4_1/while/Less/y", "op": "Const", "input": ["^Func/StatefulPartitionedCall/sequential_3_1/lstm_4_1/while/cond/_57/input_control_node/_135"], "attr": {"value": {"tensor": {"dtype": "DT_INT32", "tensorShape": {}}}, "dtype": {"type": "DT_INT32"}}}, {"name": "StatefulPartitionedCall/sequential_3_1/lstm_3_1/while/body/_14/sequential_3_1/lstm_3_1/while/TensorArrayV2Write/TensorListSetItem", "op": "TensorListSetItem", "input": ["StatefulPartitionedCall/sequential_3_1/lstm_3_1/while/StatefulPartitionedCall/sequential_3_1/lstm_3_1/TensorArrayV2_1_switch/_37:1", "Func/StatefulPartitionedCall/sequential_3_1/lstm_3_1/while/body/_14/input/_116", "StatefulPartitionedCall/sequential_3_1/lstm_3_1/while/body/_14/sequential_3_1/lstm_3_1/while/lstm_cell_1/mul_2"], "attr": {"element_dtype": {"type": "DT_FLOAT"}, "resize_if_index_out_of_bounds": {"b": false}}, "experimentalType": {"typeId": "TFT_PRODUCT", "args": [{"typeId": "TFT_ARRAY", "args": [{"typeId": "TFT_TENSOR", "args": [{"typeId": "TFT_FLOAT"}]}]}]}}, {"name": "StatefulPartitionedCall/sequential_3_1/lstm_3_1/while/next_iteration/_54", "op": "NextIteration", "input": ["StatefulPartitionedCall/sequential_3_1/lstm_3_1/while/body/_14/sequential_3_1/lstm_3_1/while/lstm_cell_1/mul_2", "^Func/StatefulPartitionedCall/sequential_3_1/lstm_3_1/while/body/_14/output_control_node/_134", "^StatefulPartitionedCall/sequential_3_1/lstm_3_1/while/body/_14/sequential_3_1/lstm_3_1/while/NoOp"], "attr": {"T": {"type": "DT_FLOAT"}}}, {"name": "StatefulPartitionedCall/sequential_3_1/lstm_4_1/while/cond/_57/sequential_3_1/lstm_4_1/while/Less", "op": "Less", "input": ["StatefulPartitionedCall/sequential_3_1/lstm_4_1/while/merge/_72", "StatefulPartitionedCall/sequential_3_1/lstm_4_1/while/cond/_57/sequential_3_1/lstm_4_1/while/Less/y"], "attr": {"T": {"type": "DT_INT32"}}}, {"name": "StatefulPartitionedCall/sequential_3_1/lstm_3_1/while/next_iteration/_53", "op": "NextIteration", "input": ["StatefulPartitionedCall/sequential_3_1/lstm_3_1/while/body/_14/sequential_3_1/lstm_3_1/while/TensorArrayV2Write/TensorListSetItem", "^Func/StatefulPartitionedCall/sequential_3_1/lstm_3_1/while/body/_14/output_control_node/_134", "^StatefulPartitionedCall/sequential_3_1/lstm_3_1/while/body/_14/sequential_3_1/lstm_3_1/while/NoOp"], "attr": {"T": {"type": "DT_VARIANT"}}}, {"name": "StatefulPartitionedCall/sequential_3_1/lstm_4_1/while/cond/_57/sequential_3_1/lstm_4_1/while/LogicalAnd", "op": "LogicalAnd", "input": ["StatefulPartitionedCall/sequential_3_1/lstm_4_1/while/cond/_57/sequential_3_1/lstm_4_1/while/Less_1", "StatefulPartitionedCall/sequential_3_1/lstm_4_1/while/cond/_57/sequential_3_1/lstm_4_1/while/Less"]}, {"name": "StatefulPartitionedCall/sequential_3_1/lstm_4_1/while/LoopCond/_77", "op": "LoopCond", "input": ["StatefulPartitionedCall/sequential_3_1/lstm_4_1/while/cond/_57/sequential_3_1/lstm_4_1/while/LogicalAnd"]}, {"name": "StatefulPartitionedCall/sequential_3_1/lstm_4_1/while/StatefulPartitionedCall/sequential_3_1/lstm_4_1/TensorArrayV2_1_switch/_81", "op": "Switch", "input": ["StatefulPartitionedCall/sequential_3_1/lstm_4_1/while/merge/_73", "StatefulPartitionedCall/sequential_3_1/lstm_4_1/while/LoopCond/_77"], "attr": {"T": {"type": "DT_VARIANT"}}}, {"name": "StatefulPartitionedCall/sequential_3_1/lstm_4_1/while/StatefulPartitionedCall/sequential_3_1/lstm_4_1/while/loop_counter_switch/_78", "op": "Switch", "input": ["StatefulPartitionedCall/sequential_3_1/lstm_4_1/while/merge/_70", "StatefulPartitionedCall/sequential_3_1/lstm_4_1/while/LoopCond/_77"], "attr": {"_has_manual_control_dependencies": {"b": true}, "T": {"type": "DT_INT32"}}}, {"name": "StatefulPartitionedCall/sequential_3_1/lstm_4_1/while/StatefulPartitionedCall/sequential_3_1/lstm_4_1/zeros_1_switch/_83", "op": "Switch", "input": ["StatefulPartitionedCall/sequential_3_1/lstm_4_1/while/merge/_75", "StatefulPartitionedCall/sequential_3_1/lstm_4_1/while/LoopCond/_77"], "attr": {"T": {"type": "DT_FLOAT"}}}, {"name": "StatefulPartitionedCall/sequential_3_1/lstm_4_1/while/StatefulPartitionedCall/sequential_3_1/lstm_4_1/TensorArrayUnstack/TensorListFromTensor_switch/_84", "op": "Switch", "input": ["StatefulPartitionedCall/sequential_3_1/lstm_4_1/while/merge/_76", "StatefulPartitionedCall/sequential_3_1/lstm_4_1/while/LoopCond/_77"], "attr": {"T": {"type": "DT_VARIANT"}}}, {"name": "StatefulPartitionedCall/sequential_3_1/lstm_4_1/while/StatefulPartitionedCall/sequential_3_1/lstm_4_1/time_switch/_80", "op": "Switch", "input": ["StatefulPartitionedCall/sequential_3_1/lstm_4_1/while/merge/_72", "StatefulPartitionedCall/sequential_3_1/lstm_4_1/while/LoopCond/_77"], "attr": {"T": {"type": "DT_INT32"}}}, {"name": "StatefulPartitionedCall/sequential_3_1/lstm_4_1/while/StatefulPartitionedCall/sequential_3_1/lstm_4_1/zeros_switch/_82", "op": "Switch", "input": ["StatefulPartitionedCall/sequential_3_1/lstm_4_1/while/merge/_74", "StatefulPartitionedCall/sequential_3_1/lstm_4_1/while/LoopCond/_77"], "attr": {"T": {"type": "DT_FLOAT"}}}, {"name": "StatefulPartitionedCall/sequential_3_1/lstm_4_1/while/StatefulPartitionedCall/sequential_3_1/lstm_4_1/Max_switch/_79", "op": "Switch", "input": ["StatefulPartitionedCall/sequential_3_1/lstm_4_1/while/merge/_71", "StatefulPartitionedCall/sequential_3_1/lstm_4_1/while/LoopCond/_77"], "attr": {"_has_manual_control_dependencies": {"b": true}, "T": {"type": "DT_INT32"}}}, {"name": "StatefulPartitionedCall/sequential_3_1/lstm_4_1/while/exit/_89", "op": "Exit", "input": ["StatefulPartitionedCall/sequential_3_1/lstm_4_1/while/StatefulPartitionedCall/sequential_3_1/lstm_4_1/TensorArrayV2_1_switch/_81"], "attr": {"_has_manual_control_dependencies": {"b": true}, "T": {"type": "DT_VARIANT"}}}, {"name": "StatefulPartitionedCall/sequential_3_1/lstm_4_1/while/exit/_86", "op": "Exit", "input": ["StatefulPartitionedCall/sequential_3_1/lstm_4_1/while/StatefulPartitionedCall/sequential_3_1/lstm_4_1/while/loop_counter_switch/_78"], "attr": {"_has_manual_control_dependencies": {"b": true}, "T": {"type": "DT_INT32"}}}, {"name": "StatefulPartitionedCall/sequential_3_1/lstm_4_1/while/loop_body_control/_85", "op": "Identity", "input": ["StatefulPartitionedCall/sequential_3_1/lstm_4_1/while/StatefulPartitionedCall/sequential_3_1/lstm_4_1/while/loop_counter_switch/_78:1"], "attr": {"_has_manual_control_dependencies": {"b": true}, "T": {"type": "DT_INT32"}}}, {"name": "StatefulPartitionedCall/sequential_3_1/lstm_4_1/while/exit/_91", "op": "Exit", "input": ["StatefulPartitionedCall/sequential_3_1/lstm_4_1/while/StatefulPartitionedCall/sequential_3_1/lstm_4_1/zeros_1_switch/_83"], "attr": {"_has_manual_control_dependencies": {"b": true}, "T": {"type": "DT_FLOAT"}}}, {"name": "StatefulPartitionedCall/sequential_3_1/lstm_4_1/while/exit/_92", "op": "Exit", "input": ["StatefulPartitionedCall/sequential_3_1/lstm_4_1/while/StatefulPartitionedCall/sequential_3_1/lstm_4_1/TensorArrayUnstack/TensorListFromTensor_switch/_84"], "attr": {"_has_manual_control_dependencies": {"b": true}, "T": {"type": "DT_VARIANT"}}}, {"name": "StatefulPartitionedCall/sequential_3_1/lstm_4_1/while/exit/_88", "op": "Exit", "input": ["StatefulPartitionedCall/sequential_3_1/lstm_4_1/while/StatefulPartitionedCall/sequential_3_1/lstm_4_1/time_switch/_80"], "attr": {"_has_manual_control_dependencies": {"b": true}, "T": {"type": "DT_INT32"}}}, {"name": "StatefulPartitionedCall/sequential_3_1/lstm_4_1/while/exit/_90", "op": "Exit", "input": ["StatefulPartitionedCall/sequential_3_1/lstm_4_1/while/StatefulPartitionedCall/sequential_3_1/lstm_4_1/zeros_switch/_82"], "attr": {"_has_manual_control_dependencies": {"b": true}, "T": {"type": "DT_FLOAT"}}}, {"name": "StatefulPartitionedCall/sequential_3_1/lstm_4_1/while/exit/_87", "op": "Exit", "input": ["StatefulPartitionedCall/sequential_3_1/lstm_4_1/while/StatefulPartitionedCall/sequential_3_1/lstm_4_1/Max_switch/_79"], "attr": {"_has_manual_control_dependencies": {"b": true}, "T": {"type": "DT_INT32"}}}, {"name": "StatefulPartitionedCall/sequential_3_1/lstm_4_1/TensorArrayV2Stack/TensorListStack", "op": "TensorListStack", "input": ["StatefulPartitionedCall/sequential_3_1/lstm_4_1/while/exit/_89", "StatefulPartitionedCall/sequential_3_1/lstm_4_1/TensorArrayV2Stack/TensorListStack/element_shape"], "attr": {"num_elements": {"i": "1"}, "element_dtype": {"type": "DT_FLOAT"}}}, {"name": "Func/StatefulPartitionedCall/sequential_3_1/lstm_4_1/while/body/_58/input_control_node/_147", "op": "NoOp", "input": ["^StatefulPartitionedCall/sequential_3_1/lstm_4_1/while/StatefulPartitionedCall/sequential_3_1/lstm_4_1/Max_switch/_79", "^StatefulPartitionedCall/sequential_3_1/lstm_4_1/while/StatefulPartitionedCall/sequential_3_1/lstm_4_1/TensorArrayUnstack/TensorListFromTensor_switch/_84", "^StatefulPartitionedCall/sequential_3_1/lstm_4_1/while/StatefulPartitionedCall/sequential_3_1/lstm_4_1/TensorArrayV2_1_switch/_81", "^StatefulPartitionedCall/sequential_3_1/lstm_4_1/while/StatefulPartitionedCall/sequential_3_1/lstm_4_1/time_switch/_80", "^StatefulPartitionedCall/sequential_3_1/lstm_4_1/while/loop_body_control/_85", "^StatefulPartitionedCall/sequential_3_1/lstm_4_1/while/StatefulPartitionedCall/sequential_3_1/lstm_4_1/zeros_1_switch/_83", "^StatefulPartitionedCall/sequential_3_1/lstm_4_1/while/StatefulPartitionedCall/sequential_3_1/lstm_4_1/zeros_switch/_82", "^StatefulPartitionedCall/sequential_3_1/lstm_4_1/while/enter/_66", "^StatefulPartitionedCall/sequential_3_1/lstm_4_1/while/enter/_67", "^StatefulPartitionedCall/sequential_3_1/lstm_4_1/while/enter/_68"], "attr": {"_has_manual_control_dependencies": {"b": true}}}, {"name": "StatefulPartitionedCall/sequential_3_1/lstm_4_1/strided_slice_3", "op": "StridedSlice", "input": ["StatefulPartitionedCall/sequential_3_1/lstm_4_1/TensorArrayV2Stack/TensorListStack", "StatefulPartitionedCall/sequential_3_1/lstm_4_1/strided_slice_3/stack", "StatefulPartitionedCall/sequential_3_1/lstm_4_1/strided_slice_3/stack_1", "StatefulPartitionedCall/sequential_3_1/lstm_4_1/strided_slice_3/stack_2"], "attr": {"shrink_axis_mask": {"i": "1"}, "Index": {"type": "DT_INT32"}, "new_axis_mask": {"i": "0"}, "begin_mask": {"i": "0"}, "end_mask": {"i": "0"}, "T": {"type": "DT_FLOAT"}, "ellipsis_mask": {"i": "0"}}}, {"name": "StatefulPartitionedCall/sequential_3_1/lstm_4_1/while/body/_58/sequential_3_1/lstm_4_1/while/TensorArrayV2Write/TensorListSetItem/index", "op": "Const", "input": ["^Func/StatefulPartitionedCall/sequential_3_1/lstm_4_1/while/body/_58/input_control_node/_147"], "attr": {"value": {"tensor": {"dtype": "DT_INT32", "tensorShape": {}}}, "dtype": {"type": "DT_INT32"}}}, {"name": "StatefulPartitionedCall/sequential_3_1/lstm_4_1/while/body/_58/sequential_3_1/lstm_4_1/while/add_1/y", "op": "Const", "input": ["^Func/StatefulPartitionedCall/sequential_3_1/lstm_4_1/while/body/_58/input_control_node/_147"], "attr": {"value": {"tensor": {"dtype": "DT_INT32", "tensorShape": {}}}, "dtype": {"type": "DT_INT32"}}}, {"name": "StatefulPartitionedCall/sequential_3_1/lstm_4_1/while/body/_58/sequential_3_1/lstm_4_1/while/lstm_cell_1/split/split_dim", "op": "Const", "input": ["^Func/StatefulPartitionedCall/sequential_3_1/lstm_4_1/while/body/_58/input_control_node/_147"], "attr": {"value": {"tensor": {"dtype": "DT_INT32", "tensorShape": {}}}, "dtype": {"type": "DT_INT32"}}}, {"name": "StatefulPartitionedCall/sequential_3_1/lstm_4_1/while/body/_58/sequential_3_1/lstm_4_1/while/add/y", "op": "Const", "input": ["^Func/StatefulPartitionedCall/sequential_3_1/lstm_4_1/while/body/_58/input_control_node/_147"], "attr": {"value": {"tensor": {"dtype": "DT_INT32", "tensorShape": {}}}, "dtype": {"type": "DT_INT32"}}}, {"name": "StatefulPartitionedCall/sequential_3_1/lstm_4_1/while/body/_58/sequential_3_1/lstm_4_1/while/TensorArrayV2Read/TensorListGetItem/element_shape", "op": "Const", "input": ["^Func/StatefulPartitionedCall/sequential_3_1/lstm_4_1/while/body/_58/input_control_node/_147"], "attr": {"value": {"tensor": {"dtype": "DT_INT32", "tensorShape": {"dim": [{"size": "2"}]}}}, "dtype": {"type": "DT_INT32"}}}, {"name": "StatefulPartitionedCall/sequential_3_1/lstm_4_1/while/body/_58/sequential_3_1/lstm_4_1/while/lstm_cell_1/Cast/ReadVariableOp", "op": "Const", "input": ["^StatefulPartitionedCall/sequential_3_1/lstm_4_1/while/enter/_66", "^Func/StatefulPartitionedCall/sequential_3_1/lstm_4_1/while/body/_58/input_control_node/_147"], "attr": {"value": {"tensor": {"dtype": "DT_FLOAT", "tensorShape": {"dim": [{"size": "100"}, {"size": "400"}]}}}, "dtype": {"type": "DT_FLOAT"}}}, {"name": "StatefulPartitionedCall/sequential_3_1/lstm_4_1/while/body/_58/sequential_3_1/lstm_4_1/while/lstm_cell_1/Cast_1/ReadVariableOp", "op": "Const", "input": ["^StatefulPartitionedCall/sequential_3_1/lstm_4_1/while/enter/_67", "^Func/StatefulPartitionedCall/sequential_3_1/lstm_4_1/while/body/_58/input_control_node/_147"], "attr": {"value": {"tensor": {"dtype": "DT_FLOAT", "tensorShape": {"dim": [{"size": "100"}, {"size": "400"}]}}}, "dtype": {"type": "DT_FLOAT"}}}, {"name": "StatefulPartitionedCall/sequential_3_1/lstm_4_1/while/body/_58/sequential_3_1/lstm_4_1/while/lstm_cell_1/add_1/ReadVariableOp", "op": "Const", "input": ["^StatefulPartitionedCall/sequential_3_1/lstm_4_1/while/enter/_68", "^Func/StatefulPartitionedCall/sequential_3_1/lstm_4_1/while/body/_58/input_control_node/_147"], "attr": {"value": {"tensor": {"dtype": "DT_FLOAT", "tensorShape": {"dim": [{"size": "400"}]}}}, "dtype": {"type": "DT_FLOAT"}}}, {"name": "StatefulPartitionedCall/sequential_3_1/dense_3_1/Add", "op": "_FusedMatMul", "input": ["StatefulPartitionedCall/sequential_3_1/lstm_4_1/strided_slice_3", "StatefulPartitionedCall/sequential_3_1/dense_3_1/Cast/ReadVariableOp", "StatefulPartitionedCall/sequential_3_1/dense_3_1/Add/ReadVariableOp"], "device": "/device:CPU:0", "attr": {"transpose_a": {"b": false}, "transpose_b": {"b": false}, "fused_ops": {"list": {"s": ["Qmlhc0FkZA=="]}}, "leakyrelu_alpha": {"f": 0.2}, "num_args": {"i": "1"}, "epsilon": {"f": 0.0}, "T": {"type": "DT_FLOAT"}}}, {"name": "StatefulPartitionedCall/sequential_3_1/lstm_4_1/while/body/_58/sequential_3_1/lstm_4_1/while/add_1", "op": "AddV2", "input": ["StatefulPartitionedCall/sequential_3_1/lstm_4_1/while/StatefulPartitionedCall/sequential_3_1/lstm_4_1/while/loop_counter_switch/_78:1", "StatefulPartitionedCall/sequential_3_1/lstm_4_1/while/body/_58/sequential_3_1/lstm_4_1/while/add_1/y"], "attr": {"T": {"type": "DT_INT32"}}}, {"name": "StatefulPartitionedCall/sequential_3_1/lstm_4_1/while/body/_58/sequential_3_1/lstm_4_1/while/add", "op": "AddV2", "input": ["StatefulPartitionedCall/sequential_3_1/lstm_4_1/while/StatefulPartitionedCall/sequential_3_1/lstm_4_1/time_switch/_80:1", "StatefulPartitionedCall/sequential_3_1/lstm_4_1/while/body/_58/sequential_3_1/lstm_4_1/while/add/y"], "attr": {"T": {"type": "DT_INT32"}}}, {"name": "StatefulPartitionedCall/sequential_3_1/lstm_4_1/while/body/_58/sequential_3_1/lstm_4_1/while/TensorArrayV2Read/TensorListGetItem", "op": "TensorListGetItem", "input": ["StatefulPartitionedCall/sequential_3_1/lstm_4_1/while/StatefulPartitionedCall/sequential_3_1/lstm_4_1/TensorArrayUnstack/TensorListFromTensor_switch/_84:1", "StatefulPartitionedCall/sequential_3_1/lstm_4_1/while/StatefulPartitionedCall/sequential_3_1/lstm_4_1/time_switch/_80:1", "StatefulPartitionedCall/sequential_3_1/lstm_4_1/while/body/_58/sequential_3_1/lstm_4_1/while/TensorArrayV2Read/TensorListGetItem/element_shape"], "attr": {"element_dtype": {"type": "DT_FLOAT"}}}, {"name": "StatefulPartitionedCall/sequential_3_1/lstm_4_1/while/body/_58/sequential_3_1/lstm_4_1/while/lstm_cell_1/MatMul_1", "op": "MatMul", "input": ["StatefulPartitionedCall/sequential_3_1/lstm_4_1/while/StatefulPartitionedCall/sequential_3_1/lstm_4_1/zeros_switch/_82:1", "StatefulPartitionedCall/sequential_3_1/lstm_4_1/while/body/_58/sequential_3_1/lstm_4_1/while/lstm_cell_1/Cast_1/ReadVariableOp"], "device": "/device:CPU:0", "attr": {"grad_a": {"b": false}, "transpose_a": {"b": false}, "T": {"type": "DT_FLOAT"}, "grad_b": {"b": false}, "transpose_b": {"b": false}}}, {"name": "Func/StatefulPartitionedCall/sequential_3_1/lstm_4_1/while/body/_58/output_control_node/_168", "op": "NoOp", "input": ["^StatefulPartitionedCall/sequential_3_1/lstm_4_1/while/body/_58/sequential_3_1/lstm_4_1/while/lstm_cell_1/Cast/ReadVariableOp", "^StatefulPartitionedCall/sequential_3_1/lstm_4_1/while/body/_58/sequential_3_1/lstm_4_1/while/lstm_cell_1/Cast_1/ReadVariableOp", "^StatefulPartitionedCall/sequential_3_1/lstm_4_1/while/body/_58/sequential_3_1/lstm_4_1/while/lstm_cell_1/add_1/ReadVariableOp"], "attr": {"_has_manual_control_dependencies": {"b": true}}}, {"name": "StatefulPartitionedCall/sequential_3_1/lstm_4_1/while/body/_58/sequential_3_1/lstm_4_1/while/NoOp", "op": "NoOp", "input": ["^StatefulPartitionedCall/sequential_3_1/lstm_4_1/while/body/_58/sequential_3_1/lstm_4_1/while/lstm_cell_1/Cast/ReadVariableOp", "^StatefulPartitionedCall/sequential_3_1/lstm_4_1/while/body/_58/sequential_3_1/lstm_4_1/while/lstm_cell_1/Cast_1/ReadVariableOp", "^StatefulPartitionedCall/sequential_3_1/lstm_4_1/while/body/_58/sequential_3_1/lstm_4_1/while/lstm_cell_1/add_1/ReadVariableOp"], "attr": {"_has_manual_control_dependencies": {"b": true}}}, {"name": "Identity", "op": "Identity", "input": ["StatefulPartitionedCall/sequential_3_1/dense_3_1/Add", "^StatefulPartitionedCall/sequential_3_1/lstm_4_1/while/exit/_92", "^StatefulPartitionedCall/sequential_3_1/lstm_3_1/while/exit/_45", "^StatefulPartitionedCall/sequential_3_1/lstm_3_1/while/exit/_47", "^StatefulPartitionedCall/sequential_3_1/lstm_3_1/while/exit/_46", "^StatefulPartitionedCall/sequential_3_1/lstm_4_1/while/exit/_88", "^StatefulPartitionedCall/sequential_3_1/lstm_4_1/while/exit/_89", "^StatefulPartitionedCall/sequential_3_1/lstm_4_1/while/exit/_90", "^StatefulPartitionedCall/sequential_3_1/lstm_4_1/while/exit/_91", "^StatefulPartitionedCall/sequential_3_1/lstm_3_1/while/exit/_42", "^StatefulPartitionedCall/sequential_3_1/lstm_3_1/while/exit/_48", "^StatefulPartitionedCall/sequential_3_1/lstm_3_1/while/exit/_43", "^StatefulPartitionedCall/sequential_3_1/lstm_3_1/while/exit/_44", "^StatefulPartitionedCall/sequential_3_1/lstm_4_1/while/exit/_86", "^StatefulPartitionedCall/sequential_3_1/lstm_4_1/while/exit/_87"], "attr": {"T": {"type": "DT_FLOAT"}}}, {"name": "StatefulPartitionedCall/sequential_3_1/lstm_4_1/while/body/_58/sequential_3_1/lstm_4_1/while/lstm_cell_1/add", "op": "AddV2", "input": ["StatefulPartitionedCall/sequential_3_1/lstm_4_1/while/body/_58/sequential_3_1/lstm_4_1/while/lstm_cell_1/add_1/ReadVariableOp", "StatefulPartitionedCall/sequential_3_1/lstm_4_1/while/body/_58/sequential_3_1/lstm_4_1/while/lstm_cell_1/MatMul_1"], "attr": {"T": {"type": "DT_FLOAT"}}}, {"name": "StatefulPartitionedCall/sequential_3_1/lstm_4_1/while/next_iteration/_100", "op": "NextIteration", "input": ["StatefulPartitionedCall/sequential_3_1/lstm_4_1/while/StatefulPartitionedCall/sequential_3_1/lstm_4_1/TensorArrayUnstack/TensorListFromTensor_switch/_84:1", "^Func/StatefulPartitionedCall/sequential_3_1/lstm_4_1/while/body/_58/output_control_node/_168", "^Func/StatefulPartitionedCall/sequential_3_1/lstm_4_1/while/body/_58/input_control_node/_147"], "attr": {"T": {"type": "DT_VARIANT"}}}, {"name": "StatefulPartitionedCall/sequential_3_1/lstm_4_1/while/next_iteration/_95", "op": "NextIteration", "input": ["StatefulPartitionedCall/sequential_3_1/lstm_4_1/while/StatefulPartitionedCall/sequential_3_1/lstm_4_1/Max_switch/_79:1", "^Func/StatefulPartitionedCall/sequential_3_1/lstm_4_1/while/body/_58/output_control_node/_168", "^StatefulPartitionedCall/sequential_3_1/lstm_4_1/while/body/_58/sequential_3_1/lstm_4_1/while/NoOp", "^Func/StatefulPartitionedCall/sequential_3_1/lstm_4_1/while/body/_58/input_control_node/_147"], "attr": {"T": {"type": "DT_INT32"}}}, {"name": "StatefulPartitionedCall/sequential_3_1/lstm_4_1/while/next_iteration/_94", "op": "NextIteration", "input": ["StatefulPartitionedCall/sequential_3_1/lstm_4_1/while/body/_58/sequential_3_1/lstm_4_1/while/add_1", "^Func/StatefulPartitionedCall/sequential_3_1/lstm_4_1/while/body/_58/output_control_node/_168", "^StatefulPartitionedCall/sequential_3_1/lstm_4_1/while/body/_58/sequential_3_1/lstm_4_1/while/NoOp"], "attr": {"T": {"type": "DT_INT32"}}}, {"name": "StatefulPartitionedCall/sequential_3_1/lstm_4_1/while/next_iteration/_96", "op": "NextIteration", "input": ["StatefulPartitionedCall/sequential_3_1/lstm_4_1/while/body/_58/sequential_3_1/lstm_4_1/while/add", "^Func/StatefulPartitionedCall/sequential_3_1/lstm_4_1/while/body/_58/output_control_node/_168", "^StatefulPartitionedCall/sequential_3_1/lstm_4_1/while/body/_58/sequential_3_1/lstm_4_1/while/NoOp"], "attr": {"T": {"type": "DT_INT32"}}}, {"name": "StatefulPartitionedCall/sequential_3_1/lstm_4_1/while/body/_58/sequential_3_1/lstm_4_1/while/lstm_cell_1/add_1", "op": "_FusedMatMul", "input": ["StatefulPartitionedCall/sequential_3_1/lstm_4_1/while/body/_58/sequential_3_1/lstm_4_1/while/TensorArrayV2Read/TensorListGetItem", "StatefulPartitionedCall/sequential_3_1/lstm_4_1/while/body/_58/sequential_3_1/lstm_4_1/while/lstm_cell_1/Cast/ReadVariableOp", "StatefulPartitionedCall/sequential_3_1/lstm_4_1/while/body/_58/sequential_3_1/lstm_4_1/while/lstm_cell_1/add"], "device": "/device:CPU:0", "attr": {"transpose_a": {"b": false}, "transpose_b": {"b": false}, "fused_ops": {"list": {"s": ["Qmlhc0FkZA=="]}}, "num_args": {"i": "1"}, "leakyrelu_alpha": {"f": 0.2}, "epsilon": {"f": 0.0}, "T": {"type": "DT_FLOAT"}}}, {"name": "StatefulPartitionedCall/sequential_3_1/lstm_4_1/while/body/_58/sequential_3_1/lstm_4_1/while/lstm_cell_1/split", "op": "Split", "input": ["StatefulPartitionedCall/sequential_3_1/lstm_4_1/while/body/_58/sequential_3_1/lstm_4_1/while/lstm_cell_1/split/split_dim", "StatefulPartitionedCall/sequential_3_1/lstm_4_1/while/body/_58/sequential_3_1/lstm_4_1/while/lstm_cell_1/add_1"], "attr": {"num_split": {"i": "4"}, "T": {"type": "DT_FLOAT"}}}, {"name": "StatefulPartitionedCall/sequential_3_1/lstm_4_1/while/body/_58/sequential_3_1/lstm_4_1/while/lstm_cell_1/Sigmoid", "op": "Sigmoid", "input": ["StatefulPartitionedCall/sequential_3_1/lstm_4_1/while/body/_58/sequential_3_1/lstm_4_1/while/lstm_cell_1/split"], "attr": {"T": {"type": "DT_FLOAT"}}}, {"name": "StatefulPartitionedCall/sequential_3_1/lstm_4_1/while/body/_58/sequential_3_1/lstm_4_1/while/lstm_cell_1/Sigmoid_1", "op": "Sigmoid", "input": ["StatefulPartitionedCall/sequential_3_1/lstm_4_1/while/body/_58/sequential_3_1/lstm_4_1/while/lstm_cell_1/split:1"], "attr": {"T": {"type": "DT_FLOAT"}}}, {"name": "StatefulPartitionedCall/sequential_3_1/lstm_4_1/while/body/_58/sequential_3_1/lstm_4_1/while/lstm_cell_1/Tanh", "op": "Tanh", "input": ["StatefulPartitionedCall/sequential_3_1/lstm_4_1/while/body/_58/sequential_3_1/lstm_4_1/while/lstm_cell_1/split:2"], "attr": {"T": {"type": "DT_FLOAT"}}}, {"name": "StatefulPartitionedCall/sequential_3_1/lstm_4_1/while/body/_58/sequential_3_1/lstm_4_1/while/lstm_cell_1/Sigmoid_2", "op": "Sigmoid", "input": ["StatefulPartitionedCall/sequential_3_1/lstm_4_1/while/body/_58/sequential_3_1/lstm_4_1/while/lstm_cell_1/split:3"], "attr": {"T": {"type": "DT_FLOAT"}}}, {"name": "StatefulPartitionedCall/sequential_3_1/lstm_4_1/while/body/_58/sequential_3_1/lstm_4_1/while/lstm_cell_1/mul", "op": "Mul", "input": ["StatefulPartitionedCall/sequential_3_1/lstm_4_1/while/body/_58/sequential_3_1/lstm_4_1/while/lstm_cell_1/Sigmoid_1", "StatefulPartitionedCall/sequential_3_1/lstm_4_1/while/StatefulPartitionedCall/sequential_3_1/lstm_4_1/zeros_1_switch/_83:1"], "attr": {"T": {"type": "DT_FLOAT"}}}, {"name": "StatefulPartitionedCall/sequential_3_1/lstm_4_1/while/body/_58/sequential_3_1/lstm_4_1/while/lstm_cell_1/mul_1", "op": "Mul", "input": ["StatefulPartitionedCall/sequential_3_1/lstm_4_1/while/body/_58/sequential_3_1/lstm_4_1/while/lstm_cell_1/Sigmoid", "StatefulPartitionedCall/sequential_3_1/lstm_4_1/while/body/_58/sequential_3_1/lstm_4_1/while/lstm_cell_1/Tanh"], "attr": {"T": {"type": "DT_FLOAT"}}}, {"name": "StatefulPartitionedCall/sequential_3_1/lstm_4_1/while/body/_58/sequential_3_1/lstm_4_1/while/lstm_cell_1/add_2", "op": "AddV2", "input": ["StatefulPartitionedCall/sequential_3_1/lstm_4_1/while/body/_58/sequential_3_1/lstm_4_1/while/lstm_cell_1/mul", "StatefulPartitionedCall/sequential_3_1/lstm_4_1/while/body/_58/sequential_3_1/lstm_4_1/while/lstm_cell_1/mul_1"], "attr": {"T": {"type": "DT_FLOAT"}}}, {"name": "StatefulPartitionedCall/sequential_3_1/lstm_4_1/while/body/_58/sequential_3_1/lstm_4_1/while/lstm_cell_1/Tanh_1", "op": "Tanh", "input": ["StatefulPartitionedCall/sequential_3_1/lstm_4_1/while/body/_58/sequential_3_1/lstm_4_1/while/lstm_cell_1/add_2"], "attr": {"T": {"type": "DT_FLOAT"}}}, {"name": "StatefulPartitionedCall/sequential_3_1/lstm_4_1/while/next_iteration/_99", "op": "NextIteration", "input": ["StatefulPartitionedCall/sequential_3_1/lstm_4_1/while/body/_58/sequential_3_1/lstm_4_1/while/lstm_cell_1/add_2", "^Func/StatefulPartitionedCall/sequential_3_1/lstm_4_1/while/body/_58/output_control_node/_168", "^StatefulPartitionedCall/sequential_3_1/lstm_4_1/while/body/_58/sequential_3_1/lstm_4_1/while/NoOp"], "attr": {"T": {"type": "DT_FLOAT"}}}, {"name": "StatefulPartitionedCall/sequential_3_1/lstm_4_1/while/body/_58/sequential_3_1/lstm_4_1/while/lstm_cell_1/mul_2", "op": "Mul", "input": ["StatefulPartitionedCall/sequential_3_1/lstm_4_1/while/body/_58/sequential_3_1/lstm_4_1/while/lstm_cell_1/Sigmoid_2", "StatefulPartitionedCall/sequential_3_1/lstm_4_1/while/body/_58/sequential_3_1/lstm_4_1/while/lstm_cell_1/Tanh_1"], "attr": {"T": {"type": "DT_FLOAT"}}}, {"name": "StatefulPartitionedCall/sequential_3_1/lstm_4_1/while/body/_58/sequential_3_1/lstm_4_1/while/TensorArrayV2Write/TensorListSetItem", "op": "TensorListSetItem", "input": ["StatefulPartitionedCall/sequential_3_1/lstm_4_1/while/StatefulPartitionedCall/sequential_3_1/lstm_4_1/TensorArrayV2_1_switch/_81:1", "StatefulPartitionedCall/sequential_3_1/lstm_4_1/while/body/_58/sequential_3_1/lstm_4_1/while/TensorArrayV2Write/TensorListSetItem/index", "StatefulPartitionedCall/sequential_3_1/lstm_4_1/while/body/_58/sequential_3_1/lstm_4_1/while/lstm_cell_1/mul_2"], "attr": {"element_dtype": {"type": "DT_FLOAT"}, "resize_if_index_out_of_bounds": {"b": false}}, "experimentalType": {"typeId": "TFT_PRODUCT", "args": [{"typeId": "TFT_ARRAY", "args": [{"typeId": "TFT_TENSOR", "args": [{"typeId": "TFT_FLOAT"}]}]}]}}, {"name": "StatefulPartitionedCall/sequential_3_1/lstm_4_1/while/next_iteration/_98", "op": "NextIteration", "input": ["StatefulPartitionedCall/sequential_3_1/lstm_4_1/while/body/_58/sequential_3_1/lstm_4_1/while/lstm_cell_1/mul_2", "^Func/StatefulPartitionedCall/sequential_3_1/lstm_4_1/while/body/_58/output_control_node/_168", "^StatefulPartitionedCall/sequential_3_1/lstm_4_1/while/body/_58/sequential_3_1/lstm_4_1/while/NoOp"], "attr": {"T": {"type": "DT_FLOAT"}}}, {"name": "StatefulPartitionedCall/sequential_3_1/lstm_4_1/while/next_iteration/_97", "op": "NextIteration", "input": ["StatefulPartitionedCall/sequential_3_1/lstm_4_1/while/body/_58/sequential_3_1/lstm_4_1/while/TensorArrayV2Write/TensorListSetItem", "^Func/StatefulPartitionedCall/sequential_3_1/lstm_4_1/while/body/_58/output_control_node/_168", "^StatefulPartitionedCall/sequential_3_1/lstm_4_1/while/body/_58/sequential_3_1/lstm_4_1/while/NoOp"], "attr": {"T": {"type": "DT_VARIANT"}}}], "library": {}, "versions": {"producer": 1994}}, "weightsManifest": [{"paths": ["group1-shard1of1.bin"], "weights": [{"name": "StatefulPartitionedCall/sequential_3_1/lstm_4_1/TensorArrayV2Stack/TensorListStack/element_shape", "shape": [2], "dtype": "int32"}, {"name": "StatefulPartitionedCall/sequential_3_1/lstm_4_1/strided_slice_3/stack", "shape": [1], "dtype": "int32"}, {"name": "StatefulPartitionedCall/sequential_3_1/lstm_4_1/strided_slice_3/stack_1", "shape": [1], "dtype": "int32"}, {"name": "StatefulPartitionedCall/sequential_3_1/lstm_4_1/strided_slice_3/stack_2", "shape": [1], "dtype": "int32"}, {"name": "StatefulPartitionedCall/sequential_3_1/dense_3_1/Cast/ReadVariableOp", "shape": [100, 1], "dtype": "float32"}, {"name": "StatefulPartitionedCall/sequential_3_1/dense_3_1/Add/ReadVariableOp", "shape": [1], "dtype": "float32"}, {"name": "StatefulPartitionedCall/sequential_3_1/lstm_4_1/Max", "shape": [], "dtype": "int32"}, {"name": "StatefulPartitionedCall/sequential_3_1/lstm_4_1/while/loop_counter", "shape": [], "dtype": "int32"}, {"name": "StatefulPartitionedCall/sequential_3_1/lstm_4_1/time", "shape": [], "dtype": "int32"}, {"name": "Func/StatefulPartitionedCall/input/_6", "shape": [100, 400], "dtype": "float32"}, {"name": "Func/StatefulPartitionedCall/input/_7", "shape": [100, 400], "dtype": "float32"}, {"name": "Func/StatefulPartitionedCall/input/_8", "shape": [400], "dtype": "float32"}, {"name": "StatefulPartitionedCall/sequential_3_1/lstm_4_1/TensorArrayUnstack/TensorListFromTensor/element_shape", "shape": [2], "dtype": "int32"}, {"name": "StatefulPartitionedCall/sequential_3_1/lstm_4_1/TensorArrayV2_1/element_shape", "shape": [2], "dtype": "int32"}, {"name": "StatefulPartitionedCall/sequential_3_1/lstm_4_1/TensorArrayV2_1/num_elements", "shape": [], "dtype": "int32"}, {"name": "StatefulPartitionedCall/sequential_3_1/lstm_4_1/zeros/packed/1", "shape": [], "dtype": "int32"}, {"name": "StatefulPartitionedCall/sequential_3_1/lstm_4_1/zeros/Const", "shape": [], "dtype": "float32"}, {"name": "StatefulPartitionedCall/sequential_3_1/lstm_3_1/Max", "shape": [], "dtype": "int32"}, {"name": "StatefulPartitionedCall/sequential_3_1/lstm_3_1/while/loop_counter", "shape": [], "dtype": "int32"}, {"name": "StatefulPartitionedCall/sequential_3_1/lstm_3_1/time", "shape": [], "dtype": "int32"}, {"name": "Func/StatefulPartitionedCall/input/_3", "shape": [64, 400], "dtype": "float32"}, {"name": "Func/StatefulPartitionedCall/input/_4", "shape": [100, 400], "dtype": "float32"}, {"name": "Func/StatefulPartitionedCall/input/_5", "shape": [400], "dtype": "float32"}, {"name": "StatefulPartitionedCall/sequential_3_1/lstm_3_1/transpose/perm", "shape": [3], "dtype": "int32"}, {"name": "StatefulPartitionedCall/sequential_3_1/lstm_3_1/TensorArrayUnstack/TensorListFromTensor/element_shape", "shape": [2], "dtype": "int32"}, {"name": "StatefulPartitionedCall/sequential_3_1/lstm_3_1/TensorArrayV2_1/element_shape", "shape": [2], "dtype": "int32"}, {"name": "StatefulPartitionedCall/sequential_3_1/lstm_3_1/TensorArrayV2_1/num_elements", "shape": [], "dtype": "int32"}, {"name": "StatefulPartitionedCall/sequential_3_1/lstm_3_1/zeros/packed/1", "shape": [], "dtype": "int32"}, {"name": "StatefulPartitionedCall/sequential_3_1/lstm_3_1/zeros/Const", "shape": [], "dtype": "float32"}, {"name": "StatefulPartitionedCall/sequential_3_1/conv1d_3_1/convolution/ExpandDims/dim", "shape": [], "dtype": "int32"}, {"name": "StatefulPartitionedCall/sequential_3_1/conv1d_3_1/convolution/ExpandDims_1", "shape": [1, 3, 3, 64], "dtype": "float32"}, {"name": "StatefulPartitionedCall/sequential_3_1/conv1d_3_1/Squeeze", "shape": [64], "dtype": "float32"}, {"name": "StatefulPartitionedCall/sequential_3_1/max_pooling1d_3_1/MaxPool1d/ExpandDims/dim", "shape": [], "dtype": "int32"}, {"name": "StatefulPartitionedCall/sequential_3_1/lstm_3_1/strided_slice/stack", "shape": [1], "dtype": "int32"}, {"name": "StatefulPartitionedCall/sequential_3_1/lstm_3_1/strided_slice/stack_1", "shape": [1], "dtype": "int32"}, {"name": "StatefulPartitionedCall/sequential_3_1/lstm_3_1/strided_slice/stack_2", "shape": [1], "dtype": "int32"}, {"name": "StatefulPartitionedCall/sequential_3_1/lstm_3_1/zeros_1/packed/1", "shape": [], "dtype": "int32"}, {"name": "StatefulPartitionedCall/sequential_3_1/lstm_3_1/zeros_1/Const", "shape": [], "dtype": "float32"}, {"name": "StatefulPartitionedCall/sequential_3_1/lstm_3_1/TensorArrayV2Stack/TensorListStack/element_shape", "shape": [2], "dtype": "int32"}, {"name": "StatefulPartitionedCall/sequential_3_1/lstm_3_1/transpose_1/perm", "shape": [3], "dtype": "int32"}, {"name": "StatefulPartitionedCall/sequential_3_1/lstm_4_1/strided_slice/stack", "shape": [1], "dtype": "int32"}, {"name": "StatefulPartitionedCall/sequential_3_1/lstm_4_1/strided_slice/stack_1", "shape": [1], "dtype": "int32"}, {"name": "StatefulPartitionedCall/sequential_3_1/lstm_4_1/strided_slice/stack_2", "shape": [1], "dtype": "int32"}, {"name": "StatefulPartitionedCall/sequential_3_1/lstm_4_1/zeros_1/packed/1", "shape": [], "dtype": "int32"}, {"name": "StatefulPartitionedCall/sequential_3_1/lstm_4_1/zeros_1/Const", "shape": [], "dtype": "float32"}, {"name": "StatefulPartitionedCall/sequential_3_1/lstm_3_1/while/cond/_13/sequential_3_1/lstm_3_1/while/Less/y", "shape": [], "dtype": "int32"}, {"name": "StatefulPartitionedCall/sequential_3_1/lstm_3_1/while/body/_14/sequential_3_1/lstm_3_1/while/add_1/y", "shape": [], "dtype": "int32"}, {"name": "StatefulPartitionedCall/sequential_3_1/lstm_3_1/while/body/_14/sequential_3_1/lstm_3_1/while/lstm_cell_1/split/split_dim", "shape": [], "dtype": "int32"}, {"name": "StatefulPartitionedCall/sequential_3_1/lstm_3_1/while/body/_14/sequential_3_1/lstm_3_1/while/add/y", "shape": [], "dtype": "int32"}, {"name": "StatefulPartitionedCall/sequential_3_1/lstm_3_1/while/body/_14/sequential_3_1/lstm_3_1/while/TensorArrayV2Read/TensorListGetItem/element_shape", "shape": [2], "dtype": "int32"}, {"name": "StatefulPartitionedCall/sequential_3_1/lstm_3_1/while/body/_14/sequential_3_1/lstm_3_1/while/lstm_cell_1/Cast/ReadVariableOp", "shape": [64, 400], "dtype": "float32"}, {"name": "StatefulPartitionedCall/sequential_3_1/lstm_3_1/while/body/_14/sequential_3_1/lstm_3_1/while/lstm_cell_1/Cast_1/ReadVariableOp", "shape": [100, 400], "dtype": "float32"}, {"name": "StatefulPartitionedCall/sequential_3_1/lstm_3_1/while/body/_14/sequential_3_1/lstm_3_1/while/lstm_cell_1/add_1/ReadVariableOp", "shape": [400], "dtype": "float32"}, {"name": "StatefulPartitionedCall/sequential_3_1/lstm_4_1/while/cond/_57/sequential_3_1/lstm_4_1/while/Less/y", "shape": [], "dtype": "int32"}, {"name": "StatefulPartitionedCall/sequential_3_1/lstm_4_1/while/body/_58/sequential_3_1/lstm_4_1/while/TensorArrayV2Write/TensorListSetItem/index", "shape": [], "dtype": "int32"}, {"name": "StatefulPartitionedCall/sequential_3_1/lstm_4_1/while/body/_58/sequential_3_1/lstm_4_1/while/add_1/y", "shape": [], "dtype": "int32"}, {"name": "StatefulPartitionedCall/sequential_3_1/lstm_4_1/while/body/_58/sequential_3_1/lstm_4_1/while/lstm_cell_1/split/split_dim", "shape": [], "dtype": "int32"}, {"name": "StatefulPartitionedCall/sequential_3_1/lstm_4_1/while/body/_58/sequential_3_1/lstm_4_1/while/add/y", "shape": [], "dtype": "int32"}, {"name": "StatefulPartitionedCall/sequential_3_1/lstm_4_1/while/body/_58/sequential_3_1/lstm_4_1/while/TensorArrayV2Read/TensorListGetItem/element_shape", "shape": [2], "dtype": "int32"}, {"name": "StatefulPartitionedCall/sequential_3_1/lstm_4_1/while/body/_58/sequential_3_1/lstm_4_1/while/lstm_cell_1/Cast/ReadVariableOp", "shape": [100, 400], "dtype": "float32"}, {"name": "StatefulPartitionedCall/sequential_3_1/lstm_4_1/while/body/_58/sequential_3_1/lstm_4_1/while/lstm_cell_1/Cast_1/ReadVariableOp", "shape": [100, 400], "dtype": "float32"}, {"name": "StatefulPartitionedCall/sequential_3_1/lstm_4_1/while/body/_58/sequential_3_1/lstm_4_1/while/lstm_cell_1/add_1/ReadVariableOp", "shape": [400], "dtype": "float32"}]}]}